double_saved_models/best_critic.pth (torch, 22192 bytes, 5 tensors)

critic.0.weight f4 [64, 9]
0.27448016 0.3585584 0.116734855 0.6850071 0.41814417 -0.014118849 0.06282876 -0.009124275
-0.29108113 0.6557485 -0.029635023 -0.8916284 -0.19086935 -0.13945375 0.35419753 -0.357331
-0.4301607 0.3109808 0.0970145 -0.53272945 0.14238404 0.3645663 0.26066342 -0.18669245
-0.21249825 -0.33562407 0.32361963 0.110091284 0.75557244 0.8374779 0.83582455 0.3918313
-0.3486866 0.31759137 0.5093057 0.33362785 0.17369522 0.4857205 -0.6335574 0.16316497
0.10158549 0.09462121 -0.17576095 0.21339116 -0.13472755 -0.05931268 -0.010674164 -0.2773405
0.624273 0.67109907 -0.09082882 -0.063825965 -0.10604408 0.36044657 0.60771894 1.7252101
1.0046507 0.41444078 0.3115813 0.57943887 0.64603347 0.23313159 0.31716967 0.4995283
0.42030585 0.12689443 0.5790799 0.44565362 0.50199366 0.16285573 -0.20582399 0.3466689
0.18627886 -0.040762894 -0.15458304 0.7071326 0.52572733 0.27676743 -0.040624417 -0.1866498
0.08227734 0.87035584 0.26803282 1.4195977 0.2857508 0.17832185 0.5024356 0.21870814
0.19269873 0.20021601 0.41125554 1.9800385 0.76618767 0.3140738 0.4072651 0.7083882
0.7729403 0.27870572 0.4728602 0.26561943 1.5761446 2.0074005 -0.22184336 -0.06367863
0.4269323 0.75715536 0.47592306 -0.23670882 -0.023390688 -0.60689646 0.5694424 0.5976354
0.8178733 -0.32899278 0.120191865 0.2512216 -0.16545936 -0.07883698 0.17281307 -0.17135552
0.77936506 0.45385018 0.015125346 0.05686329 0.06067251 0.056728914 -0.11061662 -0.02870329
-0.31913984 0.6165465 0.784188 0.3399861 -0.07498667 -0.19511367 0.114699975 0.04226017
-1.5793144 -1.0035241 0.97514 0.56222737 -0.27857324 -0.18344794 -0.27326214 0.31834227
-0.1603492 -1.2102433 -1.9729453 -0.25106004 -0.28561828 -0.23684268 -0.71745586 -0.4750818
0.27550027 -1.1464548 0.60008806 -0.46943778 -0.39132738 -0.5156147 0.27530798 0.18299654
0.04806927 0.017721374 0.293474 1.3882245 0.7613346 0.5648971 0.6031002 0.55086637
0.4701668 0.08917926 0.24317966 -0.7716945 -1.6849552 -0.74135804 0.6207604 0.27933908
-0.5224722 -0.49804896 -0.1665722 0.24801055 0.477158 0.18504514 -1.5411152 -0.23269165
0.1152876 0.1839076 -0.42692527 -0.5166865 -0.1274745 -0.37075746 0.07575838 -0.7447739
0.7096041 0.7929274 0.2912401 -0.16030888 -0.30649218 0.25242487 0.79959124 2.4303317
0.8728806 0.5363723 0.17472018 0.55858654 0.5984884 0.20701578 0.027208513 0.5054986
2.1386948 1.8879565 0.3680196 0.2680074 0.18073495 0.68811584 0.5617173 -0.19174185
0.2448908 -2.404866 1.2857747 0.036090758 -0.19366533 -0.06220032 -0.08728047 -0.044423707
0.16959253 0.40464896 0.6659414 0.7317704 0.8286543 0.26046607 0.10088161 0.41494697
0.13241068 -0.17666583 0.1660536 0.38202897 -0.17500779 0.6092696 0.69447476 0.35315397
0.041509528 -0.18043022 0.049054723 -0.16974166 0.5092641 1.309532 0.7582538 0.66773176
-0.19722252 0.3175278 0.384256 0.016459698 -0.21201636 -1.3813142 -1.9076066 -0.35878223
00000000: aa88 8c3e f794 b73e af12 ef3d a05c 2f3f
00000010: fe16 d63e bf52 67bc 5dac 803d fc7d 15bc
00000020: 9608 95be 22df 273f 26c5 f2bc c241 64bf
00000030: 4173 43be f7cc 0ebe 6159 b53e 17f4 b6be
00000040: 063e dcbe e038 9f3e 8aaf c63d f560 08bf
00000050: 1fcd 113e 6fa8 ba3e ad75 853e 4e2c 3fbe
00000060: 2499 59be ebd6 abbe 79b1 a53e 8a77 e13d
00000070: 326d 413f f464 563f 99f8 553f 1d9e c83e
00000080: 0d87 b2be 569b a23e dc61 023f 45d1 aa3e
00000090: 29dd 313e 5bb0 f83e d130 22bf b814 273e
000000a0: 0e0c d03d c4c8 c13d aefa 33be 3683 5a3e
000000b0: 05f6 09be daf1 72bd b0e2 2ebc 93ff 8dbe
000000c0: 5bd0 1f3f 26cd 2b3f 7604 babd 30b7 82bd
000000d0: a32d d9bd 748c b83e 7893 1b3f afd3 dc3f
000000e0: 6598 803f 9531 d43e 9687 9f3e 1b56 143f
000000f0: 7362 253f 0cba 6e3e 1064 a23e 2cc2 ff3e
00000100: 5432 d73e 9df0 013e 953e 143f b62c e43e
00000110: a882 003f a7c3 263e 86c3 52be 967e b13e
00000120: e3bf 3e3e fef6 26bd 044b 1ebe a406 353f
00000130: 1196 063f 76b4 8d3e ca65 26bd 2021 3fbe
00000140: 0681 a83d a4cf 5e3f 993b 893e 61b5 b53f
00000150: ee4d 923e 019a 363e 9f9f 003f 07f5 5f3e
00000160: d152 453e 6d05 4d3e 1690 d23e e771 fd3f
00000170: e024 443f 48ce a03e 0d85 d03e ee58 353f
00000180: 6adf 453f 84b2 8e3e bb1a f23e 45ff 873e
00000190: 1bbf c93f 4079 0040 e82a 63be f169 82bd
000001a0: df96 da3e efd4 413f 30ac f33e cc63 72be
000001b0: d49d bfbc 915d 1bbf fac6 113f a2fe 183f
000001c0: 2560 513f be71 a8be 2727 f63d 1ea0 803e
000001d0: 2e6e 29be 4875 a1bd e9f5 303e d277 2fbe
000001e0: 7884 473f 0d5f e83e 4dd0 773c 7be9 683d
000001f0: bd83 783d 945c 683d f78a e2bd 2923 ebbc
00000200: 4c66 a3be fed5 1d3f 8bc0 483f a812 ae3e
00000210: 9c92 99bd e1cb 47be d2e7 ea3d 0019 2d3d
00000220: f926 cabf 7a73 80bf c6a2 793f 22ee 0f3f
00000230: 27a1 8ebe c7d9 3bbe 04e9 8bbe c2fd a23e
00000240: 9532 24be 41e9 9abf 7989 fcbf f18a 80be
00000250: 8f3c 92be e386 72be 30ab 37bf ec3d f3be
00000260: 5f0e 8d3e 08bf 92bf 5f9f 193f 265a f0be
00000270: 105c c8be 53ff 03bf 2bf5 8c3e 7263 3b3e
00000280: 48e4 443d 6a2c 913c 3942 963e 57b1 b13f
00000290: d3e6 423f 199d 103f c664 1a3f 9405 0d3f
000002a0: b4b9 f03e 9ea3 b63d 1704 793e c58d 45bf
000002b0: 9dac d7bf a4c9 3dbf 27ea 1e3f 8805 8f3e
000002c0: bdc0 05bf 4600 ffbe e791 2abe 7af6 7d3e
000002d0: 0e4e f43e 797c 3d3e 4343 c5bf b846 6ebe
000002e0: e81b ec3d 4652 3c3e f395 dabe 9145 04bf
000002f0: ad88 02be ecd3 bdbe 3627 9b3d 81a9 3ebf
00000300: 9da8 353f 4afd 4a3f 6c1d 953e 0328 24be
00000310: 8bec 9cbe d53d 813e 03b2 4c3f 8e8a 1b40
00000320: 1a75 5f3f b24f 093f d9e9 323e 87ff 0e3f
00000330: 8936 193f f2fb 533e 63e4 de3c 5b68 013f
00000340: 60e0 0840 8fa8 f13f 116d bc3e 4438 893e
00000350: 9512 393e 5c28 303f b4cc 0f3f fa57 44be
00000360: a7c4 7a3e 53e9 19c0 4494 a43f e7d3 133d
00000370: 3450 46be c3c5 7ebd 1ac0 b2bd a2f5 35bd
00000380: aaa9 2d3e 262e cf3e 237b 2a3f 4e55 3b3f
00000390: b022 543f cf5b 853e 049b ce3d ee73 d43e
000003a0: aa96 073e e3e7 34be f409 2a3e 4d99 c33e
000003b0: 3e35 33be 18f9 1b3f 19c9 313f 99d0 b43e
000003c0: e505 2a3d b3c2 38be 9bed 483d c2d0 2dbe
000003d0: 225f 023f bf9e a73f ec1c 423f 78f0 2a3f
000003e0: b3f4 49be 0193 a23e 34bd c43e 7dd6 863c
000003f0: d11a 59be e7ce b0bf 742c f4bf 4eb2 b7be

critic.0.bias f4 [64]
0.33063257 -0.41785982 0.23945041 0.334527 0.48156568 0.4931965 0.68174595 0.8389184
0.42667162 0.30126193 0.70038366 -0.09017841 0.27043664 0.19516703 0.6578159 0.58215374
0.16280444 0.15812181 0.24776444 0.6547425 0.5059511 0.47371507 0.80444604 0.4035274
0.10619638 0.81520766 0.17461203 0.017841134 0.007171245 0.24659745 0.7607851 -0.11813005
0.27174285 0.5045863 -0.21034804 -0.27701023 0.24672513 0.20652458 0.5002683 0.12674865
0.05815746 0.355565 0.18830492 -0.4328977 0.38253924 0.7065106 0.34908342 -0.29049268
0.6706981 0.69727546 0.3175584 0.74246657 0.3407507 0.60620046 0.49468723 0.42205015
0.25001734 0.5847832 0.097627506 0.42263937 0.5689093 -0.07034736 0.73618525 0.4521993
00000000: ac48 a93e b9f1 d5be 7d32 753e 1f47 ab3e
00000010: c78f f63e 4084 fc3e e786 2e3f 5bc3 563f
00000020: b474 da3e 013f 9a3e 584c 333f 75af b8bd
00000030: ac76 8a3e ded9 473e 9f66 283f 0708 153f
00000040: 35b6 263e afea 213e f6b5 7d3e 349d 273f
00000050: 0386 013f c88a f23e 2df0 4d3f 259b ce3e
00000060: 7d7d d93d 73b1 503f 7fcd 323e 9227 923c
00000070: c3fc ea3b 0b84 7c3e d0c2 423f 2bee f1bd
00000080: e121 8b3e 912c 013f 7a65 57be 49d4 8dbe
00000090: 83a5 7c3e 2e7b 533e 9511 003f 66ca 013e
000000a0: 8436 6e3d 9e0c b63e 01d3 403e c4a4 ddbe
000000b0: 2fdc c33e e1dd 343f 10bb b23e 75bb 94be
000000c0: dfb2 2b3f a580 323f 0497 a23e 4a12 3e3f
000000d0: e076 ae3e f42f 1b3f a547 fd3e f516 d83e
000000e0: 4602 803e 5ab4 153f eef0 c73d 3064 d83e
000000f0: 0aa4 113f 4712 90bd a376 3c3f ab86 e73e

critic.2.weight f4 [64, 64]
0.5047431 -0.08564339 0.22550951 0.5032457 0.21289258 0.5848519 0.42698634 0.49598962
0.6105068 0.08815739 0.3207098 -2.3664458 0.4768103 0.5488437 0.55015993 0.47150913
-1.1987662 -0.23323868 0.5750781 0.6195071 -0.09253442 0.48191243 0.47641933 0.59566814
0.43240455 0.21656874 0.49847823 0.6244979 -1.3451368 -0.54086846 0.5326458 -0.13272172
0.60933286 0.66086996 -1.1406243 -0.64080024 0.07092611 0.17047976 0.19461161 0.08015275
0.5573722 0.30926415 0.67054945 -0.09494573 0.11838546 0.25335187 0.6873541 -0.53026354
0.70019686 0.4960415 0.51631296 0.49680883 0.44479632 0.4834193 0.13139792 0.31427613
0.439425 0.42300776 0.27824727 0.68657404 0.04398018 0.13703714 0.5930135 0.6394265
-0.15962318 0.8499816 0.21024376 -0.63706225 0.1421682 0.15481356 -0.8538419 0.038707793
0.046447884 -0.106548324 -0.7416562 0.49440956 -0.06834914 -0.19219609 0.02416572 0.36359763
1.675117 0.7043887 -0.6940736 0.5952924 1.0726511 0.09848449 -0.5529948 -1.4555849
0.3201115 -0.21467659 -0.08017009 -0.85935473 1.7923517 0.6003501 0.22892328 0.5035668
0.5307122 -0.029719677 1.5357276 0.8702958 0.32688847 0.28810495 -0.19220875 0.52926064
-0.3107271 0.10399166 0.4930584 0.41356358 0.2518793 -0.31337664 -0.5756962 0.9680378
0.39930442 -0.20773348 -1.0156803 0.726094 -0.40172198 -0.17938371 -0.038178205 -0.70858914
0.32621306 0.48961955 -1.0074196 -0.41772193 -0.4985753 0.025581399 0.4692312 0.56399286
0.60360026 -0.36898583 0.28060833 0.64177704 0.24227943 0.61443764 0.61965364 0.43170086
0.6526542 -0.0033378752 0.4392239 -2.4010522 0.3203251 0.46444446 0.6115746 0.48934403
-1.3241239 -0.40491104 0.61546785 0.64801246 -0.27074412 0.57711893 0.3352309 0.35479525
0.23507832 0.3863739 0.61140424 0.6429367 -1.5790513 -0.84334105 0.4593388 -0.23282199
0.58203524 0.70139164 -1.3914222 -0.6677781 0.08304202 0.26595595 0.26663455 -0.14075007
0.81338525 0.2829659 0.7759035 -0.2569609 0.016388625 0.4322129 0.49727786 -0.6796941
0.6409687 0.32215127 0.53621525 0.64703184 0.61909944 0.4099861 0.14278443 0.3839844
0.544259 0.7179038 0.08094468 0.6819821 -0.0920482 -0.0860837 0.5382084 0.5589142
0.5687893 -0.24147038 0.3235733 0.6136876 0.2642559 0.44598812 0.6438796 0.4202629
0.6714242 -0.100837484 0.3057856 -2.2431142 0.48272645 0.44477674 0.42511666 0.48519433
-1.0109392 -0.33757395 0.47539064 0.6429931 -0.17592755 0.5878243 0.44367003 0.6079522
0.36703116 0.38808742 0.5994709 0.6314426 -1.522026 -0.5701531 0.3901887 -0.02454698
0.68608665 0.7140244 -1.1212134 -0.60187143 0.26383597 0.27940735 0.27963892 0.038532708
0.7995057 0.2255326 0.73321205 -0.028553037 -0.09005519 0.314493 0.5603728 -0.70690674
0.6457906 0.54080033 0.6281414 0.5237363 0.3887865 0.4419525 0.11199439 0.49868834
0.47801307 0.5213667 0.16627808 0.5936307 0.017356202 0.06704394 0.63407665 0.53114283
00000000: d836 013f cd65 afbd f7eb 663e b6d4 003f
00000010: 8300 5a3e dbb8 153f f49d da3e 5af2 fd3e
00000020: 2c4a 1c3f dd8b b43d 1334 a43e d973 17c0
00000030: 7b20 f43e 0581 0c3f 48d7 0c3f a569 f13e
00000040: 2c71 99bf 1fd6 6ebe 5238 133f 0498 1e3f
00000050: b082 bdbd 3abd f63e 3ced f33e b57d 183f
00000060: 2164 dd3e 32c4 5d3e 8a38 ff3e 18df 1f3f
00000070: 712d acbf 5b76 0abf 7a5b 083f 34e8 07be
00000080: 3dfd 1b3f c62e 293f faff 91bf 7c0b 24bf
00000090: b541 913d 3f92 2e3e 4448 473e 2027 a43d
000000a0: f2af 0e3f df57 9e3e 21a9 2b3f e872 c2bd
000000b0: 1374 f23d 56b7 813e 70f6 2f3f 5abf 07bf
000000c0: 1a40 333f 27f9 fd3e 162d 043f ba5d fe3e
000000d0: 58bc e33e bc82 f73e 2d8d 063e cde8 a03e
000000e0: 50fc e03e 7994 d83e 6d76 8e3e 51c3 2f3f
000000f0: 9024 343d 7753 0c3e bccf 173f 75b1 233f
00000100: 4274 23be 6598 593f 244a 573e 8316 23bf
00000110: 8a94 113e 7287 1e3e 6295 5abf 108c 1e3d
00000120: 2340 3e3d 0236 dabd 2edd 3dbf 4023 fd3e
00000130: a2fa 8bbd 0dcf 44be 30f7 c53c 7829 ba3e
00000140: 3c6a d63f d152 343f cfae 31bf 1565 183f
00000150: a24c 893f 3cb2 c93d 1191 0dbf 9b50 babf
00000160: a8e5 a33e 2ed4 5bbe 3730 a4bd acfe 5bbf
00000170: c86b e53f 8bb0 193f dd6a 6a3e c1e9 003f
00000180: c1dc 073f ae76 f3bc b992 c43f b5cb 5e3f
00000190: ed5d a73e 7e82 933e 5fd2 44be a07d 073f
000001a0: 9f17 9fbe 94f9 d43d 2772 fc3e 9bbe d33e
000001b0: 53f6 803e e772 a0be d360 13bf 53d1 773f
000001c0: a171 cc3e 16b8 54be d001 82bf 4ce1 393f
000001d0: 81ae cdbe 5db0 37be c060 1cbd 1966 35bf
000001e0: 6605 a73e 6aaf fa3e 20f3 80bf a6df d5be
000001f0: 4345 ffbe 1590 d13c 123f f03e d661 103f
00000200: 8c85 1a3f b6eb bcbe e5ab 8f3e 804b 243f
00000210: 1918 783e c94b 1d3f 9fa1 1e3f e507 dd3e
00000220: 5814 273f 41c0 5abb f4e1 e03e d7aa 19c0
00000230: a701 a43e aacb ed3e 2790 1c3f 4d8b fa3e
00000240: e47c a9bf 8050 cfbe 4d8f 1d3f 25e4 253f
00000250: f99e 8abe 11be 133f 62a3 ab3e b9a7 b53e
00000260: 5fb8 703e cdd2 c53e fd84 1c3f 8097 243f
00000270: 5a1e cabf 33e5 57bf 752e eb3e e368 6ebe
00000280: 4300 153f 678e 333f 1f1a b2bf 81f3 2abf
00000290: ef11 aa3d 612b 883e 5384 883e c920 10be
000002a0: 043a 503f e8e0 903e 9da1 463f 6190 83be
000002b0: 7041 863c 024b dd3e 349b fe3e 6f00 2ebf
000002c0: 8616 243f 03f1 a43e 6745 093f e1a3 253f
000002d0: 4d7d 1e3f b3e9 d13e 1536 123e 9a99 c43e
000002e0: 8f54 0b3f 8bc8 373f 53c6 a53d 6196 2e3f
000002f0: c483 bcbd a74c b0bd 07c8 093f 0015 0f3f
00000300: 2d9c 113f 0344 77be 66ab a53e a11a 1d3f
00000310: 8d4c 873e 8e58 e43e 4bd5 243f b32c d73e
00000320: 75e2 2b3f e283 cebd ee8f 9c3e 2f8f 0fc0
00000330: ec27 f73e c7b9 e33e e4a8 d93e 646b f83e
00000340: 7566 81bf 7ed6 acbe 6766 f33e 329b 243f
00000350: 5a26 34be a77b 163f b828 e33e c1a2 1b3f
00000360: 82eb bb3e 65b3 c63e ed76 193f 39a6 213f
00000370: bfd1 c2bf 8ef5 11bf d0c6 c73e c016 c9bc
00000380: 60a3 2f3f 4eca 363f ec83 8fbf 3f14 1abf
00000390: 8215 873e 7b0e 8f3e d52c 8f3e 79d4 1d3d
000003a0: 68ac 4c3f 05f2 663e c9b3 3b3f 0fe8 e9bc
000003b0: db6e b8bd 3a05 a13e 9874 0f3f d7f7 34bf
000003c0: 8852 253f e471 0a3f e0cd 203f 9513 063f
000003d0: 060f c73e 9947 e23e 515d e53d 1454 ff3e
000003e0: 21be f43e 4a78 053f cd44 2a3e 2ef8 173f
000003f0: 982e 8e3c 554e 893d d952 223f faf8 073f

critic.2.bias f4 [64]
0.44107923 0.14616315 0.44779325 0.3736591 0.15949446 0.37761512 -0.26985943 0.031554937
0.3012156 0.026409307 0.4250133 0.42579016 -0.095595166 0.043632913 0.068929024 0.36389607
0.39929828 0.4541157 -0.011137917 0.40255323 0.42056248 0.37462258 -0.025584528 0.4752034
0.09356424 0.4079242 0.10217309 0.4276975 0.026257334 0.47349358 0.37544805 0.19474727
-0.04917696 -0.012233011 0.21558471 0.3394896 0.21074335 0.45209014 0.30937582 0.16529669
0.10356268 0.09660867 0.28374216 0.52190626 0.2060815 0.3966666 -0.04141252 0.04837705
0.09551441 0.096992426 0.119147256 0.47671604 0.16330397 0.40545994 0.43756044 -0.0022232311
0.30290946 0.05420448 0.09723989 0.013108182 -0.077293105 0.29301706 -0.12315718 -0.1153777
00000000: 23d5 e13e cbab 153e 2845 e53e 3f50 bf3e
00000010: 8452 233e c556 c13e 042b 8abe c03f 013d
00000020: ee38 9a3e 5558 d83c 589b d93e 2b01 da3e
00000030: 66c7 c3bd 6db8 323d a92a 8d3d 9650 ba3e
00000040: d370 cc3e da81 e83e cf7b 36bc 751b ce3e
00000050: f753 d73e 88ce bf3e a596 d1bc dc4d f33e
00000060: 9c9e bf3d 71db d03e 2040 d13d 2bfb da3e
00000070: 9f19 d73c c06d f23e ba3a c03e d46b 473e
00000080: c86d 49bd f86c 48bc 3dc2 5c3e 95d1 ad3e
00000090: 1bcd 573e 5c78 e73e 8266 9e3e 8943 293e
000000a0: ac18 d43d c4da c53d a746 913e a69b 053f
000000b0: 0707 533e e217 cb3e 2da0 29bd 0327 463d
000000c0: 0f9d c33d f7a3 c63d 7a03 f43d 2014 f43e
000000d0: 2839 273e 7298 cf3e ec07 e03e a1b3 11bb
000000e0: f316 9b3e 8405 5e3d b525 c73d b3c3 563c
000000f0: d94b 9ebd 5506 963e d539 fcbd 254b ecbd

critic.4.weight f4 [1, 64]
0.86452276 -2.1006737 0.9687266 0.97215575 -2.346647 0.94847196 1.4276392 -2.3215344
1.0136006 -2.778751 0.98026466 0.89718443 0.99178356 -2.6503146 -2.6890757 0.94224757
0.90831405 0.8737091 -2.2743425 0.98805785 0.95244867 0.8944223 -2.508004 0.9243142
-0.06529464 0.9322637 -1.9839269 0.87439835 -2.7358353 0.8573983 0.91196275 -2.126586
-2.1181154 -2.6304853 -2.271462 0.9251052 -2.1458972 0.83526087 0.99579334 -2.123123
-2.218874 -2.0128248 0.894408 0.8535216 -2.1370177 0.82995015 -2.1226058 -2.4419653
-2.6941245 -1.8318846 -2.1595552 0.94568276 -2.3002033 0.83100766 0.7619026 -2.1322162
0.8825256 -2.2145681 -2.3023057 -2.236794 -2.129537 0.98169297 -2.4066103 -2.4011075
00000000: 5d51 5d3f 7071 06c0 77fe 773f 33df 783f
00000010: 772f 16c0 0fcf 723f e2bc b63f 0594 14c0
00000020: aabd 813f 0ed7 31c0 a0f2 7a3f e1ad 653f
00000030: 87e5 7d3f c19e 29c0 d119 2cc0 2337 713f
00000040: 4587 683f 66ab 5f3f d48e 11c0 5cf1 7c3f
00000050: add3 733f dcf8 643f 2383 20c0 db9f 6c3f
00000060: 32b9 85bd d5a8 6e3f 51f1 fdbf 92d8 5f3f
00000070: ed17 2fc0 747e 5b3f 6476 693f fc19 08c0
00000080: 348f 07c0 df59 28c0 a25f 11c0 b2d3 6c3f
00000090: 6156 09c0 a8d3 553f 50ec 7e3f 3fe1 07c0
000000a0: 0802 0ec0 1fd2 00c0 ecf7 643f 6480 5a3f
000000b0: e6c4 08c0 9d77 543f c6d8 07c0 2949 1cc0
000000c0: 896c 2cc0 327b eabf 2736 0ac0 4418 723f
000000d0: 8836 13c0 ebbc 543f 0c0c 433f 3b76 08c0
000000e0: 33ed 613f 7cbb 0dc0 fa58 13c0 a227 0fc0
000000f0: 564a 08c0 3b50 7b3f e705 1ac0 bfab 19c0
