double_saved_models/final_actor_20241125_210631.pth (torch, 22688 bytes, 5 tensors)

actor.0.weight f4 [64, 9]
0	0xbca98cd6	-0.020697039
1	0xbeff5801	-0.4987183
2	0xbf5ffe3b	-0.874973
3	0x3df74cae	0.12075172
4	0x3e2e0326	0.16993389
5	0x3de765c8	0.1129871
6	0x3d9cdff5	0.07659904
7	0xbd1d43e5	-0.038394827
8	0x3e7b730b	0.24555604
9	0xbe616a6a	-0.2201325
10	0x3dcaa77f	0.098952286
11	0xbe07a122	-0.13245061
12	0xbd30bb7f	-0.04314756
13	0xbe1d7cca	-0.15379634
14	0x3e08c0c9	0.13354792
15	0x3e91787f	0.28412244
16	0xbe4d88e2	-0.20071748
17	0xbe83e0c5	-0.25757423
18	0x3e285299	0.16437759
19	0x3e00d3a7	0.12580739
20	0x3f108524	0.56453156
21	0xbe8fd356	-0.28090924
22	0xbe08e39b	-0.13368075
23	0x3e131905	0.14365013
24	0x3e225056	0.15850958
25	0x3eb0b034	0.34509432
26	0x3d7c83b1	0.06164903
27	0x3e0460c9	0.12927546
28	0xbc356b48	-0.011072941
29	0xbebb5773	-0.36590156
30	0xbec4850d	-0.3838276
31	0xbe2e12aa	-0.16999307
32	0xbc5d595a	-0.013510073
33	0xbe9e4549	-0.30912235
34	0xbe8d99c2	-0.2765637
35	0xbae1b894	-0.0017221146
36	0xbe2ad8e6	-0.16684303
37	0x3d380d08	0.044934303
38	0x3e9959cb	0.2995132
39	0xbd83e385	-0.0643988
40	0xbdf2c093	-0.11853137
41	0xbe7d67bd	-0.24746604
42	0x3e24a359	0.16077937
43	0x3d14e6ae	0.036352806
44	0xbe741363	-0.2383552
45	0x3e590db3	0.21196632
46	0xbe4ac07c	-0.1979999
47	0xbeb56237	-0.35426494
48	0x3e1a3cf3	0.15062313
49	0x3e872dca	0.26402122
50	0x3da7d67b	0.08195206
51	0xbe3c0416	-0.18360934
52	0xbe4b81ae	-0.19873688
53	0xbe4b2077	-0.19836603
54	0x3db126ba	0.08649965
55	0x3e36c214	0.17847472
56	0xbe635d48	-0.22203553
57	0xbea37c8f	-0.31930968
58	0xbe8359e6	-0.25654525
59	0x3e577cab	0.21043651
60	0xbd4751be	-0.04866194
61	0xbe211dd1	-0.1573403
62	0xbe1ffcc0	-0.1562376
63	0xbd85a725	-0.06526021
64	0x3ecbd49f	0.39810655
65	0x3f5a3b9f	0.85247225
66	0x3e3f12bf	0.18659495
67	0x3e336a9b	0.17521136
68	0xbe29fc1d	-0.1660008
69	0x3e0a09a9	0.13480248
70	0x3e8e7ab3	0.27827987
71	0x3e838810	0.25689745
72	0xbeb82b85	-0.35970703
73	0x3ea77b59	0.32711294
74	0x3e9b160d	0.3029026
75	0xbe86fb74	-0.26363719
76	0xbebd6f56	-0.36999005
77	0xbe9a9aad	-0.30196133
78	0x3d5f4373	0.054507684
79	0xbcea1444	-0.028574117
80	0xbd6776ed	-0.0565099
81	0x3d735a7c	0.059412464
82	0x3ec4b6a6	0.384206
83	0x3f3c3726	0.7352165
84	0x3d3d8186	0.0462661
85	0x3e2da9e7	0.16959344
86	0xbe5913a0	-0.21198893
87	0x3d14933c	0.036273226
88	0x3e3fd4c0	0.18733501
89	0xbccd26a5	-0.025042841
90	0x3e2450f8	0.16046512
91	0xbe90db17	-0.28292152
92	0x3e9f116f	0.31067988
93	0xbe9aeb0a	-0.30257446
94	0x3e364181	0.17798425
95	0x3ddb2d12	0.10701956
96	0xbdef8d2b	-0.116968475
97	0xbca84c64	-0.020544238
98	0xbe614401	-0.21998598
99	0xbcfcbfb8	-0.030853137
100	0x3caf3054	0.02138535
101	0x3f6cea52	0.92545044
102	0xbc9a1815	-0.018810311
103	0x3ec471b4	0.38368
104	0x3e2f5403	0.17121892
105	0x3e5a4435	0.21315081
106	0x3dcf6d44	0.10128263
107	0xbeab86e3	-0.33501348
108	0xbd0e3316	-0.034716688
109	0x3ea90609	0.33012417
110	0xbec5a208	-0.38600183
111	0xbdb0f9e6	-0.08641414
112	0x3df1bfc0	0.118041515
113	0xbddc647f	-0.107613556
114	0xbe3e61ca	-0.18591991
115	0x3d5885d0	0.05286199
116	0xbe69c5d6	-0.22829375
117	0xbe968b91	-0.29403356
118	0x3cb81fd5	0.022476116
119	0xbe8e5bbf	-0.27804372
120	0x3e653815	0.22384675
121	0x3ea23290	0.316792
122	0xbe34a493	-0.17640905
123	0xbbb74e50	-0.0055940524
124	0xbe7bb122	-0.2457929
125	0x3e0fdb2f	0.14048456
126	0xbe4d7ef3	-0.20067959
127	0x3d8ddece	0.06927262
128	0x3e97c465	0.29642025
129	0x3e79c363	0.2439094
130	0xbd6d449a	-0.05792675
131	0x3e76bd90	0.2409575
132	0xbd24e92e	-0.04026144
133	0x3dba0b25	0.09084157
134	0x3d03b826	0.03215804
135	0xbb88b6aa	-0.004172166
136	0x3e8fff90	0.28124666
137	0x3f4d6841	0.80237204
138	0x3eae5b89	0.3405421
139	0x3ed2aa06	0.41145343
140	0xbc797ead	-0.015227956
141	0xbe6c2180	-0.23059654
142	0x3c52351c	0.012830045
143	0x3dee5605	0.11637501
144	0xbe1c7642	-0.15279487
145	0x3e072cf8	0.13200748
146	0x3f23f595	0.64046603
147	0x3d9a52a6	0.07535295
148	0x3e0479d5	0.129371
149	0x3e53b08e	0.20672819
150	0x3e8aab97	0.27084038
151	0x3e42ee0a	0.19036117
152	0x3e85cc5e	0.26132482
153	0x3d9f7c8f	0.077874295
154	0x3e243a64	0.160379
155	0xbe9408f5	-0.28913084
156	0xbd916863	-0.07099988
157	0xbd703135	-0.058640677
158	0xbe9a7590	-0.30167818
159	0x3dde115b	0.10843154
160	0x3e68570b	0.22689454
161	0xbe694348	-0.22779572
162	0xbe8cd804	-0.27508557
163	0x3de326ae	0.11091362
164	0x3ee52216	0.44752568
165	0x3eb38a13	0.3506628
166	0xbe238739	-0.15969552
167	0x3e9e43c8	0.30911088
168	0x3e8dcc32	0.2769485
169	0x3e1f6385	0.15565307
170	0xbe0d98b5	-0.13827784
171	0xbe79d4e2	-0.24397615
172	0xbe4601dd	-0.19336648
173	0x3e4b25aa	0.19838586
174	0xbe761259	-0.24030437
175	0x3e02a760	0.12759161
176	0x3ab38dfa	0.0013698929
177	0xbd903505	-0.07041363
178	0x3bf33624	0.0074222255
179	0xbe796625	-0.24355371
180	0x3e9fe41f	0.3122873
181	0x3e00f0e5	0.12591894
182	0x3f824d36	1.0179813
183	0x3e1c712b	0.15277545
184	0x3eace7cf	0.33770606
185	0x3cc6d5a3	0.024271792
186	0x3e1038b3	0.14084129
187	0x3e88392e	0.26606125
188	0x3e6a3b5f	0.22874211
189	0xbeafdbed	-0.34347478
190	0x3da01ccb	0.07817992
191	0xbf394302	-0.7236787
192	0x3e9040c5	0.28174415
193	0x3e9f7eb7	0.31151363
194	0xbdbf680c	-0.09346017
195	0xbe99ff74	-0.30077708
196	0xbe7fcf7e	-0.24981496
197	0xbc177cf3	-0.009246099
198	0xbd08bde8	-0.033384234
199	0x3e15b3cb	0.14619367
200	0xbf741c8e	-0.9535607
201	0x3e32012a	0.17383257
202	0xbe17a131	-0.14807583
203	0xbd8a208e	-0.067444906
204	0xbda87604	-0.08225635
205	0xbd5a52f8	-0.05330178
206	0xbe84e0cb	-0.25952753
207	0xbc2da742	-0.010598959
208	0xbe74ed05	-0.23918541
209	0xbeb30d15	-0.34970918
210	0x3e372ce3	0.17888217
211	0x3eb05341	0.34438518
212	0xbe274667	-0.1633545
213	0xbe02ae56	-0.12761816
214	0xbdb76685	-0.08955101
215	0x3e590c6d	0.21196146
216	0xbec1c3ed	-0.37844792
217	0x3e9da1b6	0.30787438
218	0xbebc94f2	-0.36832386
219	0x3e82c159	0.25538138
220	0xbda90173	-0.082522295
221	0xbd6c92d1	-0.057757203
222	0xbe867d84	-0.26267636
223	0xbe77dc5d	-0.24205156
224	0x3d3c1109	0.045914683
225	0xbdfd1139	-0.123568006
226	0x3f43160b	0.7620551
227	0x3ebb5e3d	0.36595336
228	0x3e5245fa	0.20534506
229	0x3e7e118e	0.24811384
230	0x3e509de3	0.20372729
231	0x3e54ff95	0.20800622
232	0xbdbf33fb	-0.09336086
233	0x3e34038c	0.17579478
234	0xbe02fdaf	-0.12792085
235	0xbd3a0cb4	-0.04542227
236	0xbce58b47	-0.028020514
237	0x3e6c9bbf	0.23106287
238	0xbe46477b	-0.19363205
239	0x3cfdaf84	0.030967481
240	0x3ea793b4	0.32729876
241	0x3e85d7c9	0.26141194
242	0xbcda9f79	-0.02668737
243	0x3dc86290	0.09784424
244	0x3e68f2ef	0.22748922
245	0xbeaa97aa	-0.33318835
246	0xbe9d245c	-0.30691803
247	0xbebb3a85	-0.36568084
248	0x3deea600	0.11652756
249	0xbe68622e	-0.22693703
250	0xbe895c7d	-0.26828375
251	0xbeb4cd82	-0.3531304
252	0x3dec2ece	0.11532365
253	0x3de7395a	0.11290236
254	0xbf00c9dc	-0.5030801
255	0xbd7de18e	-0.061982684

actor.0.bias f4 [64]
0	0x3d1ae016	0.03781136
1	0xbe1c79d4	-0.15280849
2	0x3e0a7eb4	0.13524896
3	0x3de9c204	0.11413959
4	0x3d71b2ad	0.05900829
5	0x3b88f9d9	0.004180175
6	0x3dd3571f	0.103193514
7	0x3ce79461	0.028268995
8	0xbe386674	-0.18007833
9	0x3dde69a0	0.1085999
10	0xbd9d4b94	-0.07680431
11	0xbd2390e1	-0.03993309
12	0x3d1caa4a	0.038248338
13	0x3e67eee2	0.2264972
14	0xbe931789	-0.28728893
15	0x3e7a325a	0.2443327
16	0x3d9355f9	0.07194132
17	0xbe1faf19	-0.15594138
18	0x3e25a415	0.16175874
19	0xbe3a4d34	-0.18193513
20	0x3d96f7a6	0.07371454
21	0xbe82d40c	-0.25552404
22	0x3e781a57	0.24228798
23	0x3ecf3725	0.4047176
24	0xbe4faf87	-0.20281802
25	0x3d0de0e1	0.03463829
26	0x3cdc3afc	0.026883595
27	0x3e516acc	0.20450896
28	0xbd9cf4f8	-0.076639116
29	0x3e8b2f02	0.27184302
30	0xbe92eccb	-0.28696284
31	0x3d2be876	0.04196974
32	0x3e82da97	0.25557396
33	0xbea00068	-0.3125031
34	0xbea7bfb6	-0.3276345
35	0x3c9f172c	0.019420229
36	0x3d354a7d	0.04426049
37	0xbe8f3744	-0.27971852
38	0xbe63fc7e	-0.22264287
39	0x3e976372	0.29568058
40	0x3e1f3b3b	0.15549938
41	0xbdf9875a	-0.121840194
42	0x3cc00b23	0.02344281
43	0xbe83311b	-0.25623402
44	0xbec5e05b	-0.38647732
45	0xbe9f667b	-0.31132874
46	0xbd1abfc3	-0.037780534
47	0xbdecd74a	-0.11564501
48	0xbde4c446	-0.11170249
49	0xbe5bcecc	-0.21465605
50	0x3ec410e4	0.38294137
51	0xbdb6a611	-0.089183934
52	0xbe1ee71e	-0.15517852
53	0xbe2e7f84	-0.17040831
54	0x3e0b977d	0.13632007
55	0x3e9045a0	0.2817812
56	0xbdea7db6	-0.11449759
57	0x3e51aaca	0.20475307
58	0xbe7a69e4	-0.24454457
59	0xbe9abe36	-0.30223244
60	0x3e54227d	0.20716281
61	0x3ade819a	0.001697588
62	0xbd8fc9c6	-0.07020907
63	0xbe467c77	-0.19383417

actor.2.weight f4 [64, 64]
0	0xbe401de7	-0.18761407
1	0x3d296098	0.041351885
2	0x3ce49f54	0.027908005
3	0x3e03056f	0.12795042
4	0xbd013400	-0.03154373
5	0xbdabddd7	-0.08391922
6	0x3e62d9ff	0.22153471
7	0x3cb43a1a	0.022000361
8	0x3cb0f085	0.021599064
9	0xbd9ba13b	-0.07599112
10	0xbdbff272	-0.09372415
11	0x3d6f0f59	0.058364246
12	0x3cebd72b	0.028789124
13	0x3dab0be1	0.08351875
14	0x3c551725	0.013006006
15	0x3de0fffd	0.10986326
16	0x3d72ef69	0.05931035
17	0xbe2b9b85	-0.16758545
18	0x3db77d63	0.089594625
19	0x3c55eb9b	0.013056661
20	0xbc166e57	-0.0091815805
21	0xbdeacbe3	-0.114646696
22	0xbde8f10b	-0.113741
23	0xbde9c746	-0.114149615
24	0xbe10407a	-0.14087096
25	0x3d0ebd8b	0.03484873
26	0x3d7c69a0	0.06162417
27	0x3e254b3d	0.16141982
28	0x3c965ca6	0.018354725
29	0xbe0708d7	-0.13186966
30	0xbd81d1f5	-0.06338874
31	0xbda43b73	-0.080191515
32	0x3d4dc0b7	0.050232615
33	0xbdeb7222	-0.114963785
34	0x3cfe505a	0.031044174
35	0xbd09a9f4	-0.033609346
36	0x3dbb2598	0.0913803
37	0x3d2c4b00	0.042063713
38	0x3cc533ef	0.024072615
39	0x3e02619e	0.1273255
40	0x3db24e8f	0.0870639
41	0xbdaf66ee	-0.08564554
42	0xbd2caa1f	-0.042154428
43	0xbd154e1a	-0.036451437
44	0x3d1ac371	0.037784044
45	0x3dd1acc0	0.102380276
46	0x3d8d6d4d	0.06905613
47	0xbcf093e8	-0.029367402
48	0x3dabdd7f	0.083918564
49	0xbd83226d	-0.064030506
50	0x3d6028ab	0.054726284
51	0xbe339c59	-0.1754011
52	0xbe01a658	-0.12661111
53	0x3dc32a44	0.09529546
54	0xbe20275f	-0.15640019
55	0x3c1517f0	0.009099945
56	0xbbf615f4	-0.0075099412
57	0xbd2bb4f4	-0.041920617
58	0xba8b343a	-0.0010620423
59	0xbe0b3c56	-0.13597235
60	0x3ea61c63	0.32443532
61	0x3d89e672	0.06733407
62	0x3d8592a3	0.06522109
63	0xbe207f33	-0.15673523
64	0x3dcaea10	0.09907925
65	0xbc6506f2	-0.013978707
66	0xbd858a47	-0.06520515
67	0xbe256625	-0.16152246
68	0x3d12a5b3	0.035802554
69	0x3c12cfe6	0.0089607
70	0xbe9c3bf5	-0.30514494
71	0xbe53bebc	-0.20678228
72	0x3cf970a7	0.030449225
73	0xbd22302f	-0.039596733
74	0x3d8c0337	0.06836551
75	0xbe339fd7	-0.17541443
76	0x3dec4b20	0.115377665
77	0x3dafce80	0.085843086
78	0xbced0d92	-0.028937135
79	0x3ca1301f	0.019676266
80	0xbdbb8875	-0.091568865
81	0x3d2f67b1	0.042823497
82	0xbd8a0c15	-0.06740586
83	0x3d48c360	0.04901445
84	0xbe3c8081	-0.18408395
85	0x3daf1c4f	0.08550321
86	0x3de486a0	0.1115849
87	0xbd94d97e	-0.07268046
88	0x3d4538e4	0.04814996
89	0x3d0689da	0.03284631
90	0x3d8a92c4	0.067662746
91	0xbeb3614d	-0.35035172
92	0x3c01f202	0.007931234
93	0xbb6c1438	-0.0036022794
94	0x3d4fa165	0.050691027
95	0xbd4ace5d	-0.04951321
96	0x3da70990	0.08156121
97	0x3d03c7ad	0.032172848
98	0x3e06926a	0.1314179
99	0x3e0e4dcc	0.13896865
100	0xbdba4f79	-0.090971895
101	0xbe06022d	-0.13086767
102	0xbe9beddc	-0.3045491
103	0xbd781122	-0.060563214
104	0x3c2aace1	0.010417194
105	0xbc3ea82d	-0.011636776
106	0xbd27167a	-0.04079292
107	0xbd3ce4eb	-0.04611675
108	0x3c6fc990	0.014635459
109	0xbeb4c124	-0.35303605
110	0xbd94e6a9	-0.072705574
111	0x3cc7d068	0.024391368
112	0xbd1f31bf	-0.0388658
113	0x3dd66cb4	0.10469952
114	0x3bddb249	0.006765638
115	0x3dd9cba5	0.10634545
116	0x3db1a2ee	0.086736545
117	0xbe1694f3	-0.14705257
118	0x3d86365a	0.065533355
119	0x3da1182d	0.07865939
120	0x3df6f9e4	0.120593816
121	0xbe0c155a	-0.1368002
122	0xbc9cc5ee	-0.019137349
123	0xbda48f3f	-0.080351345
124	0xbdbaa41c	-0.09113333
125	0x3c932f3d	0.01796686
126	0xbe1d5ac4	-0.15366656
127	0x3e2b9c9d	0.16758962
128	0x3e004099	0.12524642
129	0x3d10f24f	0.035387333
130	0xbe3cadcc	-0.18425673
131	0xbe8987cc	-0.26861417
132	0x3db51474	0.08841792
133	0xbd70ebc6	-0.0588186
134	0xbe1a3a8d	-0.15061398
135	0xbda58aa4	-0.08083084
136	0xbe0d9a0c	-0.13828295
137	0xbe08e957	-0.13370262
138	0xbdfb00f1	-0.12256039
139	0xbd2d5ef8	-0.042326897
140	0x3d7421d2	0.059602566
141	0x3d3aed5f	0.04563653
142	0x3e2c5792	0.1683028
143	0x3db3e5d5	0.08784071
144	0xbe356e12	-0.1771777
145	0x3d436aa8	0.047709137
146	0xbdbd58aa	-0.09245427
147	0xbd801fab	-0.0625604
148	0xbdf21f31	-0.118223555
149	0x3e04a3a3	0.12953047
150	0xbc82045f	-0.015871225
151	0x3dd3d291	0.10342897
152	0x3d698388	0.057010204
153	0x3d8cfcfc	0.068841904
154	0xbdaa55b1	-0.083171256
155	0xbe6de201	-0.23230745
156	0x3decdf9c	0.115660876
157	0x3ac1d059	0.0014786824
158	0xbcaf311a	-0.021385718
159	0x3d920572	0.07129945
160	0xbd05a0fc	-0.03262423
161	0xbd95925f	-0.07303309
162	0xbc5b44b9	-0.013383084
163	0xbde04f17	-0.10952585
164	0xbdf6fae7	-0.120595746
165	0xbd7cb197	-0.0616928
166	0xbe123f9c	-0.14282078
167	0x3cc6a5f7	0.02424906
168	0x3df4f88b	0.11961468
169	0xbd80cf29	-0.06289513
170	0x3c84240f	0.016130475
171	0x3da74241	0.08166934
172	0x3d7c1dd5	0.061551888
173	0xbeab4be8	-0.3345635
174	0x3d168c26	0.03675475
175	0x3d5d949c	0.054096803
176	0x3d24707f	0.040146347
177	0xba2fb23e	-0.00067022804
178	0x3dc95a91	0.09831727
179	0xbd88d3ca	-0.066810206
180	0x3e63120b	0.22174852
181	0xbe19c489	-0.15016378
182	0x3c66ae28	0.014079608
183	0x3c137183	0.008999231
184	0x3ca0e093	0.019638335
185	0xbc264704	-0.010148767
186	0xbcc4409b	-0.023956588
187	0xbdddd95b	-0.10832473
188	0xbe9c518b	-0.30530962
189	0xbda7d3da	-0.08194704
190	0xbe8c0e01	-0.27354434
191	0x3d1e58df	0.038658973
192	0x3d27736c	0.04088156
193	0x3d4efcf3	0.0505342
194	0xbde1b628	-0.11021072
195	0xbce0083d	-0.027347678
196	0xbd5dc483	-0.054142486
197	0xbdaeac42	-0.08528949
198	0xbdb56302	-0.08856775
199	0xbd640cd8	-0.05567631
200	0xbd0f9287	-0.03505185
201	0xbd250c18	-0.040294737
202	0x3c2afb82	0.010435941
203	0x3ccc979c	0.024974637
204	0x3b9dd800	0.004817009
205	0xbc5b9cf0	-0.013404116
206	0x3cbf91c0	0.023384929
207	0xbdaf4fee	-0.08560167
208	0x3c2782f0	0.010224089
209	0x3d454a7d	0.04816674
210	0xbdc448a4	-0.095841676
211	0xbe00971e	-0.12557647
212	0xbda83388	-0.08212954
213	0xbd940562	-0.07227589
214	0xbd23ddfb	-0.04000662
215	0xbdcdcd0a	-0.10048874
216	0xbca95010	-0.02066806
217	0x3d101d9d	0.03518449
218	0xbe02c7e0	-0.12771559
219	0x3c9ccc3d	0.019140357
220	0xbdf872df	-0.12131285
221	0xbcee4e38	-0.029090032
222	0xbd6e5434	-0.05818577
223	0xbda77c40	-0.08177996
224	0xbd9b91ef	-0.07596194
225	0xbda8109e	-0.082062945
226	0x3d168ac7	0.036753442
227	0xbaa1474e	-0.0012304576
228	0xbd8f4910	-0.069963574
229	0xbdc51186	-0.09622483
230	0x3dd7cb42	0.10536815
231	0xbd0b321e	-0.033983342
232	0x3d1ce219	0.03830156
233	0x3d804466	0.06263046
234	0x3a6d1700	0.000904426
235	0x3d5d0822	0.053962834
236	0xbd8827fe	-0.06648253
237	0x3d9b57b9	0.07585091
238	0xbbf7deee	-0.007564417
239	0x3d9adb92	0.07561411
240	0x3cff8cb7	0.031195028
241	0xbdc897d3	-0.09794583
242	0x3c106fc0	0.008815706
243	0x3cbcfc19	0.023069428
244	0x3de4826c	0.111576885
245	0x3d286ab0	0.04111737
246	0x3cae8a88	0.021306291
247	0x3cd49ba0	0.025953114
248	0xbe068fe2	-0.13140824
249	0xbdc52243	-0.096256755
250	0xbde6494e	-0.112444505
251	0x3bed2343	0.0072368695
252	0xbdf6e711	-0.12055791
253	0xbc6180c0	-0.013763607
254	0x3bc4f500	0.0060106516
255	0xbd8770b8	-0.06613296

actor.2.bias f4 [64]
0	0x3dc9cf59	0.098540016
1	0xbc1f4345	-0.009720628
2	0xbca14126	-0.019684386
3	0xbd544b96	-0.051829897
4	0xbbb5de6e	-0.0055501973
5	0x3dd9fa78	0.10643476
6	0x3e125cb2	0.14293173
7	0xbd5d8726	-0.054083966
8	0xbd2f2fb8	-0.042770118
9	0xbd6b7244	-0.05748202
10	0x3cbd8ca6	0.023138355
11	0xbd5687b3	-0.052375507
12	0xbcd08eda	-0.025458742
13	0x3df69bf6	0.12041466
14	0x3d90bfc5	0.07067827
15	0xbda49f06	-0.08038144
16	0x3da33bfd	0.07970426
17	0xbd199644	-0.03749682
18	0xbdba63fe	-0.09101103
19	0x3c180458	0.009278379
20	0x3cf74e9f	0.030188857
21	0x3da8356d	0.08213315
22	0x3dfa1038	0.12210125
23	0xbe056416	-0.13026461
24	0x3e17bed3	0.14818887
25	0x3dc11140	0.09427118
26	0xbcd62d14	-0.026144542
27	0x3c9cb4a1	0.0191291
28	0x3b02feea	0.0019988366
29	0x3c8af8cd	0.01696434
30	0x3e19a6c2	0.1500502
31	0x3da527c2	0.08064224
32	0x3e0c7373	0.13715915
33	0xbde1b631	-0.110210784
34	0xbdc684c8	-0.09693295
35	0x3a322efc	0.00067971624
36	0x3d088621	0.03333104
37	0xbcbafe58	-0.022826359
38	0x3defd2c0	0.11710119
39	0x3ce390b1	0.027778955
40	0x3dd4ebfc	0.10396573
41	0x3d61cae5	0.055125136
42	0x3cafc72b	0.021457275
43	0xbdbb9996	-0.091601536
44	0xbe25e9b1	-0.16202427
45	0x3bbba4bc	0.005726425
46	0x3d6a0354	0.05713208
47	0x3ddd5370	0.1080693
48	0x3e1ef93f	0.15524767
49	0x3c09bad8	0.008406363
50	0x3d4f75b7	0.05064937
51	0x3e4ad15a	0.19806424
52	0x3d808345	0.06275038
53	0xbdd1c9c3	-0.10243561
54	0x3e137ab1	0.14402272
55	0x3de7b3c2	0.11313583
56	0xbd6ebc37	-0.058284964
57	0x3db5fda3	0.08886268
58	0x3c143362	0.009045454
59	0x3d419a1b	0.047266107
60	0x3da27f20	0.079344034
61	0xbd9a904d	-0.075470544
62	0x3e1be0fb	0.15222542
63	0x3dde83eb	0.10865005

mean.weight f4 [1, 64]
0	0xbc5f421b	-0.013626601
1	0x3e07d04f	0.13263057
2	0x3e116e46	0.14202222
3	0x3b834ce0	0.004006967
4	0xbe8b4657	-0.27202103
5	0x3d577fca	0.052612104
6	0xbe602ce5	-0.21892126
7	0xbde33393	-0.110938214
8	0x3d6edae5	0.058314223
9	0xbda6dbac	-0.08147368
10	0x3e10f11d	0.14154477
11	0x3e16521f	0.14679764
12	0x3e53cdfa	0.20684043
13	0x3da258ea	0.07927115
14	0x3e1d2ce4	0.15349156
15	0xbe0eb1ca	-0.13935009
16	0xbde4a15f	-0.111635916
17	0x3deda427	0.11603575
18	0x3e0c4449	0.13697924
19	0x3e4a7a9d	0.19773336
20	0xbd93e0d7	-0.07220619
21	0xbe28a54c	-0.16469306
22	0x3d718959	0.058968876
23	0xbe3b63fd	-0.18299861
24	0xbdced7f8	-0.100997865
25	0xbdfd966e	-0.12382208
26	0xbe176443	-0.1478434
27	0x3df8b6ac	0.12144217
28	0x3aa80c8c	0.0012821122
29	0x3abd2ff1	0.0014433843
30	0x3e8b459f	0.27201554
31	0xbe0f5d5e	-0.1400046
32	0x3e849c8a	0.2590068
33	0x3ca4d20f	0.020119695
34	0x3dd3988e	0.10331832
35	0x3e4a97bd	0.19784446
36	0x3e05b799	0.13058318
37	0xbd9b33c8	-0.07578236
38	0x3e4032f4	0.18769437
39	0xbe9be578	-0.30448508
40	0x3e238591	0.1596892
41	0x3d8b8aae	0.068135604
42	0xbe1c4862	-0.15261987
43	0x3d9c4cdc	0.07631847
44	0xbcd5b9ec	-0.026089631
45	0x3e496417	0.19667087
46	0xbe4e3fbf	-0.20141505
47	0xbdeb41f6	-0.114871904
48	0xbe0797e8	-0.13241541
49	0x3e93b33c	0.28847682
50	0x3e1cdff0	0.153198
51	0xbe876f48	-0.26452088
52	0xbe8e3fc2	-0.27783018
53	0x3d8a5359	0.067541786
54	0x3e8793fd	0.26480094
55	0x3e6037f8	0.2189635
56	0x3c410bcc	0.011782598
57	0xbe0dd529	-0.13850845
58	0x3e67c646	0.22634229
59	0xbdf8a265	-0.12140349
60	0x3e62dd00	0.22154617
61	0xbe21f9b1	-0.15817906
62	0x3e0a251a	0.13490716
63	0x3dc8f98d	0.09813223
