double_saved_models/initial_actor_20241125_210034.pth (torch, 22710 bytes, 5 tensors)

actor.0.weight f4 [64, 9]
000000 50 c3 f3 3c ce 7a a6 be fb 93 23 be 9c ff b1 3d
       0.029756218 -0.32515568 -0.15974419 0.08691332
000010 ee 13 08 3e d8 e2 01 3e be 0a 3a 3e ac bc d7 bd
       0.13288853 0.1268419 0.1816816 -0.10534033
000020 96 21 6e 3e eb 52 0a be 33 f5 3e be 2e c7 83 be
       0.23255 -0.13508193 -0.18648224 -0.257379
000030 b0 3a 9e bc 3b fa 0c be bc 4b 91 3d d3 f7 a9 3e
       -0.019315094 -0.1376733 0.07094523 0.33196887
000040 e6 28 a2 be 78 27 76 be 8c 5d c2 3d 9c 22 c3 bd
       -0.31671828 -0.24038494 0.09490499 -0.095280856
000050 a4 1c b0 3d b6 90 87 be 66 21 ee bd c0 e8 18 3e
       0.08599213 -0.26477593 -0.11627464 0.14932537
000060 b0 bf a4 3d 21 00 9a 3e ae f4 0d 3e 1a 0c 4b 3e
       0.08044374 0.30078223 0.13862869 0.19828835
000070 40 11 6f bd 5c c6 b9 bd 30 78 8f be 30 9f f2 bc
       -0.05836606 -0.09071037 -0.28021383 -0.029616922
000080 00 30 0a 3d 7b 2c 8e be f0 b9 65 be cc 21 8d 3d
       0.033737183 -0.2776831 -0.22434211 0.06891212
000090 2c bf a9 bd 10 47 b3 bd fe 0c 4d 3e 00 f8 b7 ba
       -0.08288416 -0.087537885 0.20024487 -0.0014035702
0000a0 2c 3b 92 bd f6 6e 98 be c2 b3 57 3e 00 20 c9 ba
       -0.071401924 -0.29772156 0.21064666 -0.001534462
0000b0 43 d6 76 be 2b 0d 91 3e 64 77 89 3d 3a 96 28 3e
       -0.24105172 0.2833036 0.06712225 0.16463557
0000c0 f4 8d cc 3d 32 01 4e 3e 5a 75 63 3e d0 6d 37 be
       0.09988013 0.20117643 0.22212735 -0.17912984
0000d0 78 bc 29 be cb 56 53 be 78 8d 77 3d 30 5e a5 3c
       -0.16575801 -0.20638578 0.06043765 0.020186514
0000e0 c4 67 ca 3d 38 b2 92 be 36 72 33 be ba ed 35 3e
       0.09883073 -0.28651595 -0.17524037 0.17766467
0000f0 80 2d 1c bb 36 4f 01 be 1c ab f3 bd 83 14 04 be
       -0.002383083 -0.12627873 -0.11897871 -0.1289845
000100 65 5f 8a 3e 04 04 97 3d 6a c4 25 3e 60 d4 13 3e
       0.27025905 0.07373813 0.16188207 0.14436483
000110 c2 45 99 be 1c d8 ee 3d 72 47 7e 3e b7 2d 8c 3e
       -0.29936033 0.11662313 0.24831942 0.27378628
000120 38 6e 7c be a1 f5 9d 3e 99 92 86 3e 23 e3 73 be
       -0.2465142 0.30851462 0.2628372 -0.23817115
000130 2f 57 a8 be 92 0b 94 be e0 b2 39 3d 90 da b8 bc
       -0.32879016 -0.28915077 0.045336604 -0.022565156
000140 d8 04 11 be a0 a2 23 bc 51 b6 a2 3e 80 b6 5c bb
       -0.14162004 -0.009987503 0.3177972 -0.0033678114
000150 90 14 96 bc 80 29 c7 3d db 94 a8 be a0 66 6f 3c
       -0.018320352 0.09724712 -0.32926068 0.01461187
000160 0e 2d 3b 3e 60 74 70 bc 12 91 2e 3e 64 6e 95 be
       0.18278906 -0.014676183 0.17047527 -0.29185784
000170 76 72 ca bd f6 a5 57 be 17 05 87 3e 90 b3 09 3e
       -0.09885113 -0.21059403 0.2637107 0.13447404
000180 20 7e 4d be d0 de b8 3c b0 3c 72 be 98 8b 36 be
       -0.20067644 0.022567183 -0.23655963 -0.17826688
000190 0c 3a ab bd 8a 0f 29 3e 00 bb ce bd e9 af 95 3e
       -0.08360681 0.16509834 -0.10094261 0.2923577
0001a0 98 a1 63 3d b2 56 6d 3e 70 39 87 3d a0 86 9e be
       0.05557403 0.23177603 0.06602752 -0.30962086
0001b0 e4 22 8e 3d 95 9d 9e 3e b6 9d 0c 3e 60 56 5e bd
       0.069402486 0.309796 0.13732037 -0.054281592
0001c0 22 fa 17 3e 3c 0f 82 3d 16 e8 94 be d0 c3 ed 3d
       0.14841512 0.06350562 -0.29083318 0.11609614
0001d0 e3 04 47 be 08 e4 6c be 40 a5 1d 3e 76 ca 3d 3e
       -0.19435458 -0.23133862 0.15395069 0.18534264
0001e0 ea a2 5f 3e 79 20 99 3e b3 2b 33 be cc 11 8d 3d
       0.2183949 0.29907587 -0.17497139 0.0688816
0001f0 b4 b0 9b be cc f3 b9 3d 1a 48 a0 be f4 22 be 3d
       -0.3040825 0.09079704 -0.3130501 0.092840105
000200 e0 85 98 bd 01 a9 98 3e c0 c6 9e bb b5 7c 9a 3e
       -0.0744741 0.2981644 -0.00484547 0.3017327
000210 7b d8 23 be ae 99 13 3e c0 21 c1 3b 80 aa 33 3d
       -0.1600055 0.14414093 0.005893916 0.043863773
000220 7c 9d f2 3d 85 92 a1 3e 93 73 86 3e 59 cb a5 3e
       0.11846444 0.31557098 0.2626005 0.32381704
000230 58 51 01 bd 3a f9 89 be b0 e3 ee 3c 70 8c c8 3d
       -0.031571716 -0.26947957 0.029161304 0.09792411
000240 f6 2c 43 be c8 4c 18 bd f8 3b 23 be d4 45 8f 3d
       -0.1906012 -0.0371826 -0.15940845 0.069957405
000250 e4 2c f1 3d c2 d2 54 3e c0 75 1e 3e 7a b9 5f 3e
       0.1177614 0.20783523 0.15474606 0.21848097
000260 b1 d7 8f 3e 40 58 9f bb a0 0e b0 3d 6e 83 25 be
       0.28094247 -0.004862815 0.085965395 -0.16163418
000270 70 ee 91 bc 80 71 68 bb a7 d4 9e be e0 95 04 3e
       -0.017813891 -0.0035468042 -0.31021616 0.12947798
000280 f8 d8 0f 3e 94 ff 9b be e6 f5 96 be f6 0f cf bd
       0.14047611 -0.30468428 -0.2948448 -0.10110466
000290 86 11 52 be e5 84 9d 3e 43 3e 50 be 31 02 94 3e
       -0.20514497 0.30765453 -0.20336251 0.28907922
0002a0 b6 af 43 3e 2a cb 43 3e 93 ca 21 be 70 0d 52 be
       0.19109997 0.1912047 -0.15799932 -0.20512938
0002b0 92 c5 88 be 48 21 7c bd be 47 21 be d2 60 49 3e
       -0.26713234 -0.061555177 -0.15750024 0.1966584
0002c0 3c ba 92 3d 83 56 50 be 2e 54 1b 3e f7 5d 90 be
       0.07164428 -0.20345502 0.15168831 -0.2819669
0002d0 2b 3a 81 3e 00 25 d0 3c 5a a5 55 3e 2c 46 f0 3d
       0.2523969 0.025408268 0.20863858 0.11732134
0002e0 e7 a3 97 3e 14 0b 82 3d 00 87 fe ba 23 35 a9 3e
       0.29617235 0.06349769 -0.0019418895 0.33048353
0002f0 09 b9 80 3e 24 dd 8e be 0e 51 25 3e 3e 63 28 3e
       0.2514117 -0.27903092 0.16144201 0.16444108
000300 9d 18 88 3e 43 9c 94 3e 78 2e 34 be b8 f9 1d be
       0.26581278 0.29025468 -0.17595851 -0.15427291
000310 5e fd 7c be 00 95 2b bd 58 6c 07 bd 09 c7 9c 3e
       -0.24706027 -0.041890144 -0.03306231 0.30620602
000320 a4 f0 85 be 6e 2c 12 3e 16 c1 45 be 90 b4 99 bd
       -0.26160157 0.14274761 -0.19311938 -0.07505143
000330 00 64 6a 3b 04 25 a4 bd 40 08 8d be d8 9e 05 3d
       0.003576517 -0.08014873 -0.27545357 0.03262219
000340 d0 e2 aa 3c 70 02 44 be c0 55 a8 3d 62 17 63 3e
       0.020860106 -0.19141555 0.082194805 0.22176889
000350 63 84 33 be dc a5 aa bd bc f6 e0 bd b6 36 6b 3e
       -0.1753097 -0.083324164 -0.10984561 0.2297009
000360 d3 3d 60 be cd 97 95 3e be 44 2f 3e 66 8f 54 3e
       -0.21898584 0.29217377 0.17116067 0.20757827
000370 50 dd fc bd 00 d4 98 b9 aa 48 8e be 23 0e 43 be
       -0.123468995 -0.00029149652 -0.27789813 -0.19048361
000380 c0 f4 d0 3b c6 a4 b7 bd 9d db a8 3e 39 b0 92 3e
       0.0063768327 -0.08966975 0.32980052 0.28650072
000390 98 6d 0b 3e 8a 60 3f 3e dc 81 d4 3d 21 0f a0 3e
       0.13616025 0.1868917 0.10376331 0.31261542
0003a0 03 37 40 be 06 52 6c 3e 36 e9 d5 bd f6 75 e3 bd
       -0.18770985 0.23078164 -0.10444872 -0.11106484
0003b0 f3 a4 6b be ba 92 1e 3e 00 17 88 be f0 cc a2 bc
       -0.23012142 0.15485659 -0.26580048 -0.019873112
0003c0 11 d4 99 3e 1a 30 6d 3e 44 84 87 bd 48 4b 63 3d
       0.30044606 0.2316288 -0.066170245 0.055491716
0003d0 a8 f8 06 3e 70 ae 9c bc 70 8f 8d be 2e 89 97 be
       0.13180792 -0.019126147 -0.27648497 -0.29596847
0003e0 40 5c a8 3d 88 e8 15 be 3c cc 80 be a7 4e a0 be
       0.0822072 -0.14639485 -0.25155818 -0.31310007
0003f0 64 cc 82 3d 19 98 80 3e 7e 6d 3c be 2b 7c 01 be
       0.06386641 0.2511604 -0.18401143 -0.12645023

actor.0.bias f4 [64]
000000 00 13 bb ba 8c 81 fc bd f8 14 08 3e b6 de 51 3e
       -0.001427263 -0.123293966 0.13289249 0.20495114
000010 3e 72 04 3e 18 a5 39 bd f0 dc f8 3d 60 0f 33 3c
       0.12934205 -0.04532346 0.121515155 0.010928959
000020 4e eb 21 be 00 f1 51 3d e0 de 30 3c 6c 73 f4 bd
       -0.15812418 0.051255226 0.010795325 -0.119360775
000030 6c 4f 9b 3d 02 e4 65 3e 0e 71 72 be 82 95 3a 3e
       0.07583508 0.2245026 -0.2367594 0.18221095
000040 e0 2f a6 3d 90 13 ec bd a6 09 06 3e d0 49 cb bd
       0.081146 -0.11527169 0.13089618 -0.09926188
000050 20 de 33 3d 6b 60 8b be 3e 14 5c 3e ed 84 a6 3e
       0.043913007 -0.27222 0.21492097 0.3252329
000060 ee c4 81 be 90 b8 aa bc a0 13 56 bd 52 0b 5c 3e
       -0.25345558 -0.02083996 -0.05226481 0.21488693
000070 7e 63 0f be d6 3d 64 3e db 76 41 be c0 9f 84 bb
       -0.14002797 0.22289214 -0.18892996 -0.004047364
000080 ab 7e 87 3e 27 40 a2 be e0 ef 65 be 6c a1 ea 3d
       0.26463827 -0.3168957 -0.22454786 0.1145657
000090 c8 37 47 3d 42 dd 94 be 4b 8f 21 be 15 b2 a4 3e
       0.04863718 -0.29075056 -0.15777318 0.32167116
0000a0 20 d9 82 3d d0 90 d6 bc c0 63 da bb 26 51 21 be
       0.063890696 -0.026192099 -0.006664723 -0.15753612
0000b0 84 15 a2 be 90 a2 7f be 00 2f f2 bb 2c da fd bd
       -0.3165704 -0.24964356 -0.0073908567 -0.123951286
0000c0 1c 4f a6 bd be 43 3a be 0f 54 a9 3e 50 14 e7 bc
       -0.08120558 -0.18189904 0.33071944 -0.028207928
0000d0 e4 bf 98 bd e0 81 85 be ca b4 37 3e 5f a2 aa 3e
       -0.07458475 -0.2607565 0.1794006 0.33327004
0000e0 98 58 58 be 8a d2 42 3e 93 ba 5b be 2b 37 96 be
       -0.21127546 0.19025627 -0.21457891 -0.29338965
0000f0 2d 5d 90 3e 28 60 1f 3e 60 4d 84 bd 26 06 86 be
       0.28196087 0.15564024 -0.064600706 -0.26176566

actor.2.weight f4 [64, 64]
000000 d8 fd ae bd 4e b5 88 3d d0 50 69 3c 80 6e f6 ba
       -0.085445106 0.06675206 0.014240459 -0.0018801242
000010 00 40 cd b7 46 4d b2 bd e6 9e d1 3d e0 6d 88 bc
       -2.4467707e-05 -0.08706145 0.102353856 -0.016653955
000020 70 f6 14 3c 94 f5 d3 bd b2 20 f4 bd 40 1d a4 bb
       0.009091958 -0.10349575 -0.11920299 -0.0050083697
000030 a8 a2 83 3c d4 85 f5 3d e0 c8 bb 3b 70 7a a0 3d
       0.016068771 0.11988416 0.0057307333 0.07835853
000040 00 62 fb ba 00 3e e8 bd 88 d3 e5 3c 00 e6 40 3c
       -0.0019178987 -0.113399506 0.028054968 0.011773586
000050 0c 4e 2f bd 7c 55 27 bd a8 17 ca bc 3c 16 73 bd
       -0.04279904 -0.04085301 -0.024669483 -0.059347376
000060 f6 fe 89 bd a8 bf ef 3c 60 7d df 3d d0 20 6c 3c
       -0.06738083 0.029266194 0.10912585 0.01441212
000070 b4 5d 51 3d 5a 96 c9 bd a4 46 0b bd 1c 54 92 bd
       0.051114753 -0.098431304 -0.034002915 -0.07144949
000080 d8 39 b7 3d f8 d2 a6 bd 94 1e 78 3d 10 b3 49 bc
       0.0894658 -0.08145708 0.060576037 -0.012310758
000090 5c 2d 69 bd 78 76 55 3d 58 1b 19 bd 04 38 f7 3d
       -0.056928024 0.052114934 -0.037379593 0.12071231
0000a0 e0 c4 ed 3d fc 30 b5 bd 18 5a 52 bd 60 07 87 bc
       0.116098166 -0.08847234 -0.05135545 -0.016483009
0000b0 ca d6 8c 3d 62 99 82 bd e2 bc ca 3d 60 ef 44 bc
       0.06876905 -0.06376912 0.09899308 -0.012019962
0000c0 9a 9c e9 3d a4 f4 51 bd d2 75 c5 3d 70 3b f5 bd
       0.114068225 -0.051258698 0.09641613 -0.119742274
0000d0 24 d5 c1 bd fa 1a c0 3d c0 8d d5 bb 00 4b 17 ba
       -0.094644815 0.09380145 -0.006517142 -0.0005771369
0000e0 4e 99 87 3d d0 ab 4d bd f4 30 57 3d ba f4 9c bd
       0.066210374 -0.05021268 0.05253692 -0.076638654
0000f0 b2 e1 ab 3d 7e 4b 9e 3d 88 d0 cd 3c 74 39 12 bd
       0.08392657 0.07729243 0.02512385 -0.035699323
000100 7c 78 05 3d 50 6d 09 bd 60 85 ba bc 80 f5 ae bb
       0.032585606 -0.033551514 -0.022768676 -0.0053393245
000110 d0 8f 81 3c a0 13 5d 3d cc e0 99 bd 28 c7 80 bd
       0.015815645 0.053973794 -0.0751358 -0.06287986
000120 d0 10 7e 3d ac 4b 90 3d ee fe 92 3d 30 48 81 bc
       0.062027752 0.07045683 0.0717753 -0.015781492
000130 0e 19 e9 3d cc 6c 99 3d 00 fa 7b 3a aa 62 e4 3d
       0.11381732 0.074914545 0.0009612143 0.11151631
000140 b4 11 c9 3d 42 8c 83 bd b0 04 8b 3d 98 e0 5a 3d
       0.0981783 -0.064232364 0.067880034 0.053436846
000150 ec b0 22 bd e0 3a 99 3b 40 de 49 bc 16 d6 a8 bd
       -0.039719507 0.004676208 -0.012321055 -0.08243959
000160 50 0f d5 bc 50 f3 90 3d 5c 3d 25 3d b6 1b f2 bd
       -0.026008278 0.07077658 0.04034172 -0.11821692
000170 f8 55 ae bc 90 ec 66 3c c4 1f 0b 3d 60 5f 37 3c
       -0.021281227 0.014094487 0.03396584 0.011192173
000180 58 50 75 3d 06 0f 83 3d 80 63 b2 3d 5a eb d3 3d
       0.059891075 0.0639935 0.08710384 0.10347624
000190 de 69 d6 3d 72 cf e1 bd 52 c3 f9 bd b8 d0 a4 bc
       0.10469411 -0.11025895 -0.121954575 -0.020119056
0001a0 28 0f d2 3c c0 52 72 3c 4c 3b 61 3d 28 c1 91 bd
       0.025641993 0.014790237 0.05498819 -0.0711692
0001b0 20 80 73 3c 94 01 e9 bd bc 08 9b bd b0 7c 3b 3c
       0.01486209 -0.11377254 -0.07570025 0.011443302
0001c0 70 a0 38 bd 82 f5 91 3d c0 5e 9c 3b 5c d2 72 3d
       -0.04507488 0.07126905 0.0047720373 0.059282646
0001d0 46 bf 89 3d 3a 7e d1 bd d0 bd 03 bc a6 3f 99 3d
       0.06725936 -0.10229154 -0.00804086 0.07482843
0001e0 3c 95 ce 3d 88 d3 c4 bc 28 5f 90 bd fe a7 f2 bd
       0.10087058 -0.024026647 -0.070493996 -0.11848448
0001f0 82 a3 f5 3d f0 48 c4 3c 40 61 0b bd cc b7 55 3d
       0.11994077 0.02396056 -0.03402829 0.052177235
000200 40 5d 76 3d 78 14 dd 3c 18 06 ab bd d4 85 35 bd
       0.060147524 0.0269873 -0.08350772 -0.04431708
000210 f6 6c 96 3d 18 bd e9 bd e8 69 cd 3c 00 7a 5d bb
       0.073450014 -0.1141302 0.025074914 -0.0033794641
000220 2e bb c4 bd 30 00 a8 bd d6 2d f6 bd ca e8 85 3d
       -0.09606014 -0.08203161 -0.12020461 0.065385416
000230 b0 ac 0e bd 10 c6 d7 3c 68 c7 9c bc 98 22 55 3d
       -0.034832656 0.02633956 -0.019138053 0.052034944
000240 d6 c5 f9 bd e0 3c 6b 3c ec 9a bb bd 46 9f e8 bd
       -0.12195937 0.014357775 -0.091604084 -0.11358504
000250 58 65 01 bd 3c ed 6f 3d 4c 54 cd bd 90 50 cf 3c
       -0.03159079 0.058575854 -0.10025844 0.02530697
000260 a8 3e c1 bc 1a 7b d3 3d 08 ba 75 bd 60 bb aa bb
       -0.023589447 0.10326214 -0.059991866 -0.005210325
000270 00 6d d6 3d 70 19 c7 bd 98 7d c4 bc a8 c5 0f 3d
       0.10470009 -0.09721649 -0.023985669 0.03510061
000280 88 1a 4e bd b8 30 86 3c a8 35 b0 bc e6 90 d2 bd
       -0.05031827 0.016380653 -0.02150996 -0.102815434
000290 36 aa f9 3d a0 77 47 bd e0 ba 90 bc d0 71 14 bd
       0.12190668 -0.048698068 -0.017667234 -0.036241353
0002a0 48 6e a6 bc b4 a5 a4 bd 2c 73 41 bd 72 34 a8 3d
       -0.020316258 -0.08039418 -0.047228977 0.08213128
0002b0 10 13 06 3d d2 d4 aa bd 10 a4 18 3d ac 44 7c 3d
       0.032733023 -0.083413735 0.037265837 0.061588928
0002c0 b8 85 df 3c c8 78 a3 3c 00 68 c2 38 fa d5 de bd
       0.027285442 0.019955054 9.2700124e-05 -0.108806565
0002d0 98 62 69 3d d8 30 de bd 0c 56 1c bd 88 fa c5 bc
       0.056978792 -0.1084916 -0.038168 -0.024167314
0002e0 60 e7 2a bc 24 fa de 3d 60 a5 69 bd 48 77 8d bd
       -0.010431141 0.10887554 -0.05704248 -0.06907517
0002f0 72 c2 bf bd 60 5e 69 bd 8c d6 29 bd a8 c1 87 bd
       -0.093632594 -0.05697477 -0.041464373 -0.06628734
000300 10 71 4a 3d 54 09 72 3d 28 b6 e1 bd c0 6e 9a bc
       0.04942423 0.059090927 -0.11021072 -0.018851638
000310 dc b8 3a bd c4 26 9d bd 96 dd a3 bd d8 0c 64 bd
       -0.045586452 -0.076734096 -0.080012485 -0.05567631
000320 b8 13 d9 bc 18 0c 25 bd 80 8c 9b 3c 6c 57 09 3d
       -0.02649866 -0.040294737 0.018987894 0.033530638
000330 00 d8 9d 3b 20 e0 9e bb c0 91 bf 3c ee 4f af bd
       0.004817009 -0.004848495 0.023384929 -0.08560167
000340 f0 82 27 3c 18 55 68 3d f8 c7 b2 bd fc bb ef bd
       0.010224089 0.056721777 -0.08729547 -0.11705777
000350 88 33 a8 bd ac 80 82 bd 90 d2 00 bd 0a cd cd bd
       -0.08212954 -0.063721985 -0.031450808 -0.10048874
000360 10 50 a9 bc d8 26 33 3d ea 0d f4 bd e8 e3 e2 3c
       -0.02066806 0.043738216 -0.119167164 0.027696565
000370 de ed e6 bd 38 4e ee bc cc 52 4b bd 40 7c a7 bd
       -0.11275838 -0.029090032 -0.049639508 -0.08177996
000380 e0 0c 8a bd 9e 10 a8 bd 54 96 39 3d c0 06 f0 3b
       -0.06740737 -0.082062945 0.04530938 0.0073250234
000390 00 89 7b bd 9a 8b b3 bd 42 cb d7 3d a0 58 d0 bc
       -0.06140995 -0.08766861 0.10536815 -0.025432885
0003a0 e0 c3 3f 3d 66 44 80 3d 00 17 6d 3a 1e 0a 80 3d
       0.04681766 0.06263046 0.000904426 0.0625193
0003b0 fe 27 88 bd 18 dd ac 3d 00 b0 7e 3a 9a 61 ac 3d
       -0.06648253 0.08440608 0.0009715557 0.084170535
0003c0 74 d2 22 3d 8c 2d b7 bd c0 6f 10 3c cc 89 01 3d
       0.039751485 -0.08944234 0.008815706 0.031625554
0003d0 6c 82 e4 3d b0 6a 28 3d 88 8a ae 3c 28 d6 0c 3d
       0.111576885 0.04111737 0.021306291 0.034383923
0003e0 d8 9b fb bd e0 9c b3 bd 8e e2 d4 bd 50 5c 81 3c
       -0.12285584 -0.08770156 -0.103947744 0.015791088
0003f0 8c 62 e5 bd c0 80 61 bc 00 f5 c4 3b b8 70 87 bd
       -0.11200437 -0.013763607 0.0060106516 -0.06613296

actor.2.bias f4 [64]
000000 bc c3 e4 3d 08 a1 b2 3c 1c 04 97 bd 94 44 31 bd
       0.11170146 0.021805301 -0.07373831 -0.04327829
000010 f8 7b 20 bd 22 76 e7 3d 74 8b b1 3d 98 d3 8c bc
       -0.039180726 0.11301829 0.08669177 -0.01719074
000020 c0 72 45 3b 50 5e ac bd 70 7f 50 3d e0 40 ef bd
       0.003012821 -0.08416426 0.050902784 -0.11682296
000030 c6 32 90 bd f6 9b f6 3d 28 fc 01 3d 60 41 f5 bc
       -0.07040934 0.12041466 0.031734616 -0.0299384
000040 50 1e 33 3d b8 4a ac 3c f4 93 4d bd d0 01 9f 3c
       0.04373008 0.021031722 -0.050189927 0.019410044
000050 50 f4 78 bc 20 39 ce 3c 64 10 d9 3d e0 e1 9f bd
       -0.015194967 0.025173724 0.105988294 -0.07806754
000060 62 a7 ed 3d ae 25 8f 3d e8 49 92 bd 90 be 1e bc
       0.11604191 0.06989609 -0.07143003 -0.009688988
000070 10 6e d7 3c 78 97 03 3d 8a 38 a4 3d 60 46 91 bb
       0.0262976 0.032126874 0.080185965 -0.004433438
000080 7e ed c1 3d f2 30 d0 bd 56 5a ac bd c4 5f 62 3d
       0.09469126 -0.101655856 -0.08415668 0.05526711
000090 fa fa ac 3d 08 e9 bc bc b2 55 a4 3d c8 2f 83 bd
       0.084463075 -0.023060337 0.080241576 -0.06405598
0000a0 fc 90 ae 3d e8 37 a6 3c 54 9d b7 3d 14 cd 99 bd
       0.08523747 0.02029033 0.08965555 -0.07509819
0000b0 46 e3 cc bd 88 08 a4 3d 48 c9 8b bc 88 37 bd 3d
       -0.100042865 0.0800944 -0.017063752 0.09239107
0000c0 54 87 cc 3d a2 f2 9c 3d 80 3f b6 3d 88 c3 e7 3d
       0.09986749 0.07663466 0.088988304 0.113165915
0000d0 28 5e cb 3c 80 57 fe bd 92 b9 cd 3d 38 44 fc 3c
       0.02482517 -0.12419033 0.1004516 0.030794248
0000e0 2c 8a 53 bd d8 26 e1 3d 04 c4 a5 3d 00 68 dd 39
       -0.051645443 0.10993737 0.08094028 0.0004222989
0000f0 b0 df 01 3d 80 3d 81 bd 20 5f b6 3d 2e b1 a0 3d
       0.031707466 -0.06310558 0.089048624 0.07846294

mean.weight f4 [1, 64]
000000 90 11 5b bc d0 0e 02 3d 94 a2 b1 3d 40 bf 4d 3c
       -0.013370886 0.031752408 0.086735874 0.012557805
000010 38 35 5f bd 18 c3 c0 3c 44 e6 c4 bd 68 3a c9 bc
       -0.054494113 0.023530528 -0.09614232 -0.024563983
000020 38 17 e7 3c e8 75 a7 bc 32 97 d0 3d 00 23 f7 3d
       0.028209314 -0.020441964 0.10185088 0.120672226
000030 04 4b b9 3d ea 58 a2 3d e6 bd d3 3d 8c 97 02 bd
       0.09047511 0.07927115 0.10338955 -0.031882808
000040 62 32 95 bd 08 dc 20 3d b0 d4 9e 3c 18 59 ce 3d
       -0.072850004 0.03927234 0.019388527 0.10075587
000050 50 17 d5 bc c0 96 80 bb 28 de 1e 3d c8 75 00 bd
       -0.026012093 -0.003924221 0.038786083 -0.031362325
000060 68 f6 de bc b8 83 4a bd 3c 9a 51 bd 66 a8 97 3d
       -0.027217105 -0.049442023 -0.05117248 0.07405166
000070 80 73 03 3b dc b0 2d bd 96 ae 92 3d 60 36 f8 bb
       0.0020057857 -0.042404994 0.07162206 -0.0075748414
000080 d4 71 7a 3d 40 ec ea 3c 3c ae e5 3d b6 05 d7 3d
       0.06114371 0.028677106 0.11214873 0.10499136
000090 50 87 a2 3c 8c 36 42 bd b0 59 f4 3d 0c d1 be bd
       0.019839913 -0.0474153 0.11931169 -0.09317216
0000a0 48 c5 b1 3c 00 e6 09 ba 90 e1 45 bc 44 e8 be 3d
       0.021700516 -0.0005260408 -0.012077704 0.09321645
0000b0 74 6e 3a bd ce 8b a1 3d b4 f7 01 bd 74 5d c4 bd
       -0.045515493 0.07887994 -0.03173037 -0.09588137
0000c0 48 b0 47 bd 96 62 f8 3d 08 3a 4f 3d c0 b8 1f bc
       -0.0487521 0.12128179 0.050592452 -0.009748638
0000d0 88 4d 72 bd c8 46 44 3d 8c 92 94 3d 00 43 a0 ba
       -0.05915597 0.047919065 0.07254514 -0.0012226999
0000e0 58 f0 96 3c 68 8e d8 bd 4e 29 b6 3d a8 8a 79 bd
       0.018425152 -0.10574037 0.08894597 -0.06092325
0000f0 d2 7f da 3d 5e fa c9 bd 20 da e5 3b de 3e b1 3d
       0.10668911 -0.09862207 0.007014528 0.08654569
