double_saved_models/initial_critic_20241125_210034.pth (torch, 22446 bytes, 5 tensors)

critic.0.weight f4 [64, 9]
000000 60 df 25 3d e4 f7 b5 3d 58 a0 4f 3d c0 08 a2 3d
       0.04049623 0.08885172 0.050690025 0.07911825
000010 5e 14 05 be b8 7d 3f bd 90 40 b6 bc 18 f9 04 bd
       -0.1299605 -0.046750754 -0.022247583 -0.032464117
000020 ea 3d 8f be 24 3b 84 bd 40 a8 04 3e 41 52 97 3e
       -0.27976924 -0.06456593 0.12954807 0.29554942
000030 10 3e a0 3c 80 df f2 bc 76 72 67 3e 50 cf 81 3c
       0.019560844 -0.029647589 0.22602257 0.015845925
000040 0b 10 0f be cd 26 97 3e b4 8a d1 3d 72 05 2c 3e
       -0.13970964 0.2952179 0.10231534 0.16798952
000050 db c6 9a 3e d0 68 91 3c 50 08 aa bc b3 5f 3f be
       0.3022984 0.017750174 -0.020755917 -0.1868885
000060 78 0b 64 bd df e6 99 be 46 68 24 3e 9a dc 6f 3e
       -0.055675 -0.30058953 0.16055402 0.23423997
000070 38 fd 64 3d 70 a5 88 bd ad cb 96 3e 53 28 00 be
       0.05590555 -0.0667218 0.29452267 -0.12515382
000080 53 81 0a be e0 e4 b1 bd 7f e6 a1 3e be 8b 44 3e
       -0.13525896 -0.086862326 0.31621167 0.19193932
000090 a8 a0 84 be 93 ca 9a 3e 16 20 63 be e8 db 3f be
       -0.2590382 0.30232677 -0.22180209 -0.18736231
0000a0 66 86 4b be 00 90 4f 3c 73 80 07 be 0a c3 36 3e
       -0.19875488 0.01266861 -0.13232593 0.17847839
0000b0 c0 34 fa bc 33 91 2d be 2a 13 5f 3e 00 10 96 bb
       -0.030542731 -0.1694992 0.21784654 -0.004579544
0000c0 e0 4e 73 3c bc 61 f8 3d f0 6f 9e bd 00 a2 45 bb
       0.014850348 0.12128016 -0.07736194 -0.0030156374
0000d0 60 26 98 bd 31 d9 8a 3e 21 77 81 3e d8 b2 2c 3d
       -0.074291945 0.2711883 0.252862 0.042162746
0000e0 fa 14 04 3e 76 bd db bd 0e d8 19 be 2a e4 74 3e
       0.12898627 -0.10729496 -0.15023825 0.23915163
0000f0 f5 e5 97 3e e4 28 a9 3d b2 2f 64 3e 91 81 93 3e
       0.2966763 0.082597524 0.2228382 0.2880979
000100 28 dc 29 bd b5 90 8c 3e 60 bc d3 bd 83 41 1c be
       -0.041469723 0.27454153 -0.10338664 -0.15259366
000110 09 26 98 3e c1 3c 8e 3e 63 f5 5c be d8 85 7f 3d
       0.2971652 0.27780727 -0.21577983 0.062383503
000120 62 5d 55 3e 33 fb 5f be cd 4a 92 3e d4 4e f8 3d
       0.20836404 -0.21873169 0.28572693 0.1212441
000130 60 b7 42 bc ea 21 6e 3e 28 09 34 bd a0 dd 88 bd
       -0.01188454 0.23255125 -0.043954045 -0.066828966
000140 00 f9 ab bd 86 a4 15 3e 1b 9b 45 be e5 03 8e 3e
       -0.08397102 0.14613542 -0.1929745 0.27737346
000150 48 05 39 3d 48 be 27 be 3a ca 6f 3e e0 19 23 3c
       0.045171052 -0.1638118 0.23416987 0.0099549
000160 e6 fb 34 3e f0 d2 bb 3c 46 88 e9 bd db 98 3c be
       0.17674217 0.022927731 -0.11402945 -0.18417685
000170 c6 ce b9 bd f6 1f 5c be 3c 42 c9 bd 69 05 97 3e
       -0.09072642 -0.21496567 -0.09827086 0.29496315
000180 d6 67 6b 3e 2d 37 a7 3e 32 82 55 3e 60 43 3d bc
       0.22988829 0.32659283 0.20850447 -0.011551708
000190 c2 23 4e 3e f8 82 30 3d 6b 63 85 be bc ac c0 bd
       0.20130828 0.04309365 -0.26052412 -0.094079465
0001a0 f2 e1 0e 3e 48 f1 28 3e 88 b2 1d 3e 98 e8 94 be
       0.13953379 0.16498291 0.15400136 -0.29083705
0001b0 fe 2c 56 be f6 5d b7 bd 78 f1 38 3d 28 c7 75 3d
       -0.209156 -0.089534685 0.045152158 0.060004383
0001c0 75 02 9c 3e 53 77 53 be d2 2f 7e 3e b6 06 c2 bd
       0.30470625 -0.20650987 0.2482293 -0.09473936
0001d0 00 25 c9 3a e0 28 d4 bd c8 79 31 be 78 b0 6a bd
       0.001534611 -0.10359359 -0.17331612 -0.0572972
0001e0 36 6b 2d 3e 6c 4b bb bd e0 79 1c 3c 58 11 56 bd
       0.16935429 -0.09145245 0.009550542 -0.052262634
0001f0 c4 cc 89 3d 50 44 dd bc d8 b1 2c be ec 27 fc bd
       0.06728509 -0.027010113 -0.16864717 -0.12312302
000200 fe 1e 26 3e f0 42 b9 3d 55 9a 9c 3e 22 a5 65 3e
       0.1622276 0.090459704 0.30586496 0.22426274
000210 d0 cb cc bc 70 6a 95 bd 00 94 3d 3d 22 25 03 3e
       -0.02499953 -0.07295692 0.046283722 0.12807134
000220 db 84 30 be 7e 07 4c be cd 9b a4 3e 80 60 22 bd
       -0.1723818 -0.19924733 0.32150117 -0.03964281
000230 e0 c0 42 bd 62 c7 43 3e 87 75 88 be 42 2f 49 3e
       -0.04754722 0.19119027 -0.26652166 0.19646934
000240 f0 52 cb bc 1b 0a 3c be 1e e3 2b be d0 67 13 be
       -0.024819821 -0.1836323 -0.16785857 -0.1439507
000250 fc cd 85 be f2 16 12 3e a8 cb 1e be eb 95 90 be
       -0.26133716 0.14266565 -0.15507376 -0.28239378
000260 ab c9 91 3e 80 f1 63 be 28 d8 63 be 27 7e 8e be
       0.28474173 -0.22260094 -0.22250426 -0.27830622
000270 03 93 06 be f0 10 78 be ac 61 f2 3d 84 71 c7 3d
       -0.13142018 -0.24225211 0.11835036 0.09738448
000280 78 f2 47 3d a0 0d a4 3d 60 47 24 be ca e7 44 3e
       0.04881522 0.08010411 -0.16042852 0.19229046
000290 22 d7 5f 3e 2c 29 bd 3d 22 92 49 3e ba 29 7c 3e
       0.2185941 0.092363685 0.19684651 0.24625292
0002a0 b9 6b 8e 3e f8 fc 30 bd fa 0d 0b 3e 38 bf a9 be
       0.2781656 -0.04321 0.1357955 -0.331537
0002b0 66 78 e1 bd c3 9e 0e be a4 fc a4 3d 13 ad 48 be
       -0.11009292 -0.1392775 0.08056 -0.19597273
0002c0 48 1e 4a bd 5c e9 d8 bd f0 b7 11 be cf 96 81 3e
       -0.049345285 -0.10591385 -0.14230323 0.2531037
0002d0 b2 eb 29 3e d5 b4 96 3e b6 f7 31 be 1b fd 9e be
       0.16593817 0.2943484 -0.1737965 -0.3105248
0002e0 58 fc 75 bd ac 26 b3 3d c0 2e c9 3c a6 ba a1 be
       -0.060055107 0.087476104 0.024558425 -0.31587714
0002f0 76 93 18 be 56 48 a0 be ed 4c 93 3e 83 ff 08 be
       -0.14900002 -0.31305188 0.28769627 -0.1337872
000300 1e 84 0c 3e 4f 9c 8f 3e 2d d8 9c 3e 4c e5 dc bd
       0.13722274 0.28048941 0.3063368 -0.107859224
000310 53 04 0a be f2 b9 0a 3e e1 19 aa 3e b2 c1 2a 3e
       -0.13478212 0.13547495 0.3322287 0.16675451
000320 48 17 3b bd 90 8d cb 3c 17 31 9f be 20 8a ad 3d
       -0.0456765 0.024847776 -0.3109214 0.08473611
000330 f0 31 99 bd 15 da 88 3e 58 82 5e 3d 00 2c 26 3e
       -0.07480228 0.26728883 0.054323524 0.16227722
000340 8d b6 93 3e f0 df 9b 3c 74 f4 a2 bd e8 5b 23 be
       0.28850213 0.01902768 -0.07956782 -0.15953028
000350 e0 9e 02 be 48 1b 36 bd d9 1f 8a 3e b6 84 5f be
       -0.12755919 -0.04445961 0.26977423 -0.21827969
000360 3d 19 82 3e f0 c9 b2 bd 5b 51 88 be 68 cd 2f bd
       0.2540988 -0.08729923 -0.2662457 -0.0429205
000370 38 18 83 be 4c 0b cf bd 93 d7 33 be d5 d6 93 3e
       -0.25604415 -0.101095766 -0.17562704 0.2887484
000380 23 6f 46 be c8 49 85 be a8 1f 3c be 6c 52 ba 3d
       -0.19378333 -0.26032853 -0.18371451 0.09097752
000390 3d 8b 86 3e 54 e5 8a be ec 40 e9 bd 99 40 8f 3e
       0.26278105 -0.27128088 -0.11389336 0.27978972
0003a0 bc e8 f1 bd 10 7b 81 be 62 c2 7e 3e fc 09 87 bd
       -0.11811969 -0.25289202 0.24878839 -0.06593701
0003b0 ab 24 80 3e 90 94 cc 3c ea 59 2c 3e cb 8a 8c 3e
       0.25027975 0.024973184 0.16831174 0.2744964
0003c0 80 0c 45 bb 60 29 c3 bd 20 ac 0a 3d 83 72 8c be
       -0.0030067265 -0.09529376 0.033855557 -0.27431116
0003d0 0c c9 95 3d 09 7f 92 3e 0d 9f 92 3e 42 3f 59 3e
       0.07313737 0.28612545 0.2863697 0.21215537
0003e0 70 77 cd bd 92 2c 2e 3e 40 52 81 3b 40 bb 85 3b
       -0.100325465 0.1700919 0.0039465725 0.00408116
0003f0 e4 7c a0 bd 30 df d7 bc c0 8f 91 bc 12 9d a0 be
       -0.07836321 -0.026351541 -0.01776874 -0.31369835

critic.0.bias f4 [64]
000000 fe 58 14 be 32 d3 a7 be c0 4c 98 bc 78 1c 51 bd
       -0.14487073 -0.32778317 -0.018591285 -0.05105254
000010 d6 1f 41 3e 00 48 54 3c db 0b 8b 3e 8d 29 83 3e
       0.188598 0.012956619 0.27157483 0.25617638
000020 40 a0 93 bc 8c b7 8d bd 5e d2 6f 3e 9c 25 96 be
       -0.01802075 -0.069197744 0.23420092 -0.2932557
000030 68 2b 22 be 6f 78 93 be 81 1a 85 3e c0 db 89 bb
       -0.1583687 -0.2880282 0.25996783 -0.0042071044
000040 ae f4 01 3e 9a 04 5f 3e d4 12 93 bd cd 42 8c 3e
       0.12690994 0.21779099 -0.071813256 0.27394715
000050 4d ef a2 3e a0 e3 2a 3d eb 6f a2 3e 40 5f 7e 3d
       0.31823197 0.041720986 0.31726012 0.062102556
000060 08 40 21 be 39 5b a0 3e e2 cc 82 be b8 61 97 be
       -0.15747082 0.31319597 -0.25546938 -0.2956674
000070 e0 77 e2 bd b6 7d 9f be b1 b7 9c 3e a8 4c 18 be
       -0.110580206 -0.31150597 0.30608895 -0.14872992
000080 58 f9 2c bd 8c 23 e9 3d 2b f6 5a be e8 ac 74 be
       -0.04222998 0.11383733 -0.21382968 -0.23894083
000090 aa 85 a6 be 36 59 c6 bd 8a 5a 51 3e e0 1b 38 3d
       -0.32523853 -0.096849844 0.20444694 0.04494846
0000a0 8a e3 a6 be 28 a0 2c be 0e 30 84 be 07 48 8f be
       -0.32595474 -0.1685797 -0.25817913 -0.2798464
0000b0 85 a5 8a 3e 6d ca 87 3e e3 6b 22 be 7b e1 1b be
       0.27079406 0.26521626 -0.15861468 -0.15222733
0000c0 8e e9 4e 3e a5 a4 87 3e 50 e9 f6 3c 0d 95 83 3e
       0.20206282 0.264928 0.030140549 0.25699654
0000d0 30 93 ce bc c2 d5 3d 3e ac 5b a2 bd 3a 70 3b 3e
       -0.025216669 0.18538573 -0.07927641 0.1830453
0000e0 c2 da 8d be a6 4c 42 3e 6e c2 92 be 14 ab c2 3d
       -0.2770596 0.18974552 -0.28663963 0.09505287
0000f0 fe cd 77 3e 84 76 89 be e9 b2 97 3e 2c 67 d2 3d
       0.24199674 -0.26848233 0.29628685 0.10273585

critic.2.weight f4 [64, 64]
000000 f8 2d 05 bd 3c 65 23 3d 78 32 49 3d b0 06 a6 bd
       -0.032514542 0.039891466 0.049120396 -0.08106744
000010 d6 a4 92 3d 0a d3 df 3d a8 89 6b bd de 9c b7 3d
       0.07160346 0.109289244 -0.057504326 0.08965467
000020 74 a9 a3 3d 8e 74 84 3d e0 a0 69 bd d0 1b 6f bd
       0.07991305 0.064675435 -0.057038188 -0.058376133
000030 66 da 9b 3d fc ed 9a 3d fe a9 fe 3d ec ba 9a 3d
       0.076100156 0.07564923 0.12434767 0.07555184
000040 a4 c2 f5 bd 50 1b c6 3c 70 ec c7 3d 00 ee b8 3b
       -0.120000154 0.024182945 0.09761894 0.005643606
000050 8c 6f 73 3d 48 dd ef bc ca 58 cb 3d 2c cd d1 3d
       0.05943255 -0.02928032 0.099290445 0.102442116
000060 e0 6f d8 bc aa d7 d7 bd 7c 7e ef bd 68 d9 3b 3d
       -0.026420534 -0.105391815 -0.11694047 0.04586163
000070 d8 e3 77 3d d8 72 ec 3c 92 3f cb 3d 02 33 b8 bd
       0.060520023 0.028863356 0.099242344 -0.08994104
000080 80 f8 f1 bb a8 e8 53 3d 68 ea 6c 3d 00 a5 41 bd
       -0.00738436 0.05173555 0.057840735 -0.047276497
000090 38 81 cc bd 20 0a 07 bc 68 15 be 3c be 4b e1 3d
       -0.09985584 -0.00824216 0.023203567 0.11000775
0000a0 02 e9 f2 bd 3a 10 86 3d d4 ba d2 3d 00 8f f7 bb
       -0.11860849 0.06546064 0.10289541 -0.0075548887
0000b0 14 34 b9 3d 7e 37 aa bd f0 e7 c5 3d 14 bb 32 3d
       0.09043136 -0.083113655 0.09663379 0.043635443
0000c0 36 76 d8 3d d6 22 d9 3d fc b0 3d bd 20 a9 ed bb
       0.10569422 0.106023476 -0.046311364 -0.0072528273
0000d0 e0 d1 92 3c 4e ab ae 3d a4 09 a2 bd dc ac ea bd
       0.017922342 0.085287675 -0.07911995 -0.114587516
0000e0 b0 29 27 bc d6 4b bf bd 90 76 12 bc 3e fa fb 3d
       -0.01020281 -0.093406364 -0.0089394 0.12303589
0000f0 98 97 41 bd 5c c7 83 3d 2c 6e 88 3d 80 2a cf 3d
       -0.04726371 0.06434509 0.066616386 0.10115528
000100 cc c1 7b bd 94 80 3d bd d4 05 3f bd 94 a1 bc 3d
       -0.061464116 -0.0462652 -0.046636418 0.09210506
000110 78 7d b0 3d ac 98 2b 3d 44 35 59 bd 40 9a 43 3b
       0.08617681 0.041893646 -0.053029314 0.002984658
000120 64 12 ba 3d 88 73 0b bd 12 50 c4 bd 28 d5 9c 3d
       0.09085539 -0.034045726 -0.09585585 0.07657844
000130 94 bc d0 3d dc a7 86 bd 60 23 58 3c 10 7e 14 bd
       0.101922184 -0.065749854 0.013192028 -0.036253035
000140 ec f0 b8 3d f8 4f f3 bc 46 2b 88 bd 06 e7 cf 3d
       0.09030327 -0.029701218 -0.06648879 0.10151486
000150 10 62 c0 3c c0 76 60 bd f8 a7 a1 3c c4 7b 0e 3d
       0.02348426 -0.05480075 0.019733414 0.034786
000160 24 cc 5d 3d 68 06 15 bd 98 fc ed 3c 2c 0c 83 3d
       0.05414976 -0.036383063 0.02905111 0.06398806
000170 72 18 ab bd 20 3a ac bd 04 c2 83 bd ac 71 79 bd
       -0.08354272 -0.08409524 -0.0643349 -0.06089942
000180 92 de cf bd a8 8b cb 3d e4 52 48 3d 7e 98 e0 3d
       -0.10149874 0.09938747 0.048907176 0.109665856
000190 60 0e 61 3d 62 5e fb 3d 74 45 0f bd 18 75 97 3c
       0.05494535 0.122738615 -0.034978345 0.018488452
0001a0 a4 2c b7 bd 7a cd b2 bd 1a e5 a7 3d ec c1 b5 3d
       -0.089440614 -0.08730598 0.081979945 0.08874878
0001b0 40 f4 10 bd ce bb f5 bd 0a a0 ec bd f8 97 45 3d
       -0.035389185 -0.119987115 -0.115539625 0.04824063
0001c0 4c 8b d7 bd f0 88 91 bc 80 91 1b bd 1a c3 91 3d
       -0.10524616 -0.017765492 -0.037980556 0.07117291
0001d0 90 06 2a bc 98 bc 94 bd 20 e1 88 bb ee b5 d5 bd
       -0.010377541 -0.07262534 -0.0041772276 -0.10435091
0001e0 d6 60 af 3d a4 95 a3 3d f0 1a bc bc da bb e8 bd
       0.08563392 0.07987526 -0.022962064 -0.11363955
0001f0 80 0f 13 3d 00 ab d3 bc 10 89 a3 3d 94 34 00 bd
       0.035903454 -0.025838375 0.07985127 -0.031300142
000200 9c 0e 02 3d 46 61 c6 bd 82 78 c2 3d 70 cd f8 3c
       0.031752214 -0.09686522 0.09495641 0.030371398
000210 86 ac aa 3d e0 99 8d 3d 4a bb d4 3d 20 b4 95 3c
       0.083336875 0.06914115 0.10387285 0.018274367
000220 14 ad 4f 3d 48 ac 95 3d d0 2e 06 3d c0 78 62 3d
       0.05070217 0.07308251 0.032759488 0.055290937
000230 b0 8a c6 bd 76 39 9d bd 6a 29 ba 3d 2a 1a c3 3d
       -0.09694421 -0.076769754 0.0908993 0.09526475
000240 28 fd eb bc c0 b9 a7 bd ac 3e 6f 3d 70 e7 23 bc
       -0.028807238 -0.08189726 0.058409378 -0.0100039095
000250 26 20 9e 3d 9c 12 38 bd 98 13 b8 bc b6 4a ca bd
       0.077209756 -0.044939622 -0.02247028 -0.09877531
000260 c0 07 6c bd 3a 5f 96 3d 38 be cf bd 60 4e c7 bb
       -0.05762458 0.07342382 -0.10143703 -0.006082341
000270 18 01 45 3d d0 be 81 bc ac b4 25 bd bc 4a af 3d
       0.048096746 -0.015838057 -0.040455505 0.08559176
000280 24 1a fa bd 4c bb 5a 3d a8 2e 69 bd e0 46 5a 3d
       -0.12212017 0.053401276 -0.05692926 0.053290248
000290 58 41 16 bd e8 f8 21 3d f4 5d 5b 3d 88 7f 07 3d
       -0.03668341 0.039544016 0.053556398 0.033080608
0002a0 28 aa 8c 3d 46 b5 a1 3d 4e 45 eb 3d f8 7a ca bc
       0.06868392 0.07895903 0.11487828 -0.02471684
0002b0 64 1f a2 3d d0 45 4d 3d 4a 32 97 bd d4 26 84 3d
       0.079161435 0.050115407 -0.07382639 0.064527184
0002c0 40 9c 4a bc 18 44 e7 bd 5a ec af bd 5c 73 d5 3d
       -0.012366354 -0.11292285 -0.08590002 0.10422394
0002d0 f2 f3 fd 3d 14 79 65 bd 30 38 b9 bc 34 1e c1 bd
       0.124000445 -0.056023672 -0.0226098 -0.09429589
0002e0 88 5a b9 3d ce b5 f9 3d b2 af ed bd 7c ec 78 3d
       0.090504706 0.121928796 -0.11605777 0.060772404
0002f0 3e 3c b2 bd e0 6b 77 bc b8 32 84 bd d8 27 86 bd
       -0.087028965 -0.015101403 -0.06454986 -0.06550568
000300 40 6d 44 3d 6a 7c ad bd c8 14 c3 3d 00 4d 42 3a
       0.04795575 -0.08470996 0.09525448 0.00074119866
000310 dc 95 dd 3d 18 c0 eb bd c4 2a ca 3d 20 de 45 bd
       0.10819599 -0.11511248 0.09871438 -0.048307538
000320 e0 df d5 3d ca 42 f7 bd bc a9 b4 bd 4c 51 3e 3d
       0.104430914 -0.12073286 -0.08821437 0.04646425
000330 80 b6 a6 3a 28 d2 38 bd 44 de 94 bd 80 b3 5f 3c
       0.0012719184 -0.045122296 -0.07268956 0.013653636
000340 98 4e 95 3d 6a 2b c6 bd 2a 6e c8 bd a4 27 42 bd
       0.07290381 -0.09676249 -0.09786637 -0.047401085
000350 20 e1 e3 bb 40 df cb 3b c8 c6 62 3d 30 4b de 3d
       -0.006954327 0.006221682 0.055365354 0.10854185
000360 b6 9b 98 bd 30 46 5a bc 50 60 33 bd 78 fe 38 bd
       -0.074515745 -0.013322398 -0.043793023 -0.045164555
000370 f8 d3 ed bd b0 02 0c 3c 68 57 fb bd 50 a1 48 3d
       -0.116126955 0.008545563 -0.12272531 0.048981965
000380 40 3b e9 3c f4 91 7d 3d d0 64 a4 3d 90 51 91 3c
       0.028470635 0.06190677 0.08027041 0.017739087
000390 8a 1f b9 3d fc 89 a5 3d b0 18 a1 3d 88 92 96 3d
       0.09039219 0.08082959 0.07866037 0.07352167
0003a0 1c 70 9c 3d 10 03 7c bd de 25 fe 3d 68 da e4 3d
       0.07638571 -0.061526358 0.12409566 0.1117447
0003b0 ce 96 d4 bd c8 a1 71 bd 7c 3a 83 bd a6 24 fb bd
       -0.10380326 -0.058992177 -0.064076394 -0.122628495
0003c0 40 a5 01 3b 06 7a ea 3d f0 1c 02 3d 68 ff 94 bc
       0.0019782335 0.114490554 0.03176588 -0.018188193
0003d0 b6 10 d2 bd 00 c2 3b bc b8 ee e2 bd 40 08 90 bc
       -0.102570936 -0.011459827 -0.11080688 -0.017582059
0003e0 60 85 de bc 0c 5a 48 bd 32 d8 ee bd 56 de 9c bd
       -0.027163208 -0.048914 -0.1166233 -0.07659595
0003f0 7e 15 a1 bd 78 d9 d9 3c a0 5a 53 3c dc b0 e9 bd
       -0.078654274 0.026592955 0.012900025 -0.114106864

critic.2.bias f4 [64]
000000 84 cd bf 3d c4 84 5a 3d 7e ac b0 3d 98 e4 2b bd
       0.09365371 0.05334927 0.0862665 -0.04196605
000010 10 a7 e7 3c 40 67 e9 3c 22 79 db bd 38 a7 9f bd
       0.028277904 0.028491616 -0.107164636 -0.07795566
000020 5a f4 94 bd 76 e6 ab 3d 10 fc 71 3c f4 03 18 3d
       -0.07273169 0.08393566 0.014769569 0.037113145
000030 40 a5 69 3d f8 94 04 3d 06 d0 a7 3d e0 d0 03 3c
       0.05704236 0.03236863 0.08193974 0.008045405
000040 94 79 06 3d ce c6 e3 3d aa 67 ff bd c0 5e 54 3c
       0.03283079 0.11121903 -0.12470944 0.012962043
000050 a8 64 6e 3d 20 fa 6e bc 7e 89 da bd b6 86 f7 3d
       0.058201462 -0.014586002 -0.10670756 0.12086241
000060 76 56 cb 3d 98 df 4e 3d 4c 86 37 bd 74 ad 54 3d
       0.099286005 0.050506204 -0.04480581 0.05192323
000070 00 41 bc bc c2 05 82 3d d8 49 dc 3c 8c 21 99 3d
       -0.022980213 0.063487545 0.02689068 0.07477102
000080 38 73 f4 bd 10 5a 64 bc 44 7a 78 3d e0 46 9d bd
       -0.11936039 -0.013937488 0.060663477 -0.07679534
000090 50 77 f5 3d e0 1d 8e 3d 1e af be bd f4 fa 9b 3d
       0.11985648 0.06939292 -0.09310745 0.07616225
0000a0 50 8b c1 bc 8c 83 4a bd c0 e2 7c bd 26 8a e9 3d
       -0.023626 -0.04944186 -0.061739683 0.11403303
0000b0 82 34 bc 3d 08 f8 d7 3c 92 ad fb bd b8 5f 3c bd
       0.091897026 0.026363388 -0.12288965 -0.045989722
0000c0 d0 f8 39 3d 68 fc 8c 3d 80 60 b0 bc f4 cf e0 3d
       0.0454033 0.0688408 -0.02153039 0.10977164
0000d0 20 e9 4f 3c c0 57 6f 3b 00 14 6d 3a 78 26 f9 bd
       0.012689859 0.003652081 0.0009043813 -0.121655405
0000e0 6e a9 c6 bd 78 f5 5f bd 48 69 5c bd ba f9 af bd
       -0.09700285 -0.054677457 -0.05381134 -0.085925534
0000f0 58 18 02 bd a2 18 f9 bd ae 05 ab bd 74 11 b3 bd
       -0.031761497 -0.121629015 -0.08350693 -0.08743563

critic.4.weight f4 [1, 64]
000000 84 ec bc 3d 26 a4 9a bd 58 34 94 bc 0c b7 a2 3d
       0.09224799 -0.0755084 -0.018091366 0.0794507
000010 74 f9 f5 bd 04 9b e7 3d 60 fa 3a 3d 84 8c c5 bd
       -0.1201047 0.11308864 0.045648932 -0.09645942
000020 1a 17 ea 3d 66 35 a7 bd 22 af b0 3d 0a e6 8e 3d
       0.114301875 -0.08164482 0.08627154 0.0697747
000030 80 29 31 bb e0 99 ca bc 1e d9 c6 bd f2 39 cb 3d
       -0.0027032793 -0.024731576 -0.097093806 0.099231616
000040 b6 74 81 3d c4 ee da 3d fe 6d aa bd c4 6a ee 3d
       0.06321089 0.10690072 -0.083217606 0.11641458
000050 e8 76 a9 3d cc fd 39 3d 0c 89 97 bd c4 77 d7 3d
       0.08274633 0.045408055 -0.073991865 0.1052089
000060 96 28 92 bd 08 95 9e 3d ec dd 68 bd 58 1e 30 3d
       -0.071366474 0.07743269 -0.056852266 0.042997688
000070 f4 99 6e bd e8 e8 a3 3c 22 eb c4 3d ec 6e 29 bd
       -0.05825229 0.02000852 0.096151605 -0.04136555
000080 aa 8b ea bd d8 04 7e bd 18 81 dd bc 18 57 36 3d
       -0.1145242 -0.062016338 -0.027039096 0.044516653
000090 2c 8e f2 bd 5c 41 15 3d e2 86 d5 3d 88 cb 22 bd
       -0.118435234 0.036439285 0.104261175 -0.039744884
0000a0 1c 53 f9 bd 38 da 86 bc de e9 ea 3d 08 61 c3 3c
       -0.12174055 -0.016461477 0.11470388 0.023849979
0000b0 f8 8c b8 bc 7c f6 44 3d ae 0a d3 bd 24 df 23 bd
       -0.022528157 0.04808663 -0.10304771 -0.040007725
0000c0 98 b1 68 bd 7c b3 1a bd 78 80 cd bc fa 1c ad 3d
       -0.05680999 -0.037768826 -0.025085673 0.084527925
0000d0 d6 b0 96 bd b0 0f a4 3c 00 91 38 bb f8 8c b9 bc
       -0.073579475 0.020027012 -0.0028162599 -0.022650227
0000e0 48 6e 36 3d 40 bc 8c bd 54 33 2e bd 04 fe e5 bd
       0.044538766 -0.06871843 -0.04252942 -0.1123009
0000f0 78 43 b4 bd a0 f6 b4 3d 54 6d f4 bd 04 08 bf bd
       -0.08801931 0.088361025 -0.11934915 -0.09327701
