saved_models/best_critic.pth (torch, 78512 bytes, 5 tensors)

critic.0.weight f4 [128, 17]
00000000: a1b0 f43d 2e1a 1f3f 98ea 093c f007 89be
00000010: e735 293d 1522 95bd fcea 9f3e ff56 50be
00000020: e63b 5abe af48 a73d 543a a53e 6b92 143e
00000030: 18ee b8bd fdf4 0cbe d448 d7be fb91 603c
00000040: 405e 443c a15b b93e fc75 3c3d 6597 94bc
00000050: 51fe 9ebd 4a92 2f3c 6efd e3bd 5323 f2be
00000060: 5333 16be de21 a13e b878 cabd 37f2 85be
00000070: 7e48 7abb b8fb 43bd 7e98 95bd db12 503e
00000080: 439c 053b 1853 18bd df0a 153f 1b40 85bf
00000090: 0fb6 92bf 0de4 ac3d bd7f 123f ee49 e73f
000000a0: 6103 d53f ff39 373f 3637 7abe 441f b43e
000000b0: 96d0 d9bd 1d01 043d 3e33 3c3d ec5f 063c
000000c0: 511f ea3d 3d3a 663d f3a2 d9bb b45b 473b
000000d0: b735 d7bf d601 0a3e a464 a13d 7bb0 82bd
000000e0: 0bae ed3e d1fc 0c3f 5c81 793c 0cb2 1cbf
000000f0: 6dd8 13be af6a 55be 0864 f43e 5f46 643e
00000100: c5ae a43b 26c9 48bd cb44 ea3c cce5 21be
00000110: 2c07 493e b3de 8abf ac9e 8fbe 07ff 0f3f
00000120: 40cc 183f 39ee d73e 8200 c2be e78e af3e
00000130: 8a22 30bf 5ec1 8b3d 2576 1bbe 1058 a23d
00000140: adb2 d23d 61e6 643c a5af 7b3d 0bcf 1d3e
00000150: 403c dd3b cb47 1a3d 8829 12c0 a2b6 2ebe
00000160: 58ec 31be e948 a63d 0571 1e40 4ed9 563f
00000170: 5864 453e 2133 d73d 8402 61bd 5375 bebe
00000180: 751b c93d 9360 a03d 104f f4ba 0d8e 363e
00000190: c753 de3d ac81 353c 14be 4d3e 60b9 d43f
000001a0: 1296 afbe e582 79be 4c64 cb3e a779 8dbf
000001b0: 9685 62bf a061 623e 2337 493f e3b8 a5be
000001c0: 66d6 9f3d e74b d73c 7af7 24bd 7f75 fdbc
000001d0: d15e 59bd 15d8 dfbd a73b b3bd 0bb6 88bd
000001e0: 5e67 613f 3897 55be 520f d33e b2ab bfbb
000001f0: a9aa b0be 2df5 6dbf 49e8 363d 852b e13e
00000200: 69f6 30bf 52d7 a6be d207 193e bbf8 0b3e
00000210: 48ef 29bd 8cb4 de3d 50a7 b53d 899b 773b
00000220: bdd4 ea3e 4454 c3bb f898 21bf 7553 a6be
00000230: 6d16 2b3e f0d7 eebe 9666 38bd 19b1 7dbc
00000240: 8e8b c93c 1867 bebd ff41 da3b be15 91bd
00000250: be95 0b3e f310 e2bd b2f0 dcbd 6b14 89bd
00000260: d002 ddbd 1765 bf3e 4753 a43f 6bcc 85be
00000270: 1bdf 893e e3b5 fc3d c8b8 5dbe 6176 9bbd
00000280: 3bf0 633e ebdd 633e 0938 f0bd 0e5f d23b
00000290: f257 22be c8b5 f9bd 2ae4 18bd 3b9c c3bc
000002a0: 9648 06be 0163 243e 5e8c b0be 3488 703f
000002b0: a846 3b3d ffaf 89bf 7d99 78be 3297 b6bf
000002c0: 74e3 25bf e3cd 40bf 5ca2 de3e 19ee 6c3e
000002d0: d92d 1b3e e125 c6bd 17af 23be 2e6f 9e3b
000002e0: 3481 49bd d7bd abbd 6f50 683d bd11 0b3e
000002f0: f5b8 2dc0 5a89 c63e 26d9 1ebf abb4 b63e
00000300: 6f5f 2e3f ed01 07be 5d6c 0dbf 4ef1 bbbe
00000310: 9582 81be 438b 67bd ab27 17be d9c3 003b
00000320: 4b5d 843c d43b 643d b1be 413d ce75 c7bd
00000330: 409e 0b3e a5fb 97bf adba 143e 71e7 4e3e
00000340: 1bc5 a33d eae1 1e40 d773 803f 596f 293f
00000350: 213f 98be c7a4 d83e 308f 223d e36c 333e
00000360: 6409 ff3d 91c6 4dbc 2827 e6bd 8eb9 8fbd
00000370: e7bc 08bd 3be4 cb3e 7b8b 493f 1aa4 74be
00000380: 0089 f0be 58cd 8c3e f91c 4bbf 1600 43bf
00000390: 94f7 21be d32a 0f3e fd01 09bf 55a9 9d3e
000003a0: b48e 78be 353a 76bd 2a83 8ebb 337f 843b
000003b0: 94dd 4c3c b09c 0cbd 815f 213e cae1 86be
000003c0: 49a4 9fbd b619 64be 1ac7 9a3e a004 b8be
000003d0: 83f6 a7bd 42c7 c0bd a0af a93e 19de 46be
000003e0: f9a2 c3bd f83e b6bc fedc 213d 3123 953d
000003f0: b76f 753e 6c8d d43c cde0 dc3c 9af1 bebe
0.11947752 0.6214932 0.008417748 -0.26763868 0.04131117 -0.07281891 0.31233966 -0.20345686
-0.21311912 0.0816816 0.32271063 0.14508979 -0.09029788 -0.1376533 -0.4204775 0.013706679
0.011985362 0.3620272 0.046010956 -0.018138597 -0.07763351 0.01071603 -0.11132322 -0.47292575
-0.14668016 0.3147115 -0.098863065 -0.26161358 -0.0038190181 -0.04784748 -0.07304476 0.20319693
0.0020387329 -0.03718862 0.5821971 -1.0410188 -1.146181 0.08441935 0.57226163 1.8069437
1.6641656 0.7157287 -0.24435124 0.35180104 -0.10635488 0.032227624 0.045947306 0.0082015805
0.114317544 0.056207884 -0.0066417395 0.003041965 -1.6813267 0.13477263 0.07880524 -0.06381317
0.46421847 0.5507327 0.015228596 -0.6120918 -0.14438029 -0.20841478 0.47732568 0.2229247
0.005025717 -0.049019955 0.028597256 -0.15810317 0.19631642 -1.0849212 -0.28050745 0.56248516
0.5968666 0.42173937 -0.37891012 0.34288713 -0.688027 0.06823991 -0.15181787 0.07926953
0.10287986 0.013970942 0.061446805 0.15411012 0.006751567 0.037666123 -2.2837849 -0.17061856
-0.17375314 0.08119375 2.4756482 0.8392533 0.1927656 0.10507799 -0.05493404 -0.37198886
0.0981969 0.0783092 -0.0018639285 0.17827626 0.10855823 0.011078279 0.2009204 1.6619072
-0.34294182 -0.24366339 0.39724958 -1.105275 -0.88485086 0.22107553 0.78599757 -0.3236762
0.07804565 0.02628131 -0.040275075 -0.030939816 -0.05306894 -0.10929886 -0.08751612 -0.06675347
0.8804835 -0.20858467 0.41222626 -0.005849325 -0.34505203 -0.92952234 0.04465512 0.43978515
-0.6912599 -0.3258615 0.1494439 0.13669102 -0.041487962 0.1087428 0.08869803 0.0037781915
0.4586543 -0.005960973 -0.63124037 -0.32485548 0.16707774 -0.46649122 -0.04501971 -0.015484118
0.024602678 -0.09297007 0.0066606994 -0.07084225 0.13631341 -0.11038389 -0.107880965 -0.066933475
-0.10791552 0.37381813 1.2837914 -0.2613252 0.26928028 0.1233938 -0.2165252 -0.07590938
0.2225961 0.22252624 -0.11729438 0.006420023 -0.15853861 -0.12192875 -0.03732697 -0.023878207
-0.13113627 0.16053392 -0.34482092 0.9395783 0.04572168 -1.0756835 -0.24277301 -1.4264891
-0.6480019 -0.7531416 0.43483245 0.23137702 0.15154208 -0.096751936 -0.1598476 0.004835031
-0.049195483 -0.083858185 0.056717332 0.13580985 -2.714414 0.38776666 -0.6205009 0.35684714
0.6811437 -0.13184328 -0.55243474 -0.36707538 -0.2529494 -0.056529295 -0.14761226 0.0019647984
0.016157767 0.05572112 0.047300998 -0.09739266 0.13634586 -1.1873671 0.14524336 0.20205475
0.07996579 2.4825387 1.0035352 0.6618553 -0.29735664 0.42313215 0.039687335 0.17522006
0.12452963 -0.012559549 -0.11237937 -0.070178136 -0.033383276 0.39822564 0.78728455 -0.23890725
-0.46979523 0.27500415 -0.79341084 -0.76172006 -0.158171 0.1398118 -0.5351866 0.30793253
-0.24273187 -0.060114104 -0.004349132 0.0040434836 0.012504 -0.034329116 0.15759088 -0.26344138
-0.07795007 -0.22275433 0.30230027 -0.3594103 -0.08201315 -0.094130054 0.33141804 -0.19420661
-0.09552569 -0.022246823 0.039517395 0.07282103 0.23968397 0.025946341 0.026962662 -0.37293702

critic.0.bias f4 [128]
00000000: 2bd0 f5be a0f1 843f 8cbd d0bd 458f b13d
00000010: 8d67 743f 3742 8cbe 482e acbe 60f4 65bf
00000020: 069b 2f3f cc63 bbbe 989b 8abe 861e 5f3e
00000030: 7056 723f 1b3f 29bf 5695 5a3f 7a23 d8be
00000040: ecc4 18bf eec8 b7be 7648 893f 2dd9 2d3e
00000050: 53e1 3a3f 6dc7 663e 51e6 a73e 8cf7 0d3d
00000060: 5c0d 893f 4aa9 fcbe 2c61 7f3f 5f46 9c3e
00000070: 4ddd bb3e fb3a ae3e 492b 3abd 4195 803f
00000080: 94f6 3fbf 8ca9 d2be e707 a5be cae3 043e
00000090: 2ed5 843f d61f 25bf 6969 8e3f 549d a23f
000000a0: 1250 b13d 6b2a 593f 8305 643f 2b2a 543d
000000b0: db8b 02bd 7984 ddbe 91fc ae3c 8bc0 19bd
000000c0: e852 9dbe 0378 873f 5ef3 0bbe d3a6 803f
000000d0: 1f05 893f 8d2e 933f 7ebe b9be 70a5 513f
000000e0: d378 813f 75cd 913f df73 973e baa6 57bd
000000f0: 8474 463f 8f45 1b3e 3329 333f e34b 2fbf
00000100: b56c 32bf 0574 793f 91b8 eebe 49ce c5be
00000110: 4b6e 233f 3572 563f 6d70 82be 5f66 673f
00000120: 1f3a bbbe 599f 28bf ceb0 81be dd2a 8a3e
00000130: cb08 623d 4015 273f 9eef 46be b7a1 36bf
00000140: 5739 fbbc 7ea0 43be 705a c0be 1a10 59bd
00000150: 70f2 b53f 2740 3c3f 8c62 96be 6d83 9abc
00000160: 1cf8 9dbe 0bbb b73e 8dbd a23e 53c0 923f
00000170: 75ff 16be 30b2 9d3f 5841 ee3e d99d 743f
00000180: 9956 32be b662 463f 3045 3f3f e406 563f
00000190: 9519 ff3d da9b ae3e 728c 8f3f 0383 a4be
000001a0: 12af b73e 7783 853f 19f6 293e 5262 093f
000001b0: d14d cfbe 78ec 843f ce87 ffbc e903 393f
000001c0: 4c3b 9cbe 3ab3 eb3e a772 e93e e8af 05bf
000001d0: 639d 1e3f 7b01 233f b036 9f3e 8626 3f3f
000001e0: a62b 083f 4a05 7b3f b28b bebe 9110 713f
000001f0: 1569 703f 16e2 503f dda8 0d3f e3a6 08bf
-0.48010382 1.0386238 -0.10192403 0.086699046 0.95470506 -0.27394268 -0.3362906 -0.8982601
0.6859592 -0.36599576 -0.27071834 0.21788988 0.94663143 -0.66111916 0.8538412 -0.42214566
-0.5967548 -0.35895485 1.0725238 0.16977377 0.7300007 0.22537012 0.32792905 0.034659907
1.0707202 -0.49347907 0.9975765 0.3052244 0.36692277 0.34029374 -0.045451436 1.0045549
-0.74985623 -0.4114498 -0.32232592 0.1297752 1.0377557 -0.645017 1.1125919 1.2704263
0.0865785 0.8483035 0.8907091 0.051798027 -0.031871658 -0.4326513 0.021360667 -0.03753714
-0.30727315 1.05835 -0.13667056 1.0050911 1.0704688 1.1498581 -0.36278147 0.8189306
1.0114998 1.1390826 0.2958059 -0.052649237 0.7752154 0.15163253 0.6998474 -0.6847517
-0.69697124 0.97442657 -0.46625188 -0.38633946 0.6384017 0.83768016 -0.254764 0.9039058
-0.3656778 -0.65868145 -0.25330204 0.26985827 0.055184167 0.652668 -0.19427344 -0.7134051
-0.03066699 -0.19104192 -0.37568998 -0.05299387 1.4214611 0.7353539 -0.2937206 -0.018861497
-0.30853355 0.3588489 0.3178524 1.1464943 -0.14745887 1.2320004 0.46534228 0.95553356
-0.17415847 0.7749437 0.74714947 0.83604264 0.12456051 0.3410328 1.1214736 -0.32131204
0.35875756 1.0430745 0.16597785 0.5366565 -0.40489057 1.0384665 -0.031192686 0.7227159
-0.3051399 0.46035177 0.45595285 -0.52221537 0.61958903 0.63674134 0.3109641 0.7466816
0.531916 0.98054945 -0.37215954 0.94165903 0.9391034 0.8159498 0.5533579 -0.5337965

critic.2.weight f4 [128, 128]
00000000: 7c13 4d3d b455 f63d 4654 eebd b626 303e
00000010: 4b4b a03e c96c 94be 5f88 e8bb 13af 45be
00000020: 587f 043e c401 8dbd 1bcf b73d 2358 c83e
00000030: 1015 383e ae63 41bd 787c 1f3e 8bd3 bfbc
00000040: 3ad4 0abd 100c 5cbd db19 893e a2fd 9c3e
00000050: e84c 6f3e 1793 1cbd 32e9 c0be b430 603d
00000060: 7689 233e 7468 febd ae66 023e 4f50 7bbe
00000070: ce74 443e c2da fb3d 152c d2bc 444f 373e
00000080: e375 3fbc 8ae9 b73d 6fa1 acbc df3d bbbd
00000090: 4767 883d a3c6 53be 29b6 903e 46f8 893e
000000a0: 4f54 cfbd 96fe 4a3e 0325 d43d 70dc febd
000000b0: 4ea4 c83d 82c3 0abd 7a48 40be 9d81 a7be
000000c0: a94f 2abc 33a9 1f3e c3a1 babe 692e c73e
000000d0: 7fc6 873e 4de3 f63e 019f 9dbd 4f34 223f
000000e0: a800 933e 8539 b23e b1e3 633e e25d 8c3e
000000f0: 18be 0a3f 55f0 0bbe 8a07 6e3e 3399 99bc
00000100: 194d 4fbe 8506 cc3d 4411 74bd 3f95 45bd
00000110: 11a4 233f 5c79 053e 163a 783d f80f ab3e
00000120: 0d68 ddbd d5b9 9bbc 527a c0bd 428a 8ebb
00000130: d56b 603e c293 603e ba22 c2be 31ab 2e3d
00000140: 614d 303e 8698 753e ea70 7dbd e929 a33e
00000150: b460 a43e 5bed a93d 6ba2 88be 0db9 7f3d
00000160: 273f 41be 8454 3e3e 1c43 4c3e 7ec0 0c3e
00000170: 7eb4 fabd f8f6 fd3e fd88 af3e 0fd9 093e
00000180: 3024 85bd df3e 1d3d 6db9 123e e510 e03d
00000190: d4bc a7bb d981 a23d 2a33 433e 86a5 8fbe
000001a0: 3412 593e 21c5 703e 70ea bc3b 4a05 ec3d
000001b0: 12e7 28be 804c 1f3f 6428 af3d 36f7 bb3e
000001c0: 5a70 b3bd 0031 c03e 8db8 663e 5b70 b2bd
000001d0: 7c96 763d 0d81 d13e 517a 3c3d 2173 d93d
000001e0: 932f 253d 8643 893e b53d 84bd abe1 d93e
000001f0: d57f 513e 8c58 e53e eeb3 3b3d 2606 3bbe
00000200: 8357 c6bd 54e2 c3bd b9b7 b53d f1c5 923d
00000210: 5f40 dcbd 70d3 873b 90ea d3be c08e 00be
00000220: ce90 b3bd 29a1 b4bd 6599 3ebe 6184 07bc
00000230: 168a 06bc dc57 1cbe 0f7f 08be 14d5 4a3e
00000240: 21fd 08bf 8cb0 af3d 0353 96be 8930 b23d
00000250: e148 80bd 53b4 2c3d 4a11 043e 09c4 9f3b
00000260: 14f5 cabd b436 95be b47b 2cbe 2a5a fa3c
00000270: cb31 d0bc 4c5d a0be 7280 3cbe 0517 a5bd
00000280: edb0 40be b468 7e3c 0198 94bb ab94 44be
00000290: 601a 70bd a61a 513d f90a 82be b05e 11be
000002a0: 3f83 d23e e6d1 1abe ebdc 0ebc 6655 2c3d
000002b0: 35bb 603d 349e a8bd 76ac 51bd 290c 263e
000002c0: 0837 d8bd 5ad0 28be 812f 963e b748 d63a
000002d0: 4a2e 40bc cb78 e53d 5671 b9bd bf03 1abd
000002e0: 8bbc 85bd 6237 a3bd bb92 6f3d 28ef 2cbe
000002f0: a36c 27bd 68cc 32bc a6a5 08bf 60e6 20be
00000300: a521 423e c938 9abd 9382 dd3d 9649 33bf
00000310: ece8 acbd 7dd0 32be 752f b13d dee7 d1bd
00000320: c767 20be cdf0 b9bc 96a4 963c b9f5 13be
00000330: a2a2 f3b9 d24c 74bd e7d1 6b3c 8fde 42bd
00000340: b90a 5cbc 519d 8d3d d5f3 1b3e 8dd0 573d
00000350: 8c60 a9bd 46a4 aebd 6493 b9bd c2bd 403d
00000360: f838 4c3b b92c 6b3d 5308 0dbc 59af 5dbe
00000370: b651 4ebe 5c55 7f3c 8377 863d ef83 2bbe
00000380: 5d36 77be 40f7 5abe 01ce d7bd d078 cdbc
00000390: 188c 02be 2bf7 86be cb0e 15be 3920 3dbe
000003a0: 1514 253d f3a4 dfbd 33af a23d 055d 74be
000003b0: 292d 24be 6dc4 0abc f8e0 0c3d 4475 3dbc
000003c0: 8c25 523e c942 253d 8f38 d4bd 8ff7 a83d
000003d0: 43a8 c1be d266 4cbd 78c9 e13c ff8b 29bd
000003e0: 0a91 01bf 7238 bb3c b891 64be d84a bbbc
000003f0: de3a 78bd 1f9c d0bd c5f8 d8bd 60cb 40be
0.05006741 0.12028065 -0.11637168 0.17202267 0.31307444 -0.28989246 -0.007096335 -0.19305067
0.12939203 -0.068851024 0.08975049 0.39129743 0.17976785 -0.047214203 0.15574825 -0.023416301
-0.0338938 -0.05372244 0.2677754 0.30662256 0.23369181 -0.038226213 -0.37677914 0.054733947
0.15970406 -0.124222666 0.12734482 -0.24542354 0.19185182 0.12297584 -0.025655786 0.17901331
-0.011685821 0.08980091 -0.021073071 -0.0914266 0.066603236 -0.20681243 0.28263977 0.2694723
-0.101235025 0.1982368 0.10358622 -0.12444389 0.09796964 -0.033877857 -0.18777648 -0.32716075
-0.010394969 0.15591888 -0.3645154 0.38902596 0.26518628 0.48220292 -0.07696343 0.63361067
0.28711438 0.3480951 0.22254826 0.27415377 0.5419631 -0.13665898 0.23245063 -0.018749809
-0.20244254 0.09962181 -0.05958678 -0.048238035 0.6392222 0.13034576 0.06060227 0.3341062
-0.10810862 -0.01900951 -0.09398331 -0.0043499777 0.21916135 0.21931365 -0.3791712 0.04264373
0.17217018 0.23983964 -0.06187526 0.31867912 0.3210503 0.08297225 -0.26686415 0.062432338
-0.18871747 0.18586928 0.19947475 0.13745305 -0.122414574 0.49602485 0.342842 0.13461708
-0.06501043 0.038390037 0.14328547 0.109407224 -0.0051189456 0.07934923 0.19062486 -0.28055972
0.2119835 0.23512699 0.005765252 0.11524446 -0.16494396 0.62226105 0.08552626 0.36712044
-0.08761664 0.37537384 0.22531338 -0.08712836 0.060202107 0.4091877 0.046015088 0.10617662
0.040328573 0.2680933 -0.06457082 0.42554983 0.2045892 0.44794118 0.04582589 -0.18264064
-0.0968466 -0.09564653 0.08872933 0.071666606 -0.10754465 0.0041450784 -0.41389894 -0.12554455
-0.08767854 -0.08819801 -0.18613203 -0.008271308 -0.008211633 -0.1526789 -0.13329719 0.19807845
-0.53511244 0.085785955 -0.29360208 0.087006636 -0.062639005 0.042164158 0.1289722 0.004875664
-0.09910026 -0.29143298 -0.16844064 0.030560572 -0.025414368 -0.3132118 -0.18408373 -0.08061031
-0.18817492 0.015527893 -0.004534722 -0.19197337 -0.058618903 0.051050805 -0.25398996 -0.14196277
0.41115758 -0.15119132 -0.008719663 0.04207363 0.054866035 -0.082333 -0.051189862 0.16215576
-0.105573714 -0.1648573 0.29333118 0.0016348575 -0.011729786 0.1120468 -0.0905482 -0.03760123
-0.06530102 -0.07969548 0.058489542 -0.16888106 -0.04087509 -0.010912992 -0.5337776 -0.15712881
0.18958147 -0.07530362 0.10815921 -0.7003416 -0.08442864 -0.17462344 0.0865163 -0.10249303
-0.15664588 -0.02269783 0.018389028 -0.14449205 -0.00046469743 -0.059643574 0.014393306 -0.04757553
-0.013430291 0.06914771 0.15229733 0.052689124 -0.08270368 -0.085274264 -0.09061316 0.047055967
0.0031161886 0.057415698 -0.008607942 -0.21648921 -0.20148358 0.015584316 0.06565764 -0.16749547
-0.24141832 -0.21383381 -0.10537339 -0.025082022 -0.12748754 -0.2636045 -0.14556424 -0.18469323
0.040302355 -0.109201334 0.07943573 -0.23863609 -0.16032852 -0.008469683 0.034394234 -0.011563603
0.20522135 0.040346894 -0.1036235 0.08250343 -0.37823686 -0.049902745 0.027561888 -0.041393276
-0.5061194 0.022854064 -0.22321212 -0.022862837 -0.060603015 -0.10186028 -0.10594324 -0.18827581

critic.2.bias f4 [128]
00000000: 2e97 5a3f f89b 63be 8157 493f 80b9 533f
00000010: e5a5 1ebe 0c89 423f 962b 573f 49b7 3d3f
00000020: 7447 34be f5af 93be ca13 573f 5b4b 02bf
00000030: cb4c 653f 0382 653f acd3 313f fd63 bf3a
00000040: 5ba3 1bbf 3224 27be a294 3d3f 6d98 2bbf
00000050: 2972 08bc 7f1f 4dbd 3cb1 6f3f 0517 36be
00000060: 419e 673f eed9 443f 876f 6ebe eece 343f
00000070: d99f 0ebe 1267 70bd ed26 eebd 0ead f9be
00000080: 8ff6 4f3f 1cc1 683f e915 89bd 9897 553f
00000090: 178c d2be 6ca6 513f ef7d 08bf 1411 fdbd
000000a0: b8a2 b6bd eab9 75be ecc7 0fbe 567b 44be
000000b0: 212e 493f 4df9 553f 02fb 05be c934 4fbe
000000c0: e6a2 8abc 59ba 89be 7e46 393c 3388 17bf
000000d0: b913 89bd b2c1 3f3f 14f7 8d3d dc33 9cbb
000000e0: e2fc 363f 9b7f 0abf db1a 253f 5c8a 1cbe
000000f0: 6695 97bd 1edb 41bd 5153 9ebd c2a4 35be
00000100: 49c6 3f3f ee4c 593f 19aa 4d3f 146e 493f
00000110: bca9 efbd 5660 e6bd f46f 4e3f 5a4a 80be
00000120: 00b8 5b3f fbce 6dbd d555 633f e368 2f3f
00000130: 3258 94be 62c2 3e3f 7d51 3abf 8a72 683f
00000140: 957f 2d3f 8ec5 31be d340 493f bb30 383f
00000150: 4564 18bf 814a 423f 8181 5f3f 66e2 0bbe
00000160: d689 473f 4d26 5a3f 795a 583f 21c2 33bd
00000170: a73f 633f 4322 09be 74c0 05be 5311 3ebe
00000180: 2d5f d8be 1062 4e3f 7f05 cdbd b3f6 3c3f
00000190: f15c 8bbe 29c6 443f efba 5b3f 4c9b 333f
000001a0: e5d6 f5be c8ea 24be e206 5c3f 9a6f 11bf
000001b0: 1132 77bd f6ec 353f e577 5bbe f022 dabd
000001c0: 00a8 493f b981 603f c5fe dfbd a275 0dbf
000001d0: 69ad 5c3f 39d3 b0bd 52c7 423f e46e 90be
000001e0: a8d8 73be 0823 413f 7630 703c 08cf 523f
000001f0: f94e 3e3f f9d3 293f 3dfa 07be b6d7 0cbe
0.8538693 -0.22227466 0.78649145 0.82704926 -0.15492971 0.75990367 0.8405088 0.74107796
-0.17605382 -0.28845182 0.8401457 -0.50896233 0.895703 0.8965151 0.6946361 0.0014601942
-0.60796136 -0.16322401 0.7405492 -0.6702946 -0.008327999 -0.050078865 0.93629813 -0.17782219
0.9047585 0.76895034 -0.23284732 0.7062825 -0.13928165 -0.058692046 -0.11628518 -0.48764843
0.81235594 0.9091966 -0.06693632 0.8343444 -0.41122505 0.81894565 -0.5331716 -0.12356773
-0.08917755 -0.23996702 -0.14041108 -0.19187674 0.7858601 0.8358353 -0.13084033 -0.2023498
-0.01692338 -0.26899984 0.011308311 -0.591922 -0.06693215 0.7490493 0.06931892 -0.0047669243
0.7147962 -0.5410096 0.64494103 -0.15287155 -0.07401542 -0.047328107 -0.07730735 -0.17738631
0.74911934 0.8488301 0.80337673 0.7868359 -0.11702296 -0.11248843 0.80639577 -0.25056726
0.85827637 -0.05805872 0.88802844 0.6851942 -0.28973538 0.74515355 -0.7278059 0.9079977
0.677728 -0.17360517 0.7861454 0.71949357 -0.59528 0.75894934 0.8730698 -0.13660583
0.77944696 0.8521469 0.8451305 -0.043886308 0.88769 -0.13391976 -0.13061696 -0.18561296
-0.42260113 0.8061838 -0.10010814 0.73813933 -0.27219346 0.7686487 0.85832113 0.7015884
-0.48015514 -0.16105187 0.85948 -0.56810915 -0.06035048 0.710647 -0.21432455 -0.10651195
0.7877197 0.8769794 -0.10937265 -0.5525762 0.862021 -0.086340375 0.7608539 -0.28209603
-0.23813117 0.7544408 0.0146599915 0.82347155 0.7433925 0.6633907 -0.13279052 -0.13754162

critic.4.weight f4 [1, 128]
00000000: 1f61 da3e a1f0 b0be 609e 203f 76d9 163f
00000010: dba8 c1be 6f03 e53e dc87 8f3f c476 f33e
00000020: 5d48 7bbf 1407 a0bf 2d49 d03e d689 20c0
00000030: 1991 e53e 878b c93e d473 093f 809c b0bf
00000040: d814 f0bf 02e4 70bf 9f4b 123f 1bcd c8bf
00000050: 883e 6cbf ef1d 84bf 44d2 a93e 2341 a6be
00000060: 712e fc3e 3e7f b93e 8c1c a3bf 6583 db3e
00000070: 97d8 17bf 14a7 2ebf 0628 a7bf 170a abbf
00000080: 796a 383f 0ffa ba3e 95fc 92bf 15c4 3c3f
00000090: 6f0e fcbf d586 ea3e ec47 56bf e338 12bf
000000a0: bf1b 78bf 1cd2 abbf 7ff3 c4be 9967 50bf
000000b0: f26f c73e f09f e23e e820 7abf 3bcd 56bf
000000c0: 0dff 99bf edfa 17bf 7453 41bf 2f38 dcbf
000000d0: cad5 80bf 891d 233f 8bc8 9fbf 004a 03c0
000000e0: ed9a d63e ca19 8dbf 1c44 143f 1348 5fbf
000000f0: 7c09 36bf 5f54 bcbe f0ca 9ebf c9f7 96bf
00000100: 537e 1c3f afb1 2c3f 651e b23e fc05 243f
00000110: 2250 4bbf 5aa6 9fbf 47ac 283f 2f99 e0bf
00000120: ddd0 253f cb08 a1bf 183d ba3e 7c4b 243f
00000130: 567a 06c0 3d21 e33e 8b71 6abf 4261 d83e
00000140: 553e 223f cfc1 9fbf f87f 183f be49 2f3f
00000150: 597d f6bf ca0b 213f 1ccb c43e ba2b 37bf
00000160: a5b9 003f 95c0 023f 4579 133f 8d8d b2bf
00000170: 02f5 ae3e 2c7a b4be 05b1 cebe dbc2 2fbf
00000180: e2b3 ffbf 79d4 e83e abfe 81bf b029 ed3e
00000190: 6d56 1bbf 4657 ee3e 2ff0 e43e 116c 0d3f
000001a0: 7cc0 fabf 3981 e1be 72c4 963f 0f03 ebbf
000001b0: 6f70 63bf 54d6 d53e 2a29 81bf c6c2 95bf
000001c0: 0f0b d33e d858 0f3f f2ef 67bf fe6d e7bf
000001d0: 3de7 823f 1a36 80bf f424 f03e 7dd3 adbf
000001e0: 79b2 a9bf 5bb9 2c3f b21b bdbf eaf0 c83e
000001f0: 7d7f cb3e 1259 033f b8d3 b8bf e00b f7be
0.42652223 -0.34558585 0.6274166 0.5892557 -0.3782414 0.44729182 1.1213336 0.47551548
-0.9815729 -1.250216 0.4068083 -2.5084128 0.44837263 0.39364263 0.53692365 -1.379776
-1.8756361 -0.9409791 0.5714664 -1.5687593 -0.92282915 -1.0321635 0.33168232 -0.3247157
0.49254182 0.3622989 -1.2743087 0.42873684 -0.59314865 -0.6822369 -1.3059089 -1.3362454
0.72037464 0.36518905 -1.1483332 0.737367 -1.9691905 0.45805994 -0.83703494 -0.5711805
-0.9691734 -1.3423495 -0.38467023 -0.8140808 0.38952595 0.44262648 -0.9770646 -0.83906907
-1.203096 -0.5936726 -0.75517964 -1.7204646 -1.0065243 0.6371694 -1.2483076 -2.0513916
0.41915074 -1.1023495 0.57916427 -0.8721935 -0.7110822 -0.3678312 -1.2405682 -1.1794368
0.61130255 0.67458624 0.34788814 0.6407163 -0.7941915 -1.2472641 0.65887874 -1.7546748
0.64771825 -1.2580808 0.36374736 0.6417768 -2.1012168 0.44361296 -0.915795 0.42261702
0.6337636 -1.2481021 0.59570265 0.68471897 -1.9257003 0.62908614 0.3843621 -0.71551096
0.5028327 0.51075107 0.5760692 -1.3949448 0.341713 -0.3524946 -0.4036943 -0.686567
-1.9976771 0.45474604 -1.0155843 0.46320868 -0.6067875 0.4655096 0.44714496 0.5524302
-1.9589992 -0.44043902 1.17787 -1.8360308 -0.88843435 0.41765082 -1.0090687 -1.1700065
0.41219375 0.5599494 -0.906005 -1.8080442 1.0226818 -1.001651 0.46903193 -1.3580166
-1.325759 0.6747033 -1.4774077 0.39246303 0.39745703 0.51307786 -1.4439611 -0.48251247
