saved_models/best_actor.pth (torch, 81317 bytes, 7 tensors)

log_std f4 [6]
000000 29 5b e4 bf bb 38 dc bf c9 b0 ea bf 03 f1 fd bf
       -1.784032 -1.7204813 -1.83352 -1.9839176
000010 3c 56 0b c0 e2 3c fd bf
       -2.1771383 -1.9784205

actor.0.weight f4 [128, 17]
000000 3a e9 ca be f3 e2 9a 3e e1 9e 7e bd 81 6e 29 3e
       -0.39631063 0.30251274 -0.062163237 0.1654606
000010 16 61 33 3d 2d 43 f8 be 51 6a 16 be 0f 67 43 bd
       0.04379376 -0.4848875 -0.14688994 -0.047705706
000020 28 e4 c6 3d c7 9b e6 be 20 10 9d 3e 53 48 77 3d
       0.09711486 -0.45040724 0.30676365 0.060371708
000030 f1 4a cb 3d 8a 3e 56 3e fd ea 34 be 80 c0 42 be
       0.09926403 0.20922294 -0.17667766 -0.19018745
000040 9e 45 aa 3d 4b e3 cc bd 88 5b ea 3c 66 8a a3 be
       0.0831406 -0.1000429 0.028608099 -0.31941527
000050 d7 b7 58 3e 50 43 97 be 06 bd 62 be e3 f9 33 3d
       0.2116388 -0.29543543 -0.22142419 0.043939482
000060 00 8e 19 bf 3b 06 bd 3d 1d cb c8 bc 36 3a c9 bc
       -0.599823 0.09229704 -0.024510914 -0.02456389
000070 77 40 08 bc 03 26 d8 bd 9c 09 01 be 46 cf 81 3e
       -0.008316151 -0.10554125 -0.12601322 0.2535345
000080 10 48 96 be a0 59 8a bd b8 cb 44 be ef 74 cd 3c
       -0.29351854 -0.06755376 -0.19218338 0.025080172
000090 ee cc 94 3e c7 f3 52 be e3 57 9b 3b d3 23 fb 3e
       0.290626 -0.20600806 0.0047407015 0.4905077
0000a0 8d ab 85 3e bd d6 8c 3d 4f 93 90 3c 56 f6 d9 be
       0.26107445 0.068768956 0.017648367 -0.42570752
0000b0 5d 21 16 3e c2 fa 07 be a3 73 1d 3e 4b 12 36 3e
       0.14661165 -0.1327925 0.15376143 0.17780416
0000c0 1f 6f a8 3e 83 9e b3 bd 6d 5d 0e 3e e6 31 07 3e
       0.3289728 -0.08770468 0.13902827 0.13202628
0000d0 d8 df 1a be a3 c6 ee be b9 50 9c be 5e 9c f1 3e
       -0.15124452 -0.46635923 -0.30530336 0.4718961
0000e0 99 f2 6f be bf e3 d7 bd 51 e6 c9 be 01 b2 39 be
       -0.23432387 -0.10541486 -0.3943353 -0.1813431
0000f0 0d cc a7 3e 4d 06 0c be 15 9c f4 3d 94 0d d9 3c
       0.32772866 -0.13674279 0.11943833 0.026495732
000100 b2 0a 15 be 3d a9 b6 3d 27 f0 3d 3e 05 c0 12 3e
       -0.14554861 0.089189984 0.18548642 0.14331062
000110 35 67 07 be 3b 0e ab be 98 d4 23 be 1c 74 fe be
       -0.13222964 -0.33409294 -0.15999067 -0.4969796
000120 d7 b0 e4 bd 96 a6 63 be 34 f2 2b be 0c 99 af 3e
       -0.11166542 -0.22231516 -0.16791612 0.34296453
000130 b9 80 c3 3d 79 b0 a6 3e 31 0a f3 bd e7 1d 34 3d
       0.09546036 0.32556513 -0.11867178 0.04397383
000140 f2 51 c0 3b ea 93 8b bd ab d8 81 be ed 87 19 3e
       0.0058691436 -0.06815322 -0.25360617 0.14993258
000150 b4 3f 84 bd af 99 d6 bd 90 f9 9d 3e c2 d8 d5 3e
       -0.06457463 -0.104785316 0.30854464 0.41766936
000160 9b 4c e9 3d fb 0a 8c be d3 a6 0f 3d 07 f6 7f bb
       0.113915645 -0.27352127 0.035071205 -0.0039056556
000170 b0 a7 42 3e 07 c1 e5 bd 80 a2 e6 be 7b df a8 3e
       0.1900928 -0.11218458 -0.45045853 0.32983002
000180 0e dd 72 bd a0 84 34 be a9 b6 4a 3c 44 c7 b0 be
       -0.059292845 -0.17628717 0.012372651 -0.34527028
000190 81 bb 3b 3d 62 66 09 3e e9 00 b1 3d 06 0e 6b be
       0.045833115 0.13417962 0.08642752 -0.22954568
0001a0 8a cd 31 3e 84 f6 8e bc 4f 91 90 3e 9d d6 97 3e
       0.17363563 -0.017451532 0.28235862 0.29655924
0001b0 fd 58 62 3e 40 46 05 bf 82 ab 78 be b2 03 8d 3e
       0.22104259 -0.5206032 -0.24284175 0.27541882
0001c0 89 74 b7 be 76 0d e9 bd ec 77 e8 bd 1c a0 00 be
       -0.35831097 -0.113795206 -0.11350998 -0.12561077
0001d0 3d 36 16 3e 6e fb d9 3e 57 1d 53 3e 01 6a 66 bd
       0.14669128 0.42574638 0.20616661 -0.056253437
0001e0 d6 60 4b 3e 76 16 60 bd 14 19 03 3e 9f c3 b6 be
       0.19861159 -0.05470892 0.12802535 -0.35696122
0001f0 1f d6 86 bb 4f d0 04 be e2 d7 5e be e9 b5 0f bd
       -0.0041148807 -0.12970088 -0.2176204 -0.035085592
000200 14 f4 c5 be 80 84 e7 3c e4 83 41 3e a3 cc c1 3d
       -0.3866278 0.028261423 0.18897969 0.094628595
000210 a6 12 59 3e 0f 8b e0 3d 86 60 04 3d 17 c6 f4 3c
       0.2119852 0.10964023 0.032318614 0.029879613
000220 a4 cb 7a bd ab 7d 80 be 55 4d f4 3d db 34 bd be
       -0.061229363 -0.25095877 0.119288124 -0.36954388
000230 d7 d7 60 3e 81 f4 d2 3e 01 c3 0b be 89 04 53 be
       0.21957336 0.41202167 -0.13648607 -0.20607199
000240 38 4d df 3d 95 5f bb bc 6f 4f 7d bd fa 25 da bd
       0.109034 -0.022872726 -0.061843332 -0.10651775
000250 50 73 47 3e a7 ca 8c bd 79 cd c3 3e 80 2b 87 be
       0.19477582 -0.0687459 0.382427 -0.26400375
000260 45 cb 51 bd 19 9d cf bd 2d 05 44 3d 6b 90 b6 bd
       -0.051219244 -0.10137386 0.0478565 -0.08914264
000270 17 c3 94 be f1 cc 89 bc 13 3e 26 3d 31 53 c7 3e
       -0.29055092 -0.016821356 0.040586542 0.38930658
000280 ff 43 c0 bd 8c 7f 64 be d0 1a 7b be 8a a4 a2 bd
       -0.09387969 -0.2231428 -0.24521947 -0.079415396
000290 ed 85 2c 3e 20 96 a7 be b9 95 1b 3d 74 25 ec bd
       0.16847964 -0.32731724 0.037984584 -0.11530581
0002a0 3f 45 70 be a5 80 40 be d2 7f 13 be da 72 d5 3e
       -0.23463915 -0.18799074 -0.14404228 0.41689187
0002b0 a2 ed 0f 3c 7d 24 ac 3d 91 dd 3f 3e e8 5a 18 be
       0.008784683 0.08405397 0.18736865 -0.14878428
0002c0 83 ca 09 bf 2b 92 3d 3e 6e 41 d4 3e 7a 73 fb 3e
       -0.53824633 0.1851279 0.4145617 0.4911154
0002d0 88 8d d1 3d 8e ed ef bd 4a ac ec bd 6e 52 5d bd
       0.10232073 -0.11715232 -0.11556299 -0.05403369
0002e0 55 4f 3b be a8 2c 16 be 01 03 f5 3a 32 09 6f bd
       -0.18291982 -0.14665473 0.0018692912 -0.05835838
0002f0 1a 1f dd be 95 f0 c4 be a8 a0 a0 be 68 d5 a2 3e
       -0.4318779 -0.384648 -0.3137257 0.3180344
000300 e5 53 e1 3d 57 12 c7 bc 70 3d c0 3e 99 37 aa be
       0.1100233 -0.024300737 0.37546873 -0.33245543
000310 4c 0e 59 be b0 d6 04 3d c5 50 40 be 44 97 0d 3e
       -0.2119686 0.032431304 -0.18780811 0.13827235
000320 0d d6 05 3e b1 ce 86 3e 54 9b 9c bd e0 3a 86 bd
       0.13069935 0.26329568 -0.07646814 -0.06554198
000330 4c a7 20 3e 6e ce b7 be 8d dc 92 3e 40 ea 17 bd
       0.15688819 -0.3589968 0.28683892 -0.037088633
000340 ea 98 aa be 55 ca c4 3e df 94 8a bc ca 75 58 be
       -0.3331979 0.38435617 -0.01691669 -0.21138683
000350 04 e6 d9 be 94 e1 05 3e 2f 05 2e 3b bd f7 c2 bd
       -0.425583 0.13074332 0.0026553383 -0.095199086
000360 58 87 70 bd 72 df 0f 3e 9e df cc 3e f5 08 99 3d
       -0.058722824 0.14050081 0.40014356 0.074724115
000370 18 4f 06 b9 5a 5e 86 be a2 52 d4 3d f7 05 70 3e
       -0.000128087 -0.2624386 0.103673235 0.23439775
000380 e7 47 99 bd a3 b9 e1 be fe 28 38 3e db 6b 1b 3f
       -0.074844174 -0.44086942 0.17984387 0.6071145
000390 d0 68 87 be ad 29 6d 3e 65 f3 13 3c d5 31 98 be
       -0.26447153 0.2316043 0.009030198 -0.2972552
0003a0 97 b8 77 3d 53 04 7a 3e a6 c2 64 3e 9a 1b 68 be
       0.060478773 0.24415712 0.22339877 -0.22666779
0003b0 26 44 6c be 3d 5b 2f bc be 06 f9 3c ad 51 ab be
       -0.23072872 -0.010702905 0.030398723 -0.3346075
0003c0 2f b5 26 3e dd 89 df 3d bf e8 08 bd da c2 39 3e
       0.16280054 0.10914967 -0.03342509 0.18140736
0003d0 7c c0 c1 3e 2c 5d 3c bf 1b 6e 38 3b 56 57 ed 3e
       0.37842166 -0.7357967 0.00281418 0.46355695
0003e0 8e 34 1f be b9 25 96 bc d9 f9 82 bd 6f e3 34 3d
       -0.15547392 -0.018328534 -0.06395311 0.04416221
0003f0 86 c8 f6 3c 18 26 13 be d7 a9 ec 3d 08 ab 3f 3e
       0.030124914 -0.1437 0.11555832 0.18717587

actor.0.bias f4 [128]
000000 ce 91 a1 be 94 de 25 be 2e 2b 9f be 16 4b 17 3e
       -0.31556553 -0.16198188 -0.3108763 0.14774737
000010 b7 78 a5 be 5d dc c3 bd 9b b4 1d bd e3 53 f8 3c
       -0.3231866 -0.09563515 -0.038502317 0.030313438
000020 68 0b e2 3d d9 ee 41 be 1a f2 2f be 68 55 c2 3d
       0.11037332 -0.1893877 -0.17182198 0.09488946
000030 03 24 af bd bc 07 3a be 3e ce e8 bd 60 91 73 3d
       -0.085517906 -0.18167013 -0.113674626 0.059464812
000040 b8 5e b2 be 11 22 5c bc c9 01 07 3e e8 7b 96 be
       -0.3483789 -0.013435856 0.13184275 -0.29391408
000050 70 ce 7e 3d 66 bf 67 be ca af 7a be af b1 88 be
       0.062208593 -0.22631606 -0.2448112 -0.26698062
000060 55 8e f0 bd 8c 7b 84 be 9f 3c ae 3d b2 30 98 be
       -0.11745898 -0.2587551 0.08507656 -0.29724652
000070 e3 58 90 3e 9d d9 79 be 86 03 a5 be 1d f4 40 3d
       0.28192815 -0.24399419 -0.3222925 0.047107805
000080 21 ef 55 3e 5e 04 a2 3d f6 e6 84 be 2b b9 60 bd
       0.20892002 0.07910989 -0.2595746 -0.05486409
000090 ec 0e 83 3c d2 d6 32 be 56 a0 99 be 26 be 86 be
       0.015998326 -0.1746476 -0.3000514 -0.26316947
0000a0 6c 16 00 bf 86 d4 02 3e 08 79 81 bc 1a 94 82 be
       -0.50034213 0.12776384 -0.015804783 -0.25503618
0000b0 0a 4b 5f 3d 11 0c a3 3d a8 81 1d bd c2 0f 80 3d
       0.054514922 0.07961286 -0.038453728 0.062530056
0000c0 42 39 25 be 79 6f fc bd 91 bf cb bd 07 03 16 be
       -0.16135123 -0.12325949 -0.09948648 -0.14649592
0000d0 32 13 f8 be 0d 68 82 bd 70 2a 89 be ab 8a 61 be
       -0.48452145 -0.06367502 -0.2679019 -0.22025554
0000e0 c4 d8 5a be 31 41 0e 3d ac f1 a2 be b1 83 35 3e
       -0.21371752 0.03473014 -0.31825006 0.17726018
0000f0 c2 e7 12 be e7 28 3d be 4e 24 23 be 99 7c 92 be
       -0.14346221 -0.18472634 -0.15931818 -0.28610685
000100 0f fe cf 3d f4 98 ac be 0d 5a a8 b7 0e 8c 9a be
       0.1015588 -0.33710444 -2.0069094e-05 -0.30184978
000110 aa e4 28 be 10 18 a5 bc d2 de 2c be 8b bc b0 be
       -0.16493478 -0.020153075 -0.16881874 -0.34518847
000120 fb ff e6 bd 46 79 0a be 4d de 69 be 33 bc 04 3e
       -0.11279293 -0.13522825 -0.22838707 0.12962417
000130 8a 28 2a be 6b e6 cd 3d c7 bc 7f be f2 9f c4 3d
       -0.16617027 0.10053714 -0.24974357 0.0960082
000140 df 25 53 3e a5 fd 60 be 3a 19 97 bd 26 c4 30 3e
       0.20619915 -0.21971758 -0.073778585 0.17262325
000150 87 9e 34 3e 1d 52 6e be 4f ed 5d be 50 f5 89 bd
       0.17638598 -0.23273511 -0.21672557 -0.06736243
000160 fd a9 ee be 9e 0b 43 be 14 9e 9e bd 22 62 23 be
       -0.46614066 -0.190474 -0.07744995 -0.15955403
000170 21 99 13 be 6d d0 1e bc 5b d4 80 be 6e 9b 59 3e
       -0.14413883 -0.009693247 -0.25162014 0.21250698
000180 b2 09 80 be 7b 49 94 be a2 42 1c 3e 4f 1e 92 bd
       -0.25007397 -0.2896231 0.15259793 -0.07134687
000190 9f 43 8a 3d af 9c a3 3e 96 3a cd 3c a4 aa 4c 3d
       0.06751179 0.31955478 0.02505235 0.049967423
0001a0 aa 16 3b 3d d6 dd 96 be 8a 70 1c be 79 09 7a be
       0.04567591 -0.29466122 -0.15277305 -0.24417676
0001b0 9e 8d 23 3e 91 22 3d be dd 1a f5 3c 35 d1 8f 3b
       0.15971991 -0.18470217 0.029920036 0.004388953
0001c0 be 33 0a 3e b0 eb 82 be 37 06 e1 3d eb 04 c6 be
       0.134963 -0.2557044 0.109875135 -0.38675627
0001d0 83 98 6a be d7 ca 8f be 89 3e 88 3e 71 e1 e5 3c
       -0.22909741 -0.28084442 0.2661021 0.0280616
0001e0 59 4b 17 3d 75 0c 9d 3d a4 27 f5 bc 9c 62 55 be
       0.03693709 0.076683916 -0.029926129 -0.20838398
0001f0 f0 c2 41 be 39 c9 a7 bc 51 89 ce bd 27 26 3c 3d
       -0.18922019 -0.020481693 -0.10084785 0.045934822

actor.2.weight f4 [128, 128]
000000 ea a1 11 3b 7f 87 28 bd f6 4a 73 bd 7c c4 17 3e
       0.0022221752 -0.041144844 -0.05939766 0.14821047
000010 13 90 ae 3d 30 d2 6c be 32 85 af 3c 74 1f 85 3d
       0.08523574 -0.23127055 0.021425817 0.0650014
000020 a6 1b 28 bd 8c 63 27 be ee 1a 9e 3b 08 fd d8 bd
       -0.041041993 -0.16346568 0.0048249876 -0.10595137
000030 04 c5 7c be 35 5d f8 bd 95 b2 d7 3d fa 7f 24 be
       -0.2468453 -0.12127153 0.10532109 -0.16064444
000040 ea 63 13 bd d8 0c e1 ba 1c 78 80 bd a8 46 d8 bd
       -0.035983957 -0.0017169965 -0.06272909 -0.105603516
000050 1b 85 86 bd ac 13 dd bd df c9 a1 3d 62 30 81 3d
       -0.065683566 -0.10794768 0.07899832 0.063080564
000060 f8 9f 0d bc 7a 89 79 3d 6c c2 8e be 51 4e cd be
       -0.008644097 0.060922123 -0.27882707 -0.40098813
000070 ed 6a 56 be 85 c5 3b be 11 0a ab bd 19 0a 47 3c
       -0.20939226 -0.18337066 -0.083515294 0.012148404
000080 5e 41 40 bd c1 89 ab bd 78 d7 25 bd 8c e6 a6 3c
       -0.04693734 -0.08375884 -0.04048869 0.020373605
000090 1c 05 45 3e 8d ce bf be 15 ac 01 be 58 47 3d be
       0.1924023 -0.37462273 -0.126633 -0.18484247
0000a0 29 e1 89 3d 65 a6 68 3c 5c 91 8a bd 1b 11 a1 bd
       0.06732399 0.014199828 -0.06766006 -0.07864591
0000b0 de 47 89 bb 63 3f 31 bd 8d 16 0f 3e 5e e6 38 3d
       -0.0041894754 -0.04327334 0.13973446 0.04514157
0000c0 1b bb 82 be ce d9 e9 bd 14 9e 5a be 14 9b e4 3d
       -0.25533375 -0.11418496 -0.21349365 0.11162391
0000d0 22 e7 3c be be 9c fc 3c b3 d5 fe 3d 02 81 18 be
       -0.18447545 0.03083646 0.12443104 -0.14892963
0000e0 91 0a 3a be d7 c7 40 3c 55 6a 2d be 2c 4e 6e be
       -0.18168093 0.0117663955 -0.16935094 -0.23272008
0000f0 e9 88 27 3e f0 54 d6 3d f7 c8 ef 3c e4 1b 52 3d
       0.16360821 0.10465419 0.029270632 0.05129613
000100 61 70 ad bd c9 78 3a bd 5c e0 be be 83 5f 29 be
       -0.084687 -0.045525346 -0.37280548 -0.16540341
000110 6c 9a 8f be 13 a9 37 3e 0f 9b 1a 3e 36 ac 58 bb
       -0.28047502 0.1793559 0.15098213 -0.003306163
000120 a3 33 dc bd da 13 a9 3d e4 1b 80 bd 1f e7 ea 3d
       -0.107520364 0.082557395 -0.0625532 0.11469864
000130 0e 0d 2d bd 2f 41 4c bd cc 11 00 be 92 07 15 3e
       -0.042248778 -0.04986685 -0.12506789 0.14553669
000140 e0 10 18 3c 33 14 a5 bd 22 92 9b bd 6c 87 c2 bd
       0.009281367 -0.08060493 -0.07596232 -0.09498486
000150 01 4c 8e bc fd 9b e6 bd 85 e4 d6 bd d4 9d b8 bd
       -0.017370226 -0.11260221 -0.104928054 -0.09014478
000160 69 0b fd 3d 0b 7d d2 3d 2a 94 b7 bd 16 02 e4 bd
       0.12355692 0.10277756 -0.08963807 -0.1113321
000170 2c 32 53 3e 91 c3 d9 bc 6a 59 9b bd a2 5c b6 3d
       0.20624608 -0.026582511 -0.07585414 0.08904387
000180 12 5b 87 be cf d7 ed 3d 7f 00 3f be a9 48 79 be
       -0.2643667 0.11613428 -0.18652533 -0.24344124
000190 fb cd be 3c 28 87 3b b9 21 ce 06 be 26 8c 26 bb
       0.023291579 -0.0001788406 -0.1316457 -0.0025413125
0001a0 54 20 15 3d 3c f9 c9 bc 92 cf bc 3d f8 3b bc bd
       0.036407784 -0.024654977 0.092192784 -0.09191126
0001b0 ac 06 d2 3c fc 15 8c bc a6 cc 20 bd d9 3c df bd
       0.025637947 -0.017100327 -0.039257668 -0.10900278
0001c0 82 ce 96 be 4d 14 b9 3c 8d b6 71 3e d9 87 d6 bd
       -0.29454428 0.022592688 0.23604794 -0.1047513
0001d0 35 0c 2b be ac e4 02 3e 71 6f 83 be 50 75 93 bd
       -0.16703875 0.12782544 -0.2567096 -0.0720011
0001e0 73 a7 e8 bd d4 c6 3b 3d 0a 9b 99 bd 93 ba ab 3d
       -0.113600634 0.045843914 -0.075002745 0.083851956
0001f0 7e 5d 81 be 89 70 64 be 4e 14 73 3c 27 92 f6 bd
       -0.2526664 -0.22308554 0.014836384 -0.12039595
000200 fb 95 11 be 9d a2 7e be 1b f7 4b be 47 8c d3 bd
       -0.1421737 -0.2486672 -0.19918482 -0.1032949
000210 50 4e 8c bd e8 4d 26 bd 03 c6 11 bd 90 0e 7e be
       -0.068508744 -0.04060164 -0.03558923 -0.24810243
000220 4e d9 49 be 13 fc 86 3d 95 c9 8a 3d a9 b8 d0 be
       -0.19711801 0.06591048 0.0677673 -0.40765885
000230 c9 c6 ad be 41 94 ad be 1f 66 2a bb 8e 6c 4f bd
       -0.33940724 -0.3390217 -0.002600081 -0.050640635
000240 07 6e 19 bd 60 1b 8a be 74 56 d5 3d 75 d1 0e be
       -0.037458446 -0.2697401 0.1041688 -0.13947089
000250 82 ab 1a be 00 36 bd bd 9d 9c c5 be b0 16 fc 3c
       -0.15104488 -0.09238815 -0.3859605 0.030772537
000260 5f 23 c8 bc 0b 88 e4 ba d8 96 1e 3d 1d bb 8b bc
       -0.024430929 -0.0017435563 0.038718075 -0.017056996
000270 bc 07 ee bd 02 d8 1c bf 62 be cb bc f2 0f f8 bd
       -0.11622569 -0.612671 -0.024871055 -0.12112416
000280 5b 17 4c 3c e2 26 7b be 6c ce 9c bd e9 e6 86 3c
       0.01245674 -0.24526551 -0.07656559 0.016467528
000290 d9 38 85 bd 05 c8 46 bc 74 55 94 be 7d 1d e9 3c
       -0.065049835 -0.012132649 -0.28971446 0.028456444
0002a0 3f db 36 3d 55 4c d5 3a d5 02 cd bd 63 1e 78 be
       0.044642683 0.0016273359 -0.10010306 -0.24230342
0002b0 3c d7 0f be 1f 9c 90 be b6 11 c2 3d f3 13 92 be
       -0.14046949 -0.2824411 0.09476034 -0.28530845
0002c0 17 23 50 3d b3 52 23 be c0 fa 91 bd 2a 7a 46 bd
       0.050814714 -0.15949516 -0.07127905 -0.04845635
0002d0 b0 41 27 be f0 0c b8 3d 6f 27 41 3c 70 83 b4 3d
       -0.16333652 0.08986843 0.011789187 0.08814132
0002e0 a7 bc c5 3d ac 14 05 3e b9 77 11 bd ff 83 22 bd
       0.09655123 0.12996167 -0.035514567 -0.039676663
0002f0 0b d7 77 bd 30 12 80 3c 3b 68 09 3c 31 bd 15 3e
       -0.060507815 0.015633672 0.008386667 0.14622952
000300 eb b1 9c 3d 76 72 8a 3e b7 f4 1a be 5e 40 0d be
       0.07651123 0.27040452 -0.15132414 -0.13794085
000310 5e 2a 8f bd 72 5f a7 3d 3a 70 df 3d c4 96 3e bd
       -0.06990503 0.081725016 0.109100774 -0.0465305
000320 3a f1 50 be 4d 64 a8 be ab 59 3b be 70 b0 e3 3d
       -0.2040452 -0.32889023 -0.18295924 0.11117637
000330 bb a1 d0 bd 4d 76 76 bd 9b 79 46 be 9d b8 8c 3c
       -0.10187098 -0.060171414 -0.19382326 0.017177874
000340 72 58 c9 be 0b 16 8d 3d 34 d2 24 be 2f 08 c8 3d
       -0.3932529 0.0688897 -0.16095811 0.09767186
000350 68 1d 76 bd 0b 7a 5e be ac e3 9c bc 46 25 34 bd
       -0.060086638 -0.21726243 -0.019151531 -0.04398086
000360 8e 1a 07 bd 08 09 0c bd 31 b9 23 bd 0b ab dd 3c
       -0.03298431 -0.0341883 -0.039971534 0.027059099
000370 2d 7d e4 3c b0 b4 04 be 4b f7 a0 be 54 79 04 bd
       0.02789172 -0.12959552 -0.3143867 -0.03234227
000380 9b 6c db bd bf ce 8e be 19 f2 c6 bd 50 0e d6 bd
       -0.10714074 -0.2789211 -0.09714145 -0.10451949
000390 4a 6f 18 bd 4b af 52 3d 20 cf e6 bd e7 df 95 3c
       -0.03721551 0.051436704 -0.11269975 0.018295242
0003a0 b6 fe e4 3d fd 3f b6 bb fc 57 b0 3d e8 a0 97 bc
       0.11181395 -0.005561827 0.08610532 -0.018509343
0003b0 11 19 7a 3d 56 e3 11 be aa 83 bb 3d f8 d8 22 3d
       0.06105906 -0.14246878 0.09155972 0.0397577
0003c0 0d 2f 68 be aa 86 9c 3d 4e d2 4a 3e 69 60 0c be
       -0.22674198 0.07642873 0.19806787 -0.13708653
0003d0 01 17 35 bd f7 32 d2 3d 8e e0 6e be 1b c0 89 3d
       -0.04421139 0.10263627 -0.23327848 0.06726094
0003e0 8b 81 0b be 93 bd 6d bd 69 ab 3c 3e 0f f7 14 be
       -0.13623635 -0.05804212 0.18424763 -0.1454737
0003f0 a9 e3 81 3d df 67 68 3c f8 62 16 3d 05 3f 79 3d
       0.06342251 0.014184921 0.036715478 0.060851116

actor.2.bias f4 [128]
000000 9e 18 28 bd 4d a7 c4 3d 42 c2 31 bd 99 1e 9d bd
       -0.0410391 0.096022226 -0.04339815 -0.07671852
000010 84 16 46 bd 81 44 1d be 95 09 ee bc 1c 7a 22 be
       -0.048361316 -0.15358163 -0.029057303 -0.15866894
000020 05 cb 50 bd b7 2f 9a bb de c7 09 be 66 66 ba bd
       -0.050974865 -0.004705395 -0.1345515 -0.09101562
000030 68 25 6e 3e 8e 73 b4 3d c1 4b 80 bd 8c de 01 3e
       0.23256457 0.08811103 -0.06264449 0.12682551
000040 e0 a6 33 be 42 b2 86 3c 52 21 8a bd e1 02 93 bd
       -0.17544127 0.016442422 -0.067446366 -0.071782835
000050 aa 5b 19 3d 68 e3 86 3e e9 68 e6 bd 93 10 44 3a
       0.037440933 0.26345372 -0.11250479 0.00074792764
000060 fb bc 96 bd 31 a2 4e ba 7f 1b 16 3e 2c b6 54 3e
       -0.07360264 -0.0007882445 0.14658926 0.20772618
000070 71 10 4e bd 75 9d 11 bd 82 b3 16 3e ec a8 b7 bc
       -0.05030865 -0.035550553 0.14716914 -0.022419415
000080 bc db 78 bd 5f 8b 3a 3e f6 30 e0 bd 96 6f 9a 3d
       -0.06075643 0.18217228 -0.109468386 0.075408146
000090 cd be 67 3c c9 a7 44 bd 10 8d f9 bd 65 dc 2b be
       0.014144612 -0.048011575 -0.12185109 -0.16783293
0000a0 81 d7 c3 bd 90 31 23 be 31 a2 b8 3d a7 43 20 3d
       -0.095625885 -0.15936875 0.090153106 0.03912702
0000b0 29 cf 71 be 20 90 ca 3d b6 51 76 be 06 bd 2d be
       -0.23614182 0.09890771 -0.24054608 -0.16966638
0000c0 10 32 00 3b 73 56 1c 3e 82 55 bf bd 07 46 ad 3d
       0.001956109 0.15267353 -0.09342481 0.08460622
0000d0 45 74 fc bd db dc 59 3e 7e 70 e5 bd 67 20 1b 3d
       -0.12326864 0.21275656 -0.11203097 0.0378727
0000e0 bb 47 ca bd 17 32 76 3e 60 48 bf 3d 3e 15 ff bc
       -0.09876963 0.24042545 0.09339976 -0.031138059
0000f0 53 45 41 3e d1 c9 01 bd c5 b7 9d 3d 2a c5 70 bd
       0.18874101 -0.031686608 0.07701067 -0.05878178
000100 26 cb 46 3e f0 84 60 3b 9e 94 0b be bd 42 cc bc
       0.19413432 0.0034258924 -0.13630912 -0.024934167
000110 aa 48 e1 3c 9a aa 45 bd 1e e1 44 3e 0c 5b dc bc
       0.02750047 -0.0482584 0.192265 -0.026898883
000120 3b d6 ad 3c 26 b6 b4 bd 04 85 17 3e 64 4c c4 3c
       0.021220317 -0.088238046 0.14796835 0.023962207
000130 5b 6f 5d be b0 39 54 bd 07 d7 27 be 9d 75 21 3e
       -0.2162451 -0.051812828 -0.1639062 0.15767522
000140 20 4c 0b 3d d1 df 04 3e 78 f0 53 bd 93 39 45 3c
       0.034008145 0.12976004 -0.051743 0.012037653
000150 89 7e 05 be 07 eb 26 be 3b f7 0c be 47 48 55 be
       -0.1303655 -0.16300593 -0.13766186 -0.20828353
000160 6c 07 fb 3c a5 7c 8d 3b 40 f2 80 3d 0b 75 24 3e
       0.030643187 0.0043178373 0.062962055 0.16060273
000170 6e d2 02 3e b8 59 bb 3d 84 80 0c be bf fb df bd
       0.12775585 0.09147972 -0.137209 -0.10936689
000180 25 1d 2c 3d 14 0a 99 bd fa cd 85 bc 02 26 80 3e
       0.042019982 -0.074726254 -0.016333569 0.25028998
000190 00 1c 02 bc cf b8 4f 3d 59 10 d7 bd a2 26 50 bd
       -0.007941246 0.050713357 -0.10501165 -0.050818093
0001a0 24 73 8c 3d 7f e0 54 bd 31 b4 69 bd 6a 58 48 3e
       0.06857899 -0.05197191 -0.05705661 0.19564977
0001b0 54 89 a5 bd 9d 2c 0b be a3 9a 17 bd 31 eb a4 3c
       -0.08082834 -0.13591237 -0.037012707 0.02013168
0001c0 6d e0 aa be 81 d0 b7 3d 78 b7 ae bb 7f 4c 06 bd
       -0.33374348 0.08975316 -0.00533193 -0.032787796
0001d0 09 d5 16 bd 15 7d b8 bc 8d 37 08 3d f8 15 d7 bd
       -0.03682426 -0.022520581 0.033256102 -0.10502237
0001e0 e5 5c 87 bc 60 cb ea bd d4 df da bc e2 3c bc bd
       -0.016523788 -0.11464572 -0.026718058 -0.091913
0001f0 68 8b 05 be a8 40 11 3e cd 72 20 3d 19 66 3a 3a
       -0.1304146 0.1418482 0.039171983 0.00071105507

mean.weight f4 [6, 128]
000000 ee 29 f1 3d 4f 38 d8 bd 1a d6 18 be 79 f9 4e be
       0.117755756 -0.10557615 -0.14925423 -0.20212354
000010 8e 04 eb bd fd ae 8f bd 92 d1 47 bd 05 71 4e 3d
       -0.11475478 -0.07015798 -0.048783846 0.050400753
000020 51 95 5e 3c ce 92 08 bc 98 bf f6 bc fd b5 a9 3d
       0.0135854045 -0.008335782 -0.030120656 0.08286665
000030 2a 1a b3 3e 69 fc e7 3d c6 75 c5 bd 52 71 b1 3d
       0.349809 0.1132744 -0.09641604 0.08664192
000040 dc 6a 63 bb c3 fe 1c 3e 87 c5 15 3d a3 05 46 be
       -0.0034701144 0.15331559 0.03656533 -0.19338088
000050 8e d6 51 bd 1d f3 76 3d c5 1e a6 bd 46 4a 0e be
       -0.051230006 0.060290445 -0.081113376 -0.1389552
000060 81 4e af 3d b7 9b 70 3e 80 2e 32 3c 32 75 45 3e
       0.08559895 0.234969 0.010875344 0.19282988
000070 26 7e 47 be 8c f2 14 3c 6c 55 bc 3d 82 88 87 3c
       -0.19481716 0.009091031 0.091959804 0.016544584
000080 8f 8e 18 be a8 87 17 3e 8b 5c 95 bd 3b 59 42 3d
       -0.14898132 0.14797843 -0.07293042 0.047448378
000090 b8 df 29 3e 48 48 ef bd ff 9c 1d be bb d9 80 be
       0.16589248 -0.116837084 -0.1539192 -0.25166115
0000a0 e6 b2 1a be 35 7a 8a 3c 4f e9 6c 3e 57 3b f2 3d
       -0.15107307 0.016903976 0.23135875 0.118277244
0000b0 57 cf 66 be c9 f2 d6 bc 43 ff d7 3d 9e 37 c0 3d
       -0.22540031 -0.026238816 0.10546734 0.09385608
0000c0 d0 9a 7b 3c 12 23 00 3c e9 6b 51 be db 88 41 3d
       0.015356734 0.007820861 -0.2045132 0.047249656
0000d0 39 b7 d2 3c 30 fa 09 3e 8f f1 c3 bd 57 94 fc 3c
       0.025722133 0.13474345 -0.09567558 0.030832453
0000e0 20 fb 3d 3e 2d cd a2 3e 3b 12 50 be 23 61 da 3d
       0.18552828 0.31797162 -0.20319454 0.106630586
0000f0 d8 9e 80 3d 72 2d 6f bc 2c 19 03 3e 62 f3 2e 3e
       0.06280297 -0.014598237 0.12802571 0.1708503
000100 07 dc 0b 3d 0f a2 22 3b f7 eb 64 ba 49 bb 05 be
       0.03414538 0.0024815833 -0.0008732671 -0.13059725
000110 4c e5 d7 ba 0e c7 ad 3c 79 30 46 bd f2 19 3c be
       -0.0016471534 0.02121308 -0.04838607 -0.18369272
000120 c1 ac 92 3d dd 18 6f bc 89 e0 20 3e 79 e7 6a bc
       0.071618564 -0.01459333 0.15710653 -0.014337414
000130 45 c5 f6 bd 0d dc 88 bd c2 fa a5 bd 25 01 ad bd
       -0.12049345 -0.06682596 -0.08104469 -0.08447484
000140 12 03 24 be 4e 14 47 3e 83 8d a4 3b fa a1 06 3d
       -0.16016796 0.1944134 0.0050217523 0.032869317
000150 08 b5 d4 bc 37 71 0b bd 5e ad 96 3b 22 2b a2 be
       -0.025965229 -0.034043517 0.0045983037 -0.31673533
000160 3e 17 b1 3e 6f 3b 58 3e f5 b2 7c 3e 57 a9 ae b8
       0.34588045 0.21116422 0.24677642 -8.3285086e-05
000170 56 b7 c2 3e ac f4 ee 3d 7f 95 8a bd b4 d9 b0 3d
       0.380305 0.11667761 -0.06766795 0.086352736
000180 6d ae ab bd a5 f7 48 be 9e 86 8a bd a4 92 52 3d
       -0.083828785 -0.19625719 -0.067639574 0.05140938
000190 3b 03 a6 bd 96 8c 0f 3d a2 ec df 3d 6f bf d3 3c
       -0.08106085 0.035046183 0.10933806 0.025848119
0001a0 87 00 56 ba 33 6c f4 3d e1 8b 97 3d 4c 1a 8b 3e
       -0.0008163531 0.119347 0.07399727 0.271685
0001b0 8d 41 1d 3e 72 19 5a 3d 4c 40 71 be f3 9d 74 3e
       0.15357037 0.053246923 -0.23559684 0.23888378
0001c0 de ae 6a bd 7b cb 3c 3e 8d b3 51 be 89 74 30 3e
       -0.057295673 0.18436997 -0.2047865 0.17231955
0001d0 eb 32 d2 bd 96 0f 06 3c fb a5 07 3e c0 bc 41 3d
       -0.10263618 0.008182427 0.1324691 0.047299147
0001e0 04 a9 34 3e 87 62 12 be 2a 0b be bc 98 10 15 3e
       0.176426 -0.14295398 -0.023198683 0.14557111
0001f0 26 e6 dc 3d d1 d8 ca 3d b5 fb ba 3d 2d 32 ed bc
       0.10786085 0.09904636 0.091300406 -0.02895459
000200 e3 74 e6 bc 10 65 39 3e 5e 18 77 3d 4f a5 b7 bd
       -0.028131908 0.18104959 0.060325973 -0.08967077
000210 3c fe cb bd 23 83 dc bd 8c 72 c7 bd 5c 2b 0a be
       -0.09960601 -0.107672 -0.09738645 -0.13493103
000220 75 a4 0a 3d 31 de 6a be 21 0b 0a 3e 91 0f 32 3e
       0.033848245 -0.22936322 0.13480808 0.1738875
000230 01 32 4c 3d e5 5f 10 3e e1 25 9d bd 0e 44 13 be
       0.049852375 0.14099081 -0.076732405 -0.1438143
000240 6a 15 ad 3d e2 39 41 3d 6a f5 26 3e 57 06 79 bc
       0.0845135 0.047174342 0.16304556 -0.015199265
000250 67 72 06 3e b8 30 27 bd 53 bc 9a bd 84 9c 95 3e
       0.13129579 -0.040817946 -0.07555451 0.29220974
000260 a8 ec 87 bd c6 dd ce 3d d4 86 31 3e ab 50 5a 3e
       -0.066369355 0.10100894 0.17336589 0.21319835
000270 18 e6 07 3d e5 a7 07 be a5 81 e9 3d 0e 36 0f 3d
       0.03317842 -0.1324764 0.11401681 0.03496366
000280 f2 f9 e2 bd 3e ca 88 3d af bd c6 3d ca 58 84 3c
       -0.110828295 0.066792 0.09704148 0.01615562
000290 51 73 f9 3b 98 cd c4 bc f0 93 2a 3e 9a 80 0b be
       0.0076126237 -0.024023816 0.16657996 -0.13623276
0002a0 50 fb 81 3d b4 3a aa be 14 56 61 3c ed 8d 49 be
       0.06346762 -0.33247912 0.013753433 -0.19683047
0002b0 8f 7f dc 3d b1 d3 b7 3c 63 47 57 3e 56 01 19 3e
       0.10766517 0.02243981 0.21023326 0.14941916
0002c0 b8 6c 87 3d 42 ed 43 3e 7b 15 73 bd af bb 09 3e
       0.06612533 0.19133475 -0.059346657 0.13450502
0002d0 d2 15 24 bc 15 76 20 3e a4 76 f1 bd 36 bf 14 3e
       -0.010014968 0.15670045 -0.11790207 0.14526066
0002e0 e9 40 86 bd b3 63 cb 3d 46 35 b2 bc c5 66 6d 3e
       -0.065553494 0.099311255 -0.021753918 0.23183735
0002f0 cd ff 90 bc d1 2d c2 bd bc aa 1b be 26 6f ab be
       -0.0177001 -0.09481395 -0.15201849 -0.33483237
000300 70 9a 44 be 65 34 ff 3d e8 f6 cb 3d 1a 47 6b bd
       -0.19199538 0.12461165 0.09959203 -0.057440855
000310 b1 4b 60 3e f3 4d 0a 3e 5a a1 87 bc 38 91 68 3c
       0.21903874 0.13506298 -0.01655643 0.014194779
000320 b0 a2 06 be 81 88 a1 3e 09 c5 a4 b9 fd e9 c6 bd
       -0.13147998 0.31549457 -0.0003142732 -0.097125985
000330 e8 27 1c be 8b ea b1 3e 2c 59 a2 be 40 64 8a 3e
       -0.15249598 0.34749255 -0.31708658 0.2702961
000340 ba 73 c9 3d c3 e1 b7 3d 72 d6 43 ba 5c 44 21 3e
       0.09836526 0.089786075 -0.00074706145 0.15748733
000350 0c 07 ca bd 9b ad c7 3d 14 8b 86 3c c5 51 b4 bd
       -0.09864625 0.097499095 0.01642374 -0.08804659
000360 91 b4 ea 3d 4d 1a bf 3d 38 94 24 3d 2a 20 03 3d
       0.114602216 0.09331188 0.040180415 0.032013096
000370 a2 ba 1c be da b5 1c 3b c6 24 a9 3c 7d 72 f6 3d
       -0.1530557 0.0023912103 0.020647418 0.12033556
000380 03 4b 0f be 3c 53 08 be 80 9b 6d bc 58 92 7d bc
       -0.13993458 -0.13313001 -0.014502406 -0.015476786
000390 dc d7 7d 3c 68 3f 6d be 6d ce 77 be 84 c2 0f bd
       0.015493359 -0.23168719 -0.24199839 -0.035097614
0003a0 3b 19 f5 bb af ad a0 3c ab 3c 2e be b0 64 4c 3e
       -0.0074798143 0.019614069 -0.1701533 0.19960284
0003b0 5a dd 48 3a 84 05 f3 bd a6 8d 75 3d 23 5f 01 3e
       0.00076623785 -0.118662864 0.05994954 0.12633948
0003c0 7a 22 d9 3d 6a b7 c0 3c f8 b1 b1 3d 42 0a 6d be
       0.10602279 0.023524959 0.08676523 -0.23148444
0003d0 12 6b 45 3e 5c 84 d0 3d 40 23 b9 3e 12 70 0b 3e
       0.19279125 0.101814955 0.36159706 0.1361697
0003e0 eb 3e ad bd 65 1d 50 be 49 ef f3 bd db 3a e2 bd
       -0.08459266 -0.20323713 -0.119108744 -0.11046382
0003f0 b6 84 46 be 8b 65 6c 3e bf 96 03 be 7c 12 60 3e
       -0.19386563 0.2308561 -0.12850474 0.21882051

mean.bias f4 [6]
000000 32 76 cd 3d e1 7f 27 3d fe 56 bc 3d 73 27 1c 3d
       0.100323096 0.04089344 0.0919628 0.03812356
000010 72 36 1a 3e 3b 64 89 bd
       0.15059832 -0.067085706
