saved_models/final_critic_20241125_222828.pth (torch, 78746 bytes, 5 tensors)

critic.0.weight f4 [128, 17]
0	0x3e157ea9	0.14599098
1	0x3f187cd5	0.5956548
2	0xbe73ad5e	-0.23796603
3	0xbed9a964	-0.42512047
4	0x3d309ce1	0.04311836
5	0xbd36c79e	-0.044623964
6	0x3e6778b9	0.22604646
7	0xbda08cf0	-0.07839382
8	0xbe897dad	-0.26853696
9	0x3d94d3d8	0.072669685
10	0x3e891c74	0.2677952
11	0x3e31ceb9	0.17364015
12	0xbe357d00	-0.17723465
13	0xbe39f197	-0.18158565
14	0xbecfa9c3	-0.40559205
15	0xbd783426	-0.060596608
16	0x3a654543	0.00087459775
17	0x3ebe8136	0.37207955
18	0x3d5e1a96	0.054224573
19	0xbcbebf27	-0.023284508
20	0xbd6d4478	-0.057926625
21	0xbd5fa574	-0.054601148
22	0xbe02ffb6	-0.12792858
23	0xbed34b6e	-0.41268486
24	0xbe4b7724	-0.19869667
25	0x3e8e1107	0.27747366
26	0xbdf634e9	-0.120218106
27	0xbe7aa83e	-0.24478242
28	0x3c4e6da1	0.01259938
29	0xbd15545c	-0.036457404
30	0xbdbc010d	-0.09179888
31	0x3e60286f	0.21890424
32	0xbc17a843	-0.009256425
33	0xbc89c533	-0.016817665
34	0x3f1e500d	0.618409
35	0xbf8803d1	-1.0626165
36	0xbf942bbb	-1.1575845
37	0x3e21e771	0.15810944
38	0x3f19b39c	0.6003969
39	0x400db49c	2.2141485
40	0x3fdc2ea5	1.7201735
41	0x3f295453	0.66144294
42	0xbe872d7d	-0.26401892
43	0x3eb5cc0a	0.35507232
44	0xbd80061e	-0.06251167
45	0x3d1cd207	0.038286235
46	0x3d3a57a8	0.04549375
47	0x3ca1dd3c	0.019758813
48	0x3d9afecf	0.07568132
49	0x3d17a22e	0.0370199
50	0xba003c84	-0.000489183
51	0xbd102551	-0.035191838
52	0xbfdc2a19	-1.7200347
53	0x3ec049de	0.37556356
54	0x3e0664db	0.13124411
55	0xbd068f4c	-0.032851502
56	0x3f4446ae	0.7667035
57	0x3f475243	0.77859896
58	0x3d179f0b	0.03701691
59	0xbf2240ab	-0.63379925
60	0xbda5471a	-0.08070202
61	0xbde5fc39	-0.11229748
62	0x3eeff421	0.46865943
63	0x3e46403a	0.19360438
64	0x3c876de6	0.016531896
65	0x3d84cec5	0.06484751
66	0xbcc57953	-0.024105703
67	0xbdf78cbe	-0.12087391
68	0x3e873562	0.26407915
69	0xbf8a31b8	-1.0796423
70	0xbf647da4	-0.8925421
71	0x3e861727	0.2618954
72	0x3f1aa187	0.6040272
73	0x3f68e458	0.90973425
74	0x3e86d850	0.26336908
75	0x3ea0a97f	0.31379315
76	0xbf2f2e54	-0.68430066
77	0x3e026128	0.12732375
78	0xbe1a58d8	-0.15072954
79	0x3dffcfc1	0.12490798
80	0x3dd9d797	0.106368236
81	0x3d08e72e	0.033423595
82	0x3dabefa1	0.08395315
83	0x3db9d1b0	0.09073198
84	0x3d3c470a	0.045966186
85	0xbd279452	-0.040912934
86	0xc01082aa	-2.257975
87	0x3e3223e1	0.17396499
88	0xbea87bb8	-0.3290689
89	0x3e13b07c	0.14422792
90	0x40050fc5	2.0790875
91	0x3f4d5296	0.8020414
92	0x3e991a47	0.2990286
93	0x3e18a1d2	0.1490548
94	0xbdd6d364	-0.10489538
95	0xbee12fef	-0.43981883
96	0x3de5cdd3	0.112208985
97	0x3da3f23f	0.08005189
98	0x3c856ea0	0.016288102
99	0x3e711cc7	0.23546134
100	0x3e0530d7	0.13006912
101	0xbb685ef2	-0.0035456982
102	0x3e2c7825	0.16842707
103	0x3fe35925	1.776158
104	0xbf045b88	-0.51702166
105	0xbe842cce	-0.25815433
106	0x3ec6ef12	0.3885427
107	0xbf911aeb	-1.133634
108	0xbf36baa9	-0.7137857
109	0x3e609a84	0.21933943
110	0x3f4c0baf	0.7970533
111	0xbe887ff0	-0.2666011
112	0x3db4845d	0.08814309
113	0x3d0f8c69	0.035046015
114	0xbd52ac13	-0.051433634
115	0xbcad7489	-0.021173732
116	0xbd615783	-0.0550151
117	0xbdd6cd29	-0.1048835
118	0xbdb35123	-0.0875571
119	0xbdfa9e64	-0.12237242
120	0x3f65f9be	0.898342
121	0xbe42f7af	-0.19039796
122	0x3ec98c5a	0.39364892
123	0x3b1e4a09	0.0024153015
124	0xbe87094a	-0.26374274
125	0xbf4e991e	-0.8070239
126	0x3e076bae	0.1322467
127	0x3ed3a0dc	0.41333663
128	0xbf17844b	-0.5918624
129	0xbecec2a6	-0.4038288
130	0x3e162612	0.1466296
131	0x3e047ae3	0.12937503
132	0xbd6b6018	-0.05746469
133	0x3dce8244	0.1008344
134	0x3d8ddfd7	0.0692746
135	0xbcff0bda	-0.031133581
136	0x3efe273e	0.49639314
137	0xbd327fb2	-0.04357881
138	0xbf3da1ec	-0.740752
139	0xbe836b9c	-0.25668037
140	0x3e31369e	0.17305991
141	0xbeb9ecb4	-0.36313403
142	0xbe39f38e	-0.18159315
143	0xbdcf3280	-0.10117054
144	0xbd82e39a	-0.06391068
145	0xbe2a0936	-0.16605076
146	0x3d803244	0.062595874
147	0x3bba1af6	0.0056794835
148	0x3de3ff84	0.1113272
149	0xbdd67b5b	-0.10472747
150	0xbde70f73	-0.112822436
151	0xbdafb537	-0.08579486
152	0xbddecf0c	-0.10879335
153	0x3eb3ceba	0.35118657
154	0x3faa8b6d	1.3323799
155	0xbec4e0b9	-0.384527
156	0x3e80e048	0.25171113
157	0x3e04f215	0.12982972
158	0xbde354f1	-0.11100186
159	0x3bcd2bb0	0.0062613115
160	0x3e41fae8	0.1894337
161	0x3e509104	0.20367819
162	0xbdfa16a2	-0.12211348
163	0x3d5c079e	0.0537182
164	0xbdcf1011	-0.10110486
165	0xbe044fde	-0.12921092
166	0xbc8ee389	-0.017442482
167	0xbc497d4b	-0.012297939
168	0xbc9cef48	-0.019157067
169	0x3e24ee05	0.16106422
170	0xbea5c979	-0.32380274
171	0x3f95695d	1.1672779
172	0x3dde6822	0.108597055
173	0xbf8c328c	-1.0952926
174	0xbe4cd641	-0.20003606
175	0xbfcce8ca	-1.6008542
176	0xbeb229f7	-0.34797642
177	0xbf414c53	-0.75507087
178	0x3f0104d2	0.5039798
179	0x3e94062c	0.2891096
180	0x3e363c69	0.17796482
181	0xbdde19ee	-0.108447894
182	0xbe441529	-0.19148697
183	0xbc4932b3	-0.012280154
184	0xbc8cc69c	-0.017184548
185	0xbd9470ec	-0.07248101
186	0x3a95014c	0.0011368184
187	0x3d036d27	0.032086518
188	0xc0345d69	-2.8182013
189	0x3dafbcb7	0.085809164
190	0xbf192c53	-0.5983326
191	0x3e7ff087	0.24994098
192	0x3f43bb5a	0.7645775
193	0xbdb710f1	-0.08938778
194	0xbee00117	-0.4375083
195	0xbeea54ec	-0.45767915
196	0xbe2a2bb4	-0.16618234
197	0xbd1a88a3	-0.037727963
198	0xbe224180	-0.15845299
199	0x3cb103ef	0.021608321
200	0x3d470ddc	0.0485972
201	0x3e02b75b	0.12765257
202	0x3d093928	0.033501774
203	0xbcf7ab47	-0.030233039
204	0x3dc78f0b	0.0974408
205	0xbf972256	-1.1807353
206	0xbe80167c	-0.25017154
207	0x3e305585	0.17220123
208	0x3dcfc73a	0.10145421
209	0x401cd34c	2.4503965
210	0x3f922ec8	1.1420527
211	0x3f469a95	0.77579623
212	0xbea822e7	-0.32839128
213	0x3eecd11e	0.46253294
214	0x3d3d7ad7	0.046259727
215	0x3e2dc81c	0.16970867
216	0x3d94508b	0.07241925
217	0xbb2e4901	-0.0026593807
218	0xbdff77f0	-0.12474048
219	0xbd9d1665	-0.07670287
220	0xbc7bec39	-0.015376144
221	0x3ec62f5a	0.38708
222	0x3f4aed76	0.79268587
223	0xbea983f6	-0.3310849
224	0xbf017451	-0.5056811
225	0x3e98bd7f	0.29832074
226	0xbf60e615	-0.8785108
227	0xbf338364	-0.7012236
228	0xbe28f066	-0.16497955
229	0x3df2ed01	0.11861611
230	0xbf0941ad	-0.5361584
231	0x3e96b724	0.294366
232	0xbe72818f	-0.23682235
233	0xbd3cb426	-0.04607024
234	0xbb942a2b	-0.0045216284
235	0xbd3349f9	-0.043771718
236	0xbc69da7f	-0.014273285
237	0xbd342caa	-0.043987907
238	0x3e303b61	0.17210151
239	0xbe824165	-0.25440517
240	0xbdbe2c3f	-0.09285783
241	0xbe56dc07	-0.20982371
242	0x3e85e58d	0.26151696
243	0xbec9a52f	-0.39383838
244	0xbd719ab4	-0.058985427
245	0xbe19ad6d	-0.15007563
246	0x3e9d5eaa	0.30736285
247	0xbe592fdd	-0.21209665
248	0xbdb4cfc2	-0.08828689
249	0xbcba9159	-0.022774385
250	0x3d34faa4	0.044184342
251	0x3d680106	0.0566416
252	0x3e647134	0.22308809
253	0x3c829b4a	0.015943188
254	0x3d1ce8a7	0.038307812
255	0xbf061e9b	-0.5239045

critic.0.bias f4 [128]
0	0xbefcc47f	-0.49368665
1	0x3f86e313	1.0538048
2	0xbe186036	-0.14880452
3	0x3d6617f4	0.056175187
4	0x3f85ef62	1.0463679
5	0xbe87d549	-0.2652991
6	0xbeb1fc2a	-0.34762698
7	0xbf77f067	-0.968512
8	0x3f2f7eb9	0.6855274
9	0xbece34c9	-0.40274647
10	0xbe62bc80	-0.2214222
11	0x3df69601	0.1204033
12	0x3f84720b	1.0347303
13	0xbf307c84	-0.68939996
14	0x3f60a550	0.87752247
15	0xbeedf06a	-0.46472484
16	0xbf1f8edb	-0.62327355
17	0xbeaf8035	-0.34277502
18	0x3f8d2d17	1.1029385
19	0x3e2eaef5	0.17058928
20	0x3f40d75a	0.753286
21	0x3e36a169	0.1783501
22	0x3e9328cc	0.28742063
23	0xbcd13877	-0.02553962
24	0x3f922e12	1.142031
25	0xbf08e780	-0.5347824
26	0x3f831ed3	1.0243782
27	0x3e87604e	0.26440662
28	0x3ed4ac79	0.41537836
29	0x3eb1cbc3	0.3472577
30	0xbdb84106	-0.08996777
31	0x3f83eddd	1.0306965
32	0xbf44a651	-0.7681628
33	0xbef8c266	-0.48585814
34	0xbeb2bd7f	-0.349102
35	0x3de5ba0e	0.11217128
36	0x3f8a5ac3	1.0808948
37	0xbf32afc9	-0.69799477
38	0x3f9228e0	1.1418724
39	0x3fa8987c	1.3171535
40	0x3d87d765	0.0663288
41	0x3f5f2192	0.871606
42	0x3f63a06e	0.8891667
43	0x3d7b2af1	0.06132025
44	0xbdd15067	-0.10220414
45	0xbe953be6	-0.2914726
46	0x3c4218cb	0.011846731
47	0xbdaf79b2	-0.085681334
48	0xbeb52d3c	-0.35386074
49	0x3f875c36	1.0575016
50	0xbe2079f1	-0.15671517
51	0x3f8b20b6	1.0869358
52	0x3f93b762	1.1540339
53	0x3f9715c3	1.1803516
54	0xbeb99c22	-0.36251932
55	0x3f4d6ddd	0.80245763
56	0x3f85cab2	1.0452483
57	0x3f8f911a	1.1216156
58	0x3ea0d553	0.31412753
59	0xbd9bc276	-0.0760545
60	0x3f3d4bf2	0.7394401
61	0x3e37f6f7	0.17965303
62	0x3f3bfa24	0.7342856
63	0xbf410d52	-0.7541095
64	0xbf45a096	-0.7719816
65	0x3f7f4f29	0.99730164
66	0xbf02319d	-0.50856954
67	0xbed5df1e	-0.41771787
68	0x3f30a464	0.6900084
69	0x3f608148	0.8769727
70	0xbea1872c	-0.3154844
71	0x3f64d18a	0.8938223
72	0xbec3364c	-0.38127363
73	0xbf3edd2d	-0.7455624
74	0xbe980502	-0.2969132
75	0x3e67e776	0.22646889
76	0x3db2b403	0.08725741
77	0x3f2ca4dc	0.67439055
78	0xbe25b70d	-0.1618311
79	0xbf49f8c5	-0.7889522
80	0x3cf4e0bc	0.029892318
81	0xbe3d33cc	-0.1847679
82	0xbebc38fb	-0.36762223
83	0xbd448915	-0.047982294
84	0x3fba3e4f	1.4550265
85	0x3f3a59b0	0.727931
86	0xbea2b61b	-0.3177956
87	0x3d3574f1	0.044300977
88	0xbeaddca1	-0.3395739
89	0x3ee6d2a8	0.45082593
90	0x3ea3626e	0.31911033
91	0x3f968921	1.1760598
92	0xbe39cd1c	-0.1814465
93	0x3f9da473	1.2315811
94	0x3effbfcf	0.49951026
95	0x3f7b4586	0.9815296
96	0xbe55793e	-0.20847031
97	0x3f3f0299	0.7461334
98	0x3f533068	0.8249574
99	0x3f589c61	0.84613615
100	0x3e0a3521	0.1349683
101	0x3eb938c7	0.3617613
102	0x3f932971	1.1497022
103	0xbe95c047	-0.29248258
104	0x3e75b20b	0.23993699
105	0x3f87b648	1.0602503
106	0x3e13fa41	0.14450933
107	0x3f07c382	0.53032696
108	0xbeecd9fc	-0.4626006
109	0x3f8cb023	1.0991253
110	0xbc33a09b	-0.010963584
111	0x3f25477c	0.645622
112	0xbea7f645	-0.32805076
113	0x3f0248a3	0.50892085
114	0x3f041e7c	0.51609015
115	0xbf218765	-0.6309722
116	0x3f15e820	0.5855732
117	0x3f223634	0.6336396
118	0x3e9fc0c1	0.31201747
119	0x3f2f8c94	0.6857388
120	0x3f0bb269	0.5456911
121	0x3f87e07c	1.0615382
122	0xbed25dfe	-0.41087335
123	0x3f6c3f32	0.9228393
124	0x3f7689c5	0.9630397
125	0x3f657b67	0.8964142
126	0x3f04fdd0	0.5194979
127	0xbf1ccc83	-0.6124956

critic.2.weight f4 [128, 128]
0	0x3d39c2e9	0.045351896
1	0x3dfa2d6e	0.12215696
2	0xbe015b50	-0.12632489
3	0x3dab65e4	0.083690435
4	0x3ecb566f	0.3971438
5	0xbea86596	-0.32890004
6	0xbb13200d	-0.0022449524
7	0xbe3492a5	-0.17634065
8	0x3e13fe5f	0.14452504
9	0xbd37ef2f	-0.044905838
10	0x3db9467c	0.09046647
11	0x3ecb94c2	0.3976193
12	0x3e6f87fe	0.2339172
13	0xbd1961cb	-0.03744678
14	0x3e15c8a4	0.1462732
15	0x3902078c	0.00012400578
16	0xbd038f78	-0.032119244
17	0xbe05f378	-0.13081157
18	0x3e883eb5	0.26610342
19	0x3e961b6a	0.2931779
20	0x3e7d7554	0.24751788
21	0xbd6380c0	-0.055542707
22	0xbed3819d	-0.41309825
23	0x3d128558	0.035771698
24	0x3e37e8a5	0.1795984
25	0xbe0120de	-0.12610194
26	0x3e029fd1	0.12756278
27	0xbeb0ea7a	-0.3455389
28	0x3e4ec654	0.20192844
29	0x3dfc4b49	0.12319047
30	0xbc7b95a5	-0.015355502
31	0x3e3ec64b	0.1863033
32	0x3c06bddd	0.008223978
33	0x3e0f920b	0.14020555
34	0x3bba40a2	0.0056839744
35	0xbd3ddaf4	-0.046351388
36	0x3dc11186	0.094271705
37	0xbe769758	-0.2408117
38	0x3e91c152	0.28467804
39	0x3eaaab77	0.33333942
40	0xbd32ee32	-0.043684192
41	0x3e532b68	0.20622027
42	0x3dd88eed	0.10574136
43	0xbd9352dc	-0.071935385
44	0x3dbcab4c	0.0921236
45	0xbcd6aa89	-0.026204364
46	0xbe34fbc6	-0.17674169
47	0xbec4ed22	-0.38462168
48	0x3c1b5eea	0.0094830785
49	0x3e23b625	0.15987451
50	0xbeaf364f	-0.34221122
51	0x3ecf3657	0.40471146
52	0x3e9bbdf0	0.30418348
53	0x3eea7daa	0.45799
54	0xbc7855a4	-0.015157137
55	0x3f3a5073	0.72779006
56	0x3e969542	0.2941075
57	0x3eb795e6	0.3585655
58	0x3ddec975	0.10878269
59	0x3e86536d	0.26235524
60	0x3f172123	0.5903494
61	0xbdebf161	-0.11520649
62	0x3e6ab434	0.22920305
63	0xbbe52ff3	-0.0069942414
64	0xbe09823b	-0.13428585
65	0x3dca9d50	0.09893286
66	0x3c5d1094	0.013492722
67	0xbd7127e4	-0.058875933
68	0x3f175cd9	0.5912605
69	0x3e01db16	0.12681231
70	0x3dec1c8c	0.115288824
71	0x3eb5679d	0.35430613
72	0xbdda8af5	-0.10671035
73	0xbd920752	-0.071303025
74	0xbdbab2e9	-0.09116156
75	0x3d3db5a0	0.04631579
76	0x3e57d85e	0.21078631
77	0x3e1dc624	0.15407616
78	0xbe918c05	-0.2842714
79	0x3bf26b0a	0.007398014
80	0x3e23c64c	0.15993613
81	0x3e934a6b	0.28767714
82	0xbd8b7226	-0.068088815
83	0x3e8e227a	0.2776068
84	0x3eb4abf8	0.35287452
85	0x3dcf0af9	0.10109515
86	0xbe63daf1	-0.22251488
87	0x3e199958	0.14999902
88	0xbdef051a	-0.11670895
89	0x3e7d7a27	0.24753629
90	0x3e970a78	0.29500175
91	0x3e1b7b45	0.15183742
92	0xbde24192	-0.11047663
93	0x3f015eaf	0.505351
94	0x3ee8d071	0.45471528
95	0x3e11b459	0.14228953
96	0xbd265aad	-0.04061382
97	0x3d40e81e	0.047096364
98	0x3e0ac7b4	0.13552743
99	0x3e265867	0.1624466
100	0x3ce4025a	0.027833153
101	0x3dc5c281	0.09656239
102	0x3e424b69	0.18974079
103	0xbe9a90a6	-0.30188483
104	0x3e3c8995	0.18411858
105	0x3e659761	0.22421028
106	0x3cb92027	0.02259834
107	0x3dd622fb	0.10455891
108	0xbe5ae10e	-0.21374914
109	0x3f16bd39	0.5888248
110	0x3d7eac02	0.06217576
111	0x3ebf283a	0.37335378
112	0xbca0b2ec	-0.019616567
113	0x3ec2def7	0.38060734
114	0x3e36fca6	0.17869815
115	0xbda0830e	-0.07837497
116	0x3d79a28f	0.060946044
117	0x3ec692a4	0.38783753
118	0x3d000187	0.031251457
119	0x3e027554	0.1274007
120	0x3d304810	0.043037474
121	0x3ea5c291	0.32375005
122	0xbd7cebfc	-0.06174849
123	0x3ebfce53	0.374621
124	0x3e5f6b3f	0.21818255
125	0x3f02e893	0.5113613
126	0x3d2b09ee	0.041757517
127	0xbe3baf70	-0.18328643
128	0xbdc65783	-0.0968466
129	0xbdc3e254	-0.09564653
130	0x3db5b7b9	0.08872933
131	0x3d92c5f1	0.071666606
132	0xbddc405f	-0.10754465
133	0x3b87d370	0.0041450784
134	0xbed3ea90	-0.41389894
135	0xbe008ec0	-0.12554455
136	0xbdb390ce	-0.08767854
137	0xbdb4a129	-0.08819801
138	0xbe3e9965	-0.18613203
139	0xbc078461	-0.008271308
140	0xbc068a16	-0.008211633
141	0xbe1c57dc	-0.1526789
142	0xbe087f0f	-0.13329719
143	0x3e4ad514	0.19807845
144	0xbf08fd21	-0.53511244
145	0x3dafb08c	0.085785955
146	0xbe965303	-0.29360208
147	0x3db23089	0.087006636
148	0xbd8048e1	-0.062639005
149	0x3d2cb453	0.042164158
150	0x3e04114a	0.1289722
151	0x3b9fc409	0.004875664
152	0xbdcaf514	-0.09910026
153	0xbe9536b4	-0.29143298
154	0xbe2c7bb4	-0.16844064
155	0x3cfa5a2a	0.030560572
156	0xbcd031cb	-0.025414368
157	0xbea05d4c	-0.3132118
158	0xbe3c8072	-0.18408373
159	0xbda51705	-0.08061031
160	0xbe40b0ed	-0.18817492
161	0x3c7e68b4	0.015527893
162	0xbb949801	-0.004534722
163	0xbe4494ab	-0.19197337
164	0xbd701a60	-0.058618903
165	0x3d511aa6	0.051050805
166	0xbe820af9	-0.25398996
167	0xbe115eb0	-0.14196277
168	0x3ed2833f	0.41115758
169	0xbe1ad1e6	-0.15119132
170	0xbc0edceb	-0.008719663
171	0x3d2c5566	0.04207363
172	0x3d60bb35	0.054866035
173	0xbda89e34	-0.082333
174	0xbd51ac76	-0.051189862
175	0x3e260c29	0.16215576
176	0xbdd83708	-0.105573714
177	0xbe28d05a	-0.1648573
178	0x3e962f81	0.29333118
179	0x3ad648b7	0.0016348575
180	0xbc402e4a	-0.011729786
181	0x3de578cb	0.1120468
182	0xbdb97156	-0.0905482
183	0xbd1a03bf	-0.03760123
184	0xbd85bc8b	-0.06530102
185	0xbda33762	-0.07969548
186	0x3d6f92bb	0.058489542
187	0xbe2cef28	-0.16888106
188	0xbd276ca3	-0.04087509
189	0xbc32cc68	-0.010912992
190	0xbf08a5a6	-0.5337776
191	0xbe20e660	-0.15712881
192	0x3e4221a5	0.18958147
193	0xbd9a38c9	-0.07530362
194	0x3ddd8293	0.10815921
195	0xbf334996	-0.7003416
196	0xbdace8ec	-0.08442864
197	0xbe32d07d	-0.17462344
198	0x3db12f75	0.0865163
199	0xbdd1e7de	-0.10249303
200	0xbe2067c7	-0.15664588
201	0xbcb9f0cd	-0.02269783
202	0x3c96a496	0.018389028
203	0xbe13f5b9	-0.14449205
204	0xb9f3a2a2	-0.00046469743
205	0xbd744cd2	-0.059643574
206	0x3c6bd1e7	0.014393306
207	0xbd42de8f	-0.04757553
208	0xbc5c0ab9	-0.013430291
209	0x3d8d9d51	0.06914771
210	0x3e1bf3d5	0.15229733
211	0x3d57d08d	0.052689124
212	0xbda9608c	-0.08270368
213	0xbdaea446	-0.085274264
214	0xbdb99364	-0.09061316
215	0x3d40bdc2	0.047055967
216	0x3b4c38f8	0.0031161886
217	0x3d6b2cb9	0.057415698
218	0xbc0d0853	-0.008607942
219	0xbe5daf59	-0.21648921
220	0xbe4e51b6	-0.20148358
221	0x3c7f555c	0.015584316
222	0x3d867783	0.06565764
223	0xbe2b83ef	-0.16749547
224	0xbe77365d	-0.24141832
225	0xbe5af740	-0.21383381
226	0xbdd7ce01	-0.10537339
227	0xbccd78d0	-0.025082022
228	0xbe028c18	-0.12748754
229	0xbe86f72b	-0.2636045
230	0xbe150ecb	-0.14556424
231	0xbe3d2039	-0.18469323
232	0x3d251415	0.040302355
233	0xbddfa4f3	-0.109201334
234	0x3da2af33	0.07943573
235	0xbe745d05	-0.23863609
236	0xbe242d29	-0.16032852
237	0xbc0ac46d	-0.008469683
238	0x3d0ce0f8	0.034394234
239	0xbc3d7544	-0.011563603
240	0x3e52258c	0.20522135
241	0x3d2542c9	0.040346894
242	0xbdd4388f	-0.1036235
243	0x3da8f78f	0.08250343
244	0xbec1a843	-0.37823686
245	0xbd4c66d2	-0.049902745
246	0x3ce1c978	0.027561888
247	0xbd298bff	-0.041393276
248	0xbf01910a	-0.5061194
249	0x3cbb3872	0.022854064
250	0xbe6491b8	-0.22321212
251	0xbcbb4ad8	-0.022862837
252	0xbd783ade	-0.060603015
253	0xbdd09c1f	-0.10186028
254	0xbdd8f8c5	-0.10594324
255	0xbe40cb60	-0.18827581

critic.2.bias f4 [128]
0	0x3f63ac84	0.8893511
1	0xbe639bf8	-0.22227466
2	0x3f51449f	0.8174533
3	0x3f5bce49	0.8586164
4	0xbe2844d4	-0.16432506
5	0x3f4ba341	0.7954598
6	0x3f5ff795	0.87487155
7	0x3f46d59e	0.77669704
8	0xbe36a896	-0.17837748
9	0xbe8b4908	-0.27204156
10	0x3f602530	0.87556744
11	0xbf098486	-0.5371784
12	0x3f6e65a7	0.9312386
13	0x3f6e8fdf	0.9318828
14	0x3f39e926	0.7262138
15	0x3cea2c33	0.028585529
16	0xbf259be8	-0.6469102
17	0xbe4a786e	-0.19772503
18	0x3f45827a	0.77152216
19	0xbf35abfb	-0.70965546
20	0xbcbe8e8d	-0.023261333
21	0xbc92e3f9	-0.017930971
22	0x3f78aec6	0.97141683
23	0xbe361705	-0.17782219
24	0x3f70be09	0.9403997
25	0x3f4de115	0.8042157
26	0xbe84d277	-0.25941822
27	0x3f3de4a5	0.7417701
28	0xbe0e9fd9	-0.13928165
29	0xbd20caf2	-0.039256044
30	0xbe22b73c	-0.15890211
31	0xbefd1de2	-0.4943686
32	0x3f5858f8	0.84510756
33	0x3f71c805	0.9444583
34	0xbdda4351	-0.10657371
35	0x3f5d79d6	0.8651403
36	0xbedd4f23	-0.4322444
37	0x3f5ac147	0.8545117
38	0xbf1526ea	-0.58262503
39	0xbdfd1114	-0.12356773
40	0xbe032eff	-0.12810896
41	0xbe77801b	-0.24169962
42	0xbe0fc7ec	-0.14041108
43	0xbe447b56	-0.19187674
44	0x3f523b56	0.8212179
45	0x3f5f1225	0.8713706
46	0xbe05fb02	-0.13084033
47	0xbe683417	-0.2267612
48	0xbcf4467f	-0.029818771
49	0xbeaf239b	-0.34206852
50	0xbd7990fa	-0.060929276
51	0xbf1c8e5a	-0.6115471
52	0xbdec5d8b	-0.115412794
53	0x3f47b114	0.78004575
54	0x3d6b001e	0.05737316
55	0x3b2b51bc	0.0026141247
56	0x3f4011c4	0.7502711
57	0xbf154be8	-0.5831895
58	0x3f2cfb30	0.6757078
59	0xbe1c8a5c	-0.15287155
60	0xbcfbc218	-0.0307322
61	0xbd41db1e	-0.047328107
62	0xbdac437f	-0.08411311
63	0xbe50a566	-0.20375594
64	0x3f47d097	0.7805266
65	0x3f6155a1	0.88021284
66	0x3f56ac51	0.83856684
67	0x3f517b79	0.8182903
68	0xbdefa9bc	-0.11702296
69	0xbe0cb8d5	-0.13742383
70	0x3f567a9c	0.8378084
71	0xbe870793	-0.26372966
72	0x3f638500	0.88874817
73	0xbd379f9e	-0.044829957
74	0x3f6c5c35	0.92328197
75	0x3f3784bc	0.7168691
76	0xbea8e18b	-0.32984576
77	0x3f47dafd	0.78068525
78	0xbf48940b	-0.78350896
79	0x3f718756	0.9434713
80	0x3f3556dd	0.7083567
81	0xbe4718a7	-0.19442998
82	0x3f5368fb	0.8258206
83	0x3f417624	0.75570893
84	0xbf1eea57	-0.62076324
85	0x3f4a5e3c	0.7905004
86	0x3f688d35	0.90840465
87	0xbe0be266	-0.13660583
88	0x3f50aca7	0.81513447
89	0x3f634906	0.887833
90	0x3f606c29	0.8766504
91	0xbd16de85	-0.036833305
92	0x3f6c4095	0.92286044
93	0xbe092243	-0.13391976
94	0xbe05c074	-0.13061696
95	0xbe3e1153	-0.18561296
96	0xbede937a	-0.4347189
97	0x3f577cd2	0.84174836
98	0xbdc9a21f	-0.09845375
99	0x3f461392	0.7737361
100	0xbea03ae4	-0.3129493
101	0x3f4de33e	0.8042487
102	0x3f64d3cf	0.89385694
103	0x3f3b5845	0.73181564
104	0xbf044670	-0.5166998
105	0xbe24eac8	-0.16105187
106	0x3f65085d	0.89465886
107	0xbf178d40	-0.59199905
108	0xbc8c2d8d	-0.017111564
109	0x3f3f0022	0.7460958
110	0xbe6780aa	-0.22607675
111	0xbddb7353	-0.10715356
112	0x3f52bb35	0.82316905
113	0x3f688fcc	0.90844417
114	0xbe14977d	-0.14510913
115	0xbf13933c	-0.57646537
116	0x3f66f7e5	0.9022201
117	0xbd1e4bd3	-0.03864653
118	0x3f4be521	0.796465
119	0xbe855e4f	-0.26048514
120	0xbe82e840	-0.25567818
121	0x3f49401d	0.78613454
122	0xbd1416b5	-0.036154468
123	0x3f5bdd2f	0.85884374
124	0x3f475e8d	0.7787865
125	0x3f333816	0.70007455
126	0xbe2ead4f	-0.170583
127	0xbe0cd7b6	-0.13754162

critic.4.weight f4 [1, 128]
0	0x3edcb434	0.43106234
1	0xbeb0f0a1	-0.34558585
2	0x3f20c845	0.6280559
3	0x3f173ee1	0.5908032
4	0xbebd192a	-0.3693326
5	0x3ee8dafe	0.45479578
6	0x3f9f42a6	1.2442214
7	0x3ef6b0ba	0.48181707
8	0xbf8d8b75	-1.1058184
9	0xbfeeae0b	-1.8646864
10	0x3ed29a34	0.41133273
11	0xc042cadc	-3.0436316
12	0x3ee7ae6b	0.45250258
13	0x3ecbee48	0.39830232
14	0x3f09884c	0.537236
15	0xbfc73cb3	-1.5565399
16	0xc005393a	-2.0816178
17	0xbf7559c6	-0.9584011
18	0x3f12e773	0.57384413
19	0xbfdb971a	-1.7155488
20	0xbf8259dd	-1.0183674
21	0xbf9493c0	-1.160759
22	0x3eac600a	0.33667022
23	0xbea64123	-0.3247157
24	0x3efe6623	0.496873
25	0x3ebc2856	0.36749524
26	0xbfb4295a	-1.407512
27	0x3edd8cec	0.43271577
28	0xbf17d897	-0.59314865
29	0xbf30026b	-0.6875369
30	0xbfd303ae	-1.6485498
31	0xbfaae07e	-1.334976
32	0x3f38dd04	0.72212243
33	0x3ebd8930	0.37018728
34	0xbfa0ec50	-1.2572117
35	0x3f3ce1f3	0.7378227
36	0xc00965e1	-2.1468432
37	0x3eed01a4	0.46290314
38	0xbf59b4c8	-0.85041475
39	0xbf1238e3	-0.5711805
40	0xbf891652	-1.0709937
41	0xbfbab225	-1.4585615
42	0xbec4f37f	-0.38467023
43	0xbf506799	-0.8140808
44	0x3ec9c2da	0.39406472
45	0x3ee4ffdd	0.44726458
46	0xbf7a20e8	-0.9770646
47	0xbf546c94	-0.8297818
48	0xbfa6e4a6	-1.3038528
49	0xbf4c22fe	-0.79740894
50	0xbf40e8f8	-0.7535548
51	0xbff677ae	-1.9255273
52	0xbf96f80a	-1.1794446
53	0x3f2371ad	0.6384533
54	0xbfb68cd8	-1.4261732
55	0xc00f1c05	-2.2360852
56	0x3ed8cdb2	0.42344433
57	0xbf8e825d	-1.1133534
58	0x3f143299	0.57889706
59	0xbf5f4813	-0.8721935
60	0xbf5136a7	-0.8172402
61	0xbebc545f	-0.3678312
62	0xbfb3c7d0	-1.4045353
63	0xbf972f61	-1.1811334
64	0x3f1c6042	0.6108438
65	0x3f2d5208	0.67703295
66	0x3eb525bd	0.35380355
67	0x3f2481a2	0.64260304
68	0xbf4b5022	-0.7941915
69	0xbfb52de0	-1.4154625
70	0x3f283574	0.65706563
71	0xbff59f8e	-1.9189317
72	0x3f264f7d	0.6496504
73	0xbfbf53dc	-1.4947467
74	0x3ebbea56	0.36702222
75	0x3f24cad0	0.6437197
76	0xc01215e6	-2.2825866
77	0x3ee5d692	0.44890267
78	0xbf6db266	-0.9285034
79	0x3edb3b57	0.4281871
80	0x3f22d91d	0.6361254
81	0xbf9f2313	-1.2432579
82	0x3f194bd0	0.59881306
83	0x3f30143b	0.6878087
84	0xc007c662	-2.1214833
85	0x3f219f5f	0.63133806
86	0x3ec7ee2b	0.39048895
87	0xbf372bba	-0.71551096
88	0x3f021390	0.508111
89	0x3f041e3b	0.5160863
90	0x3f14225e	0.5786494
91	0xbfcd6b89	-1.6048442
92	0x3eb1d727	0.3473446
93	0xbeb47a2c	-0.3524946
94	0xbeceb105	-0.4036943
95	0xbf2fc2db	-0.686567
96	0xc014a306	-2.3224502
97	0x3eeb19b3	0.45918044
98	0xbf964b4b	-1.1741728
99	0x3ef024e9	0.4690316
100	0xbf235d6c	-0.63814425
101	0x3ef195d0	0.4718461
102	0x3ee7edcb	0.4529861
103	0x3f0d1da6	0.55123365
104	0xc00a8e9e	-2.1649547
105	0xbee18139	-0.44043902
106	0x3fa6884e	1.3010347
107	0xc00252b7	-2.0362985
108	0xbf86e8f4	-1.0539842
109	0x3ed833cc	0.42227018
110	0xbf8eef57	-1.1166791
111	0xbfa9da8f	-1.3269824
112	0x3ed65d9a	0.41868287
113	0x3f1066b6	0.56406724
114	0xbf8680dd	-1.0508076
115	0xc0018b3a	-2.0241227
116	0x3f9254c0	1.1432114
117	0xbf95135e	-1.1646535
118	0x3ef39a74	0.47578776
119	0xbfc1bccd	-1.5135742
120	0xbfc0c6b0	-1.5060635
121	0x3f2c60f9	0.6733547
122	0xbfc84913	-1.56473
123	0x3ecc7ba5	0.39938083
124	0x3ecd04ea	0.40042812
125	0x3f0307f7	0.5118403
126	0xbfdc57cb	-1.7214292
127	0xbef70be0	-0.48251247
