saved_models/final_actor_20241125_222828.pth (torch, 81568 bytes, 7 tensors)

log_std f4 [6]
0	0xc00480e7	-2.0703676
1	0xc001769c	-2.0228643
2	0xc004e545	-2.0764935
3	0xc004a76a	-2.0727181
4	0xc013b4a9	-2.3079016
5	0xc00745ca	-2.1136346

actor.0.weight f4 [128, 17]
0	0xbec7ba5f	-0.39009377
1	0x3e87a5eb	0.26493773
2	0xbde3597d	-0.11101053
3	0x3e147b0d	0.14500065
4	0x3d0680a5	0.03283753
5	0xbf106323	-0.5640127
6	0xbdcb32ac	-0.09921774
7	0xbccde4e6	-0.025133561
8	0x3dabe3b1	0.08393038
9	0xbf018672	-0.5059577
10	0x3e9bf6ae	0.3046164
11	0x3d256058	0.040375084
12	0x3da81d6d	0.082087375
13	0x3e547a6a	0.20749822
14	0xbe3ab2c2	-0.18232253
15	0xbe4b752e	-0.19868919
16	0x3d48907f	0.048965927
17	0xbde877d8	-0.113509834
18	0x3c37a9b8	0.011209898
19	0xbe934066	-0.2876007
20	0x3e3310da	0.17486897
21	0xbeac6cfa	-0.33676893
22	0xbe4d2d67	-0.20036851
23	0x3d58ef9d	0.052962888
24	0xbf1ce6da	-0.6128975
25	0x3d819250	0.06326735
26	0xbd5c6bf9	-0.05381391
27	0xbd5bf0b9	-0.053696368
28	0x3ca868ce	0.020557787
29	0xbe0a588b	-0.13510339
30	0xbe220455	-0.15821965
31	0x3e5a0145	0.21289547
32	0xbe6fcf98	-0.23419034
33	0xbd1f6c95	-0.03892191
34	0xbe460ef0	-0.19341636
35	0xbbc28735	-0.005936528
36	0x3eabd519	0.33561018
37	0xbe3eb7a8	-0.18624747
38	0x3c076e02	0.008265974
39	0x3eed2125	0.4631435
40	0x3e8cff88	0.27538705
41	0x3df57d5c	0.11986801
42	0x3c18c319	0.009323859
43	0xbee9bc17	-0.45651314
44	0x3e133656	0.14376196
45	0xbe186d53	-0.14885454
46	0x3e2b734d	0.16743203
47	0x3e1316e1	0.14364196
48	0x3eb91a4c	0.36152875
49	0xbdd18147	-0.10229736
50	0x3d8fd759	0.07023496
51	0x3d8f7e98	0.07006568
52	0xbe5f0f14	-0.21783096
53	0xbf051164	-0.5197966
54	0xbe8dacd7	-0.2767093
55	0x3ede8aa4	0.4346515
56	0xbe3c2812	-0.1837466
57	0xbe0a408d	-0.13501187
58	0xbec0dbdb	-0.37667736
59	0xbe5bbfc0	-0.21459866
60	0x3e83c9b8	0.25739837
61	0xbd8b726e	-0.06808935
62	0x3e24129b	0.16022722
63	0x3d21658c	0.039403483
64	0xbe14a4c1	-0.14515974
65	0x3e07a783	0.13247494
66	0x3e334f18	0.1751064
67	0x3dcf5895	0.101243176
68	0xbe2b6a22	-0.16739705
69	0xbee0799b	-0.43842778
70	0xbeaf9677	-0.34294483
71	0xbf059202	-0.52175915
72	0xbdca5b15	-0.09880654
73	0xbe2a08f7	-0.16604982
74	0xbe775b80	-0.24155998
75	0x3ed8215a	0.42212945
76	0x3cf00d1e	0.02930313
77	0x3e9315c7	0.28727552
78	0xbda96389	-0.08270938
79	0x3da9e22b	0.08295091
80	0x3d118b16	0.035533033
81	0xbd899ca0	-0.06719327
82	0xbe638b31	-0.22221066
83	0x3de686a5	0.1125615
84	0xbd6bdae6	-0.057581805
85	0xbdfd56d2	-0.12370075
86	0x3eb50e43	0.35362443
87	0x3eaf02d7	0.34181854
88	0x3dce900a	0.10086067
89	0xbe90c1de	-0.2827291
90	0x3d9fa043	0.07794239
91	0xbce27946	-0.027645718
92	0x3e113bb1	0.14182927
93	0xbdce2d28	-0.100672066
94	0xbedf1a81	-0.43574908
95	0x3ea3aeb2	0.3196922
96	0xbd59112a	-0.052994885
97	0xbe5adbe1	-0.2137294
98	0xbc039d04	-0.008033041
99	0xbebdc0a8	-0.37061048
100	0xbc600ceb	-0.013674955
101	0x3e1df23f	0.15424441
102	0x3d8b4124	0.06799534
103	0xbe82bbbc	-0.25533855
104	0x3e4dd534	0.20100862
105	0xbb0b9719	-0.0021299778
106	0x3e837b1c	0.25679862
107	0x3e5fcfa2	0.2185655
108	0x3e871643	0.26384172
109	0xbf0a2f8c	-0.539788
110	0xbe771c4a	-0.24131885
111	0x3e525925	0.20541818
112	0xbec3a184	-0.38209164
113	0xbe00e098	-0.12585676
114	0xbe04bb0d	-0.12961979
115	0xbe07987a	-0.13241759
116	0x3e053342	0.13007835
117	0x3ec7302f	0.3890395
118	0x3e53d9f1	0.20688607
119	0xbd97d68d	-0.07413969
120	0x3e3250af	0.17413591
121	0xbd50a3c4	-0.05093743
122	0x3e0346eb	0.12820022
123	0xbea9adbd	-0.33140364
124	0x3d68402e	0.05670183
125	0xbe479afb	-0.19492714
126	0xbe4160d6	-0.18884596
127	0xbd784e08	-0.06062129
128	0xbed98066	-0.42480773
129	0x3c4b893c	0.012422856
130	0x3e49e4f4	0.19716245
131	0x3de5911f	0.1120932
132	0x3e36186a	0.1778275
133	0x3db685d4	0.089122444
134	0x3d805150	0.06265509
135	0x3d111396	0.03541907
136	0xbda88b87	-0.08229738
137	0xbe799fce	-0.24377367
138	0x3d90d045	0.07070974
139	0xbec01560	-0.37516308
140	0x3e5acdab	0.21367519
141	0x3ece0aad	0.4024252
142	0xbe2b8995	-0.16751702
143	0xbe50e823	-0.20401053
144	0x3dc9bdbf	0.09850644
145	0xbd172639	-0.036901686
146	0xbd1341e6	-0.035951518
147	0xbdb1b701	-0.08677483
148	0x3e349084	0.17633253
149	0xbcb68ea4	-0.022284813
150	0x3ed55bd9	0.41671637
151	0xbe6c458b	-0.23073404
152	0xbd250179	-0.040284608
153	0xbe0a4c43	-0.13505654
154	0xbccef192	-0.025261674
155	0xbdc0345a	-0.09384985
156	0xbe846400	-0.25857544
157	0xbd776277	-0.060396638
158	0xbd20d93d	-0.039269675
159	0x3ec22b69	0.37923744
160	0xbe03977d	-0.12850757
161	0xbe63b0e3	-0.22235446
162	0xbe48e31b	-0.19617884
163	0xbd9f23ec	-0.077705234
164	0x3e30d571	0.17268921
165	0xbe9f3506	-0.3109514
166	0x3d5f055b	0.054448467
167	0xbd940676	-0.07227795
168	0xbe8e974f	-0.27849814
169	0xbe3a294a	-0.18179813
170	0xbe21f880	-0.15817451
171	0x3edd0281	0.43165973
172	0xba832370	-0.0010005068
173	0x3dadf783	0.08494475
174	0x3e2cf145	0.16888912
175	0xbd89afa4	-0.06722954
176	0xbf0b9bda	-0.54534686
177	0x3e3f888d	0.18704434
178	0x3ed54c58	0.41659808
179	0x3f05e692	0.5230495
180	0x3de2446a	0.11048205
181	0xbe008e34	-0.12554246
182	0xbdd80767	-0.10548287
183	0xbd7baf09	-0.061446223
184	0xbe2a7e10	-0.16649652
185	0xbe112751	-0.14175154
186	0x3ccaa2b7	0.024735792
187	0xbd92bacc	-0.07164535
188	0xbec84a1c	-0.3911904
189	0xbea8f19f	-0.32996842
190	0xbea529de	-0.32258505
191	0x3ea41e0d	0.32054177
192	0x3da443b7	0.08020728
193	0xbe06a3bf	-0.13148402
194	0x3ebef7e3	0.37298498
195	0xbea94915	-0.3306357
196	0xbe38d4e3	-0.1804996
197	0x3d3721b4	0.044709876
198	0xbe51d12e	-0.20489952
199	0x3e1a3aa8	0.15061438
200	0x3dfe8b4f	0.12428915
201	0x3e878c69	0.26474312
202	0xbdd70772	-0.10499467
203	0xbd8c141b	-0.06839772
204	0x3e03275d	0.12807985
205	0xbeb45f15	-0.35228792
206	0x3e936f67	0.2879593
207	0xbd6d1bc4	-0.057887807
208	0xbec135a7	-0.37736246
209	0x3eb7f231	0.35926965
210	0xba19e96f	-0.0005871271
211	0xbe57ba64	-0.21067196
212	0xbed4fd07	-0.41599295
213	0x3e1d0c0e	0.1533663
214	0xbcbcc970	-0.023045272
215	0xbdd0deaf	-0.101987235
216	0xbde133e5	-0.10996226
217	0x3e0dba12	0.13840511
218	0x3ed71da3	0.420148
219	0x3dba3716	0.09092538
220	0x3b278bf3	0.0025565594
221	0xbe933f41	-0.28759196
222	0x3dcd5a5a	0.10026999
223	0x3e9e0bbe	0.30868334
224	0xbd1103a0	-0.035403848
225	0xbee4ff27	-0.44725916
226	0x3e3dd8a2	0.1853967
227	0x3f234b76	0.6378702
228	0xbe5806cd	-0.21096344
229	0x3e501ba0	0.20323038
230	0xbcd379e2	-0.025814954
231	0xbea71626	-0.32634085
232	0x3cf40907	0.02978946
233	0x3e8842a6	0.2661335
234	0x3e2fce28	0.17168486
235	0xbe960513	-0.29300746
236	0xbe5202e9	-0.20508923
237	0xbcb662dd	-0.022263939
238	0x3a2416cb	0.00062595
239	0xbe9fb0b7	-0.3118951
240	0x3e01705f	0.12640522
241	0x3df0c9fc	0.117572755
242	0xbdb1d3b8	-0.0868296
243	0x3e254b21	0.1614194
244	0x3ecd5b75	0.4010884
245	0xbf3e10a4	-0.7424414
246	0x3c42d965	0.011892651
247	0x3ef2af3e	0.47399324
248	0xbe2bed15	-0.16789658
249	0xbd3c514c	-0.04597597
250	0xbd143aef	-0.036189016
251	0x3cdfa7f4	0.027301766
252	0x3d98549f	0.07438015
253	0xbe2b142d	-0.16706915
254	0x3dc49120	0.09597993
255	0x3e441062	0.19146875

actor.0.bias f4 [128]
0	0xbe9d3a9b	-0.30708775
1	0xbe374401	-0.17897035
2	0xbe9e192e	-0.30878586
3	0x3da4e80b	0.08052071
4	0xbeb801de	-0.35938925
5	0xbdddb3ac	-0.10825285
6	0xbd680841	-0.056648497
7	0x3c1fc69b	0.009751941
8	0x3dcf9cd3	0.10137334
9	0xbe6a7a97	-0.22898327
10	0xbe41e69b	-0.18935625
11	0x3db0fafe	0.08641623
12	0xbdde440a	-0.10852821
13	0xbe50cd7a	-0.20390883
14	0xbe0ebc27	-0.13938962
15	0x3d7c932c	0.06166379
16	0xbed39695	-0.41325822
17	0xbc80cfa7	-0.015724016
18	0x3e1c06e4	0.15237004
19	0xbea6d880	-0.3258705
20	0x3d02dd89	0.031949554
21	0xbe7fd58f	-0.2498381
22	0xbe7c8876	-0.2466143
23	0xbe9e7591	-0.3094907
24	0xbde1adfb	-0.11019512
25	0xbe8d1937	-0.275583
26	0x3daec450	0.085335374
27	0xbea1b655	-0.3158442
28	0x3e881dd8	0.2658527
29	0xbe7a4d48	-0.24443543
30	0xbeb485f7	-0.35258457
31	0x3d2ac4ea	0.041691698
32	0x3e626694	0.22109443
33	0x3d88f3ff	0.066871636
34	0xbe93c9ab	-0.28864798
35	0xbdbd1097	-0.0923168
36	0x3c58a717	0.013223431
37	0xbe666587	-0.22499667
38	0xbe8a7d5a	-0.2704876
39	0xbe84e093	-0.25952587
40	0xbef8c36a	-0.4858659
41	0x3dd03442	0.101662174
42	0xbb1e7978	-0.0024181288
43	0xbe5d0674	-0.21584493
44	0x3df6f5af	0.12058579
45	0x3d9729e5	0.073810376
46	0xbdb0fab2	-0.08641566
47	0x3d8bc6f1	0.068250544
48	0xbe217b1e	-0.15769622
49	0xbe17cd0f	-0.14824317
50	0xbde0b70f	-0.10972416
51	0xbe3acdeb	-0.18242614
52	0xbefb13e4	-0.49038613
53	0xbd54c584	-0.051946178
54	0xbe86d4b7	-0.26334164
55	0xbe573c64	-0.21019131
56	0xbe2226c2	-0.15835097
57	0x3dcbcfb3	0.09951725
58	0xbea183bc	-0.31545818
59	0x3dbd7bcf	0.0925213
60	0xbe371c54	-0.178819
61	0xbe486c21	-0.19572498
62	0xbe10378b	-0.14083688
63	0xbe7953a8	-0.24348319
64	0x3d228f46	0.039687417
65	0xbe9840f7	-0.29737064
66	0x3d12d411	0.035846774
67	0xbea8c31f	-0.32961366
68	0xbe224ce7	-0.15849648
69	0xbd39786e	-0.045280866
70	0xbe1ea879	-0.15493955
71	0xbec5e9c4	-0.38654912
72	0xbe137c1a	-0.1440281
73	0xbe03f81d	-0.12887616
74	0xbe4e95bc	-0.20174307
75	0x3e0d00a3	0.13769774
76	0xbe4eb37c	-0.20185655
77	0x3dcfa280	0.10138416
78	0xbe8c3fe8	-0.27392507
79	0x3d892139	0.0669579
80	0x3e519fab	0.20471065
81	0xbe4633b3	-0.19355659
82	0xbde8930e	-0.113561735
83	0x3e0512ac	0.12995404
84	0x3e5806a5	0.21096285
85	0xbe6e56c3	-0.23275284
86	0xbe4c270d	-0.19936772
87	0xbdb89981	-0.090136535
88	0xbee0ebee	-0.4393
89	0xbe3aad08	-0.18230069
90	0xbdc93c59	-0.098259635
91	0xbe3fa0df	-0.18713711
92	0xbe0f5c57	-0.14000069
93	0xbd1525ff	-0.03641319
94	0xbe730d5c	-0.23735565
95	0x3e5f5b7d	0.21812244
96	0xbe933901	-0.28754428
97	0xbe9bfe10	-0.30467272
98	0x3e3323ee	0.17494175
99	0xbd96e94c	-0.073687166
100	0x3d613db0	0.05499047
101	0x3e9a8419	0.30178908
102	0x3c460061	0.012085051
103	0x3d398245	0.04529025
104	0x3cbdc6bc	0.023166053
105	0xbe997922	-0.2997523
106	0xbe2a9406	-0.16658029
107	0xbe7e5bc7	-0.24839698
108	0x3e161cad	0.14659376
109	0xbe3b7607	-0.18306743
110	0x3ca08696	0.019595426
111	0x3ca198b3	0.019726133
112	0x3ddd41a3	0.10803535
113	0xbe88d9d8	-0.26728702
114	0x3d5a64be	0.05331873
115	0xbec3b689	-0.382252
116	0xbe88064f	-0.26567313
117	0xbe93c9ec	-0.28864992
118	0x3e8435af	0.25822207
119	0x3875b254	5.8578633e-05
120	0x3d0bb16b	0.034104746
121	0x3d64e1a3	0.055879246
122	0xbd5c3c37	-0.053768363
123	0xbe6bbb6f	-0.23020719
124	0xbe423699	-0.1896614
125	0xbd271a90	-0.040796816
126	0xbd833c95	-0.064080395
127	0x3ce6b424	0.02816207

actor.2.weight f4 [128, 128]
0	0xbb552bc8	-0.0032527316
1	0x3c279a2d	0.010229629
2	0xbdbcab16	-0.092123196
3	0x3df257d2	0.11833157
4	0xbb0e59db	-0.0021721039
5	0xbe819738	-0.25310683
6	0xbd88d850	-0.06681883
7	0x3d09b5a9	0.03362051
8	0xbd26c647	-0.040716436
9	0xbe2c2d18	-0.16814077
10	0xbd13e0d6	-0.036103092
11	0xbdfeadff	-0.12435531
12	0xbe76a91f	-0.24087952
13	0xbdc369a8	-0.09541637
14	0x3da1e9e4	0.07905939
15	0xbe4810b0	-0.19537616
16	0xbd87c8f3	-0.06630125
17	0xbd1e1b8a	-0.038600482
18	0xbdc4b851	-0.09605468
19	0xbe171a04	-0.14756018
20	0xbd86fd73	-0.0659131
21	0xbdb826b8	-0.0899176
22	0x3c858e36	0.016303163
23	0x3d9ca39d	0.07648394
24	0x3c85c157	0.016327543
25	0x3d8f8937	0.070085935
26	0xbea499e2	-0.32148653
27	0xbeb89be1	-0.36056426
28	0xbe77ad8a	-0.24187294
29	0xbe85c2bd	-0.26125136
30	0xbe0b4667	-0.13601075
31	0xbd993a66	-0.07481842
32	0xbc3246a4	-0.0108811
33	0xbd7ea69a	-0.062170602
34	0xbd7188ad	-0.058968235
35	0x3c265a4d	0.010153365
36	0x3e421b94	0.18955833
37	0xbea50046	-0.3222677
38	0xbde640e5	-0.112428464
39	0xbe467f38	-0.19384468
40	0x3cf3304a	0.029686112
41	0x3cbabc2b	0.022794804
42	0xbdb7ab45	-0.08968214
43	0xbe11a3f2	-0.14222696
44	0xbc9c17a0	-0.019054234
45	0xbdcd8e0d	-0.1003686
46	0x3de9ce6e	0.114163265
47	0x3ba6af3d	0.005086808
48	0xbe7bdd60	-0.24596167
49	0xbe046546	-0.12929258
50	0xbe7792e2	-0.24177125
51	0x3dcc9ad1	0.099904664
52	0xbe5950fa	-0.21222296
53	0xbb53a95d	-0.0032296993
54	0x3df4089b	0.11915704
55	0xbe39091a	-0.18069878
56	0xbe3ba8af	-0.18326066
57	0xbd648a36	-0.05579587
58	0xbe42eab5	-0.19034846
59	0xbe6b2484	-0.22963148
60	0x3e58a50f	0.21156715
61	0x3dc6543d	0.09684036
62	0xbb25d6ad	-0.0025304959
63	0x3d6b3080	0.0574193
64	0xbdda3a52	-0.10655655
65	0xbdf57dc4	-0.119868785
66	0xbeba2988	-0.3635981
67	0xbe7d76b3	-0.24752311
68	0xbea75974	-0.32685435
69	0x3e201f02	0.15636829
70	0x3df96baa	0.121787384
71	0x39d29e15	0.00040172102
72	0xbdb0429b	-0.08606454
73	0x3c9d6e60	0.01921767
74	0xbdeacf25	-0.11465291
75	0x3dc416eb	0.09574684
76	0xbd9eec83	-0.07759955
77	0xbdc7f24c	-0.09763011
78	0xbe369d92	-0.17833546
79	0x3dff88c1	0.124772556
80	0xbd19cbff	-0.03754806
81	0xbdda13db	-0.106483184
82	0xbd530611	-0.051519457
83	0xbe5e3651	-0.21700408
84	0xbce790cb	-0.028267285
85	0xbe1b20aa	-0.15149179
86	0xbdc70eb7	-0.097196035
87	0xbd937072	-0.071991816
88	0x3e129779	0.14315595
89	0x3dceba2f	0.100941055
90	0xbde39abd	-0.11113498
91	0xbe13d93b	-0.14438336
92	0x3e36da5b	0.17856734
93	0xbd2ac25f	-0.041689273
94	0xbdc9fd3c	-0.09862754
95	0x3d97a302	0.07404138
96	0xbe911f78	-0.2834432
97	0x3d4edab6	0.050501548
98	0xbe5bdf22	-0.21471837
99	0xbe7fbaa6	-0.24973544
100	0x3c9a56eb	0.018840274
101	0xbb614c64	-0.0034377808
102	0xbe5cad43	-0.21550469
103	0xbdac2fa8	-0.08407527
104	0x3af5ec08	0.0018762359
105	0x3ce60f86	0.028083574
106	0x3d986cde	0.0744264
107	0xbe063acc	-0.13108367
108	0x3c99ff10	0.018798381
109	0xbd5fd0e7	-0.054642584
110	0xbda346e1	-0.079725035
111	0xbde4d856	-0.11174075
112	0xbea25d21	-0.31711677
113	0x3cd3440b	0.025789281
114	0x3e567aa5	0.20945223
115	0xbdd0787c	-0.101792306
116	0xbe67db3b	-0.22642224
117	0x3e0dada9	0.13835777
118	0xbe95adac	-0.29234064
119	0xbde129aa	-0.10994275
120	0xbd444ebc	-0.04792665
121	0x3d414c37	0.047191825
122	0xbdbae230	-0.09125173
123	0x3d35b558	0.044362396
124	0xbe529cab	-0.20567577
125	0xbea3949a	-0.31949311
126	0x3db0c696	0.08631627
127	0xbe456e53	-0.19280367
128	0xbd205141	-0.03913999
129	0xbe6ff892	-0.23434666
130	0xbe7e40a3	-0.24829344
131	0xbe3e5d71	-0.18590333
132	0xbdeb54a8	-0.11490756
133	0xbde2dacf	-0.11076891
134	0xbe141005	-0.14459236
135	0xbe5bb509	-0.21455778
136	0xbe3f8fcb	-0.18707196
137	0x3d8a0e1d	0.06740973
138	0x3d615f57	0.055022564
139	0xbec2e7e5	-0.38067546
140	0xbebfc179	-0.37452295
141	0xbebc0b6a	-0.36727458
142	0xbd86edd3	-0.0658833
143	0xbd0812a0	-0.033220887
144	0xbda82533	-0.0821022
145	0xbebe6db6	-0.37193078
146	0x3d80977a	0.06278892
147	0xbe418cd9	-0.18901385
148	0xbde3fb84	-0.11131957
149	0xbdbb5bd4	-0.09148374
150	0xbeb4dcac	-0.3532461
151	0x3d173679	0.036917184
152	0xba52f3bc	-0.00080471835
153	0x3c960a5e	0.01831549
154	0xbd93419a	-0.07190247
155	0xbe10cc56	-0.14140448
156	0xbdba8cb3	-0.091088675
157	0xbf26e42c	-0.6519191
158	0xbd2d3b25	-0.042292733
159	0xbe00bc3d	-0.12571807
160	0x3dab0182	0.08349897
161	0xbe52cfc5	-0.2058707
162	0xbdf0a4a1	-0.117501505
163	0x3d5e3e1c	0.05425845
164	0xbde3ed27	-0.111292176
165	0xbc95109e	-0.0181964
166	0xbea57b5b	-0.32320675
167	0xbd89612c	-0.06707987
168	0xbcbeda4a	-0.023297448
169	0x3adcab19	0.0016835659
170	0xbdb7d4f4	-0.089761645
171	0xbea98b3a	-0.33114034
172	0xbe078857	-0.13235603
173	0xbea3de13	-0.32005367
174	0x3dce7b9d	0.10082171
175	0xbe9a78f8	-0.30170417
176	0x3dad4d8d	0.08462057
177	0xbe480a82	-0.19535258
178	0xbdf6c579	-0.12049384
179	0xbd4b76a3	-0.049673688
180	0xbe6e8f45	-0.2329684
181	0x3d8bcb3d	0.06825874
182	0x3c8f9a21	0.01752955
183	0x3d4eab32	0.050456233
184	0x3d2aac7c	0.0416684
185	0x3d383549	0.04497269
186	0xbd78d7e9	-0.060752783
187	0xbd1e0a08	-0.038583785
188	0xbdf83631	-0.12119711
189	0x3ca33e34	0.019927122
190	0x3ca38fe6	0.019966077
191	0x3dc81159	0.09768934
192	0x3d990f7a	0.07473655
193	0x3e8c2c10	0.27377367
194	0xbe5a04a0	-0.21290827
195	0xbe5e30e0	-0.21698332
196	0xbe109dfd	-0.14122768
197	0x3d600387	0.054690864
198	0x3e02d1b4	0.12775308
199	0xbe21ea09	-0.15811934
200	0xbe805304	-0.25063336
201	0xbec21cd3	-0.37912616
202	0xbe5b452a	-0.21413103
203	0x3dca01af	0.09863602
204	0xbe0ae6f9	-0.13564672
205	0xbd71e348	-0.059054643
206	0xbe2c1b88	-0.16807377
207	0x3cd2d4e4	0.02573628
208	0xbece5a69	-0.40303352
209	0x3d77caac	0.060496017
210	0xbe4d0ac4	-0.20023638
211	0x3de6665c	0.11249992
212	0xbe1d1c8e	-0.15342924
213	0xbe8bb656	-0.2728755
214	0xbcf8f3c0	-0.030389667
215	0xbdc79eca	-0.097470835
216	0xbd1ea8b3	-0.038735103
217	0xbd4b3d50	-0.04961902
218	0xbdcd8bff	-0.10036468
219	0x3cba0355	0.022706667
220	0x3c372645	0.011178558
221	0xbe541cd1	-0.20714118
222	0xbe8a469e	-0.27007002
223	0xbd44f99b	-0.048089605
224	0xbe6df111	-0.23236491
225	0xbe73cf10	-0.23809457
226	0xbd9df8e2	-0.07713486
227	0xbdf6c646	-0.120495364
228	0xbd8c29f3	-0.06843939
229	0x3bb87df6	0.00563025
230	0xbe3b5b6f	-0.18296598
231	0xbdcffa3a	-0.10155149
232	0x3e070532	0.13185576
233	0xbca43825	-0.020046303
234	0x3dfbcc66	0.12294845
235	0x3ad67641	0.0016362147
236	0x3c1688e6	0.009187913
237	0xbdc74e0f	-0.09731685
238	0x3d61ce0f	0.055128153
239	0xbb23ed0e	-0.0025013122
240	0xbe8e9eb5	-0.2785546
241	0x3db1deac	0.086850494
242	0x3e36801e	0.1782231
243	0xbe2439fa	-0.16037741
244	0x3d805afe	0.062673554
245	0x3e02f1e3	0.12787585
246	0xbe3c4a3d	-0.18387695
247	0x3d59a24a	0.053133287
248	0xbe30e111	-0.17273356
249	0x3b83d406	0.004023078
250	0x3e3f8413	0.18702726
251	0xbe3fce51	-0.18731047
252	0x3d76d22a	0.06025902
253	0xbd07f7c1	-0.03319526
254	0x3d8158d8	0.06315774
255	0x3b6e1c80	0.0036332905

actor.2.bias f4 [128]
0	0xbdccf457	-0.100075416
1	0x3dd6f728	0.1049636
2	0xbd24302c	-0.040085003
3	0xbd9ee253	-0.07758012
4	0xbd0989bc	-0.03357862
5	0xbe0bd843	-0.13656716
6	0x3c050e4b	0.0081210835
7	0xbe3914d1	-0.18074347
8	0xbdd0fafe	-0.10204123
9	0x3b59031d	0.0033113428
10	0xbdfee885	-0.12446693
11	0xbdc795d6	-0.09745376
12	0x3e7b01a4	0.24512345
13	0x3da11b48	0.078665316
14	0xbd7860d5	-0.06063922
15	0x3e18fb30	0.1493957
16	0xbe196722	-0.14980748
17	0x3cbddf3a	0.023177732
18	0xbdb7e775	-0.08979694
19	0xbd8888a2	-0.06666686
20	0x3ce725d9	0.02821629
21	0x3e814180	0.25245285
22	0xbde668e9	-0.11250479
23	0x3b9ad65f	0.004725262
24	0xbdad30f1	-0.084566005
25	0xbc3c8df8	-0.011508457
26	0x3db9bb77	0.09068959
27	0x3e725499	0.23665084
28	0xbd8af9cd	-0.06785927
29	0xbba040ba	-0.0048905285
30	0x3e24b987	0.16086398
31	0xbc0fe090	-0.008781567
32	0xbd6a056c	-0.057134077
33	0x3e195cd4	0.14976817
34	0xbde030f6	-0.109468386
35	0x3da17d5f	0.07885241
36	0xbc89a3e6	-0.016801786
37	0xbdbf078f	-0.093276136
38	0xbe0fdd1d	-0.14049192
39	0xbe46536c	-0.1936776
40	0xbd7cdb2d	-0.06173246
41	0xbe173645	-0.14766796
42	0x3dcc916c	0.099886745
43	0x3d21763b	0.039419394
44	0xbe612a62	-0.21988824
45	0x3ddad650	0.10685408
46	0xbe2d81d8	-0.16944063
47	0xbdfb1166	-0.12259178
48	0x3c85c8fc	0.016331188
49	0x3dcd7d32	0.10033645
50	0xbdb0fef7	-0.08642381
51	0x3df4e056	0.11956851
52	0xbde38918	-0.11110133
53	0x3e634da3	0.22197585
54	0xbe00d5c0	-0.12581539
55	0x3d6bc960	0.057565093
56	0xbd3f1090	-0.046646655
57	0x3e78e3c2	0.24305633
58	0x3dcfab35	0.10140077
59	0xbd36a56a	-0.044591345
60	0x3e5358db	0.20639364
61	0xbc897554	-0.01677958
62	0x3d841c68	0.064507306
63	0xbdcb01fb	-0.09912487
64	0x3e51e537	0.20497595
65	0x3cf2ba68	0.029629901
66	0xbe2a5f0c	-0.1663782
67	0xbcac6eb4	-0.021048881
68	0xbbc4b59e	-0.006003096
69	0xbdc98731	-0.09840239
70	0x3e3f675f	0.18691777
71	0xbce1a607	-0.027544988
72	0x3c6c125d	0.014408675
73	0xbdbf9643	-0.09354832
74	0x3e244a4b	0.16043966
75	0x3d016f01	0.031600002
76	0xbe82b976	-0.2553212
77	0xbda17131	-0.07882918
78	0xbe2ac2dd	-0.16675897
79	0x3e2242e2	0.15845826
80	0x3c811536	0.015757184
81	0x3e143e60	0.14476919
82	0xbdb208ff	-0.08693122
83	0xbc317268	-0.010830499
84	0xbe2bf98b	-0.16794412
85	0xbe26eb07	-0.16300593
86	0xbe0cf73b	-0.13766186
87	0xbe63e0b1	-0.22253682
88	0x3cb599d3	0.022168076
89	0x3d1aecc7	0.037823465
90	0x3d9d9c9e	0.07695888
91	0x3e2251fa	0.15851584
92	0x3dfc910b	0.12332352
93	0x3dd69229	0.104770966
94	0xbe0c8084	-0.137209
95	0xbdac404d	-0.08410702
96	0x3c10e61a	0.008843923
97	0xbdadc0db	-0.0848405
98	0xbbef795d	-0.007308169
99	0x3e79e0cc	0.2440216
100	0x3d13a5fb	0.036046963
101	0x3d1611d1	0.036638085
102	0xbdea1792	-0.11430277
103	0xbce79f56	-0.02827422
104	0x3d53752e	0.051625423
105	0xbd5bf019	-0.05369577
106	0xbd8046e9	-0.06263525
107	0x3e562c07	0.20915233
108	0xbdeb6f0d	-0.11495791
109	0xbde98cc1	-0.114038
110	0xbd5fb101	-0.054612163
111	0x3cd17f8d	0.025573516
112	0xbe9810d2	-0.29700333
113	0x3d797976	0.06090685
114	0xbce995aa	-0.028513748
115	0xba97a282	-0.0011568817
116	0xbcfadefa	-0.030623902
117	0xbd0c6a44	-0.03428103
118	0x3d04f08f	0.032455977
119	0xbdea6460	-0.11444926
120	0xbd493d0c	-0.049130484
121	0xbdad5c7e	-0.08464907
122	0xbd070d23	-0.032971513
123	0xbdd4fc33	-0.10399666
124	0xbe05ac17	-0.13053928
125	0x3e2209bb	0.15824024
126	0x3d9e25cf	0.07722055
127	0x3c383c7c	0.011244889

mean.weight f4 [6, 128]
0	0x3da2b1d3	0.079440735
1	0xbdeb0e76	-0.114773676
2	0xbdb4bf57	-0.08825558
3	0xbe299bf4	-0.16563398
4	0xbe0f3fc7	-0.13989173
5	0xbd85ba2d	-0.06529651
6	0xbcb99f53	-0.02265898
7	0x3d63d7ad	0.055625606
8	0x3d65b0d8	0.056076854
9	0xbb12c642	-0.0022396003
10	0xbdad6f98	-0.084685504
11	0x3d97260c	0.07380304
12	0x3eb9cd5d	0.36289492
13	0x3df01c63	0.11724164
14	0xbd790458	-0.06079516
15	0x3dd517b3	0.10404911
16	0x3c950233	0.018189525
17	0x3e050fbf	0.12994288
18	0x3d82d4d2	0.063882485
19	0xbe08e4c8	-0.13368523
20	0xbdb5ce9c	-0.08877298
21	0x3d8f515f	0.06997942
22	0xbda61ec5	-0.081113376
23	0xbda5362b	-0.08066972
24	0x3dc8e5bb	0.098094426
25	0x3ea5c923	0.32380018
26	0xbc38ca5b	-0.011278714
27	0x3e389355	0.18024953
28	0xbe4b9553	-0.19881181
29	0xbb928dd9	-0.004472476
30	0x3d9a9cba	0.075494245
31	0x3d5a7e5e	0.05334317
32	0xbe0eef74	-0.13958532
33	0x3e38452c	0.17995137
34	0xbd955c8b	-0.07293042
35	0x3d895e73	0.06707468
36	0x3e0b1af2	0.13584498
37	0xbe0ad81b	-0.13559
38	0xbe0a8f64	-0.13531262
39	0xbe694520	-0.22780275
40	0xbdd9590a	-0.10612686
41	0xbc408183	-0.011749628
42	0x3e6ab391	0.22920062
43	0x3db21b29	0.08696587
44	0xbe71e7a8	-0.23623526
45	0xbd29dc04	-0.04146959
46	0x3d3c83e3	0.046024214
47	0x3dca30d3	0.09872594
48	0xbce2a0af	-0.02766451
49	0x3bbe7475	0.0058122226
50	0xbe46d2cb	-0.19416349
51	0x3d4731b2	0.048631378
52	0x3df8b25f	0.121433966
53	0x3e125567	0.14290391
54	0xbdd2ad3c	-0.10286948
55	0xbd427c4f	-0.04748183
56	0x3e68f648	0.22750199
57	0x3ea103ee	0.3144831
58	0xbe35371b	-0.17696802
59	0x3e33dd5c	0.1756491
60	0x3d782846	0.060585283
61	0xbd141dd8	-0.036161274
62	0x3e05d8f4	0.13071042
63	0x3e035930	0.12826991
64	0x3cb92e3e	0.022605058
65	0x3c6d62b4	0.014488865
66	0xbcb7997f	-0.02241206
67	0xbe09ecc7	-0.1346923
68	0x3c690a87	0.014223701
69	0x3cba5821	0.022747101
70	0xbd31fc4f	-0.04345351
71	0xbe3ab5f9	-0.1823348
72	0x3d2b61cb	0.04184131
73	0xbd192605	-0.037389774
74	0x3e1fd9e9	0.1561047
75	0xbd311e97	-0.043242063
76	0xbdcb29a2	-0.0992005
77	0xbd5a1366	-0.053241156
78	0xbd84db20	-0.06487107
79	0xbd9e1188	-0.077181876
80	0xbdf9c60c	-0.121959776
81	0x3e124365	0.14283521
82	0x3da500e6	0.08056812
83	0x3d11276b	0.035437983
84	0xbd1f6ee7	-0.038924124
85	0xbd0b7137	-0.034043517
86	0x3b96ad5e	0.0045983037
87	0xbe884ef4	-0.26622736
88	0x3eba0204	0.36329663
89	0x3e679b5e	0.22617862
90	0x3e7105ac	0.2353732
91	0xbcb9e2b5	-0.02269111
92	0x3eb39f12	0.350823
93	0x3dee2d97	0.11629789
94	0xbd8a957f	-0.06766795
95	0x3c5e9219	0.013584637
96	0xbe12a49f	-0.1432061
97	0xbe24ad16	-0.16081652
98	0xbdb11f7a	-0.08648582
99	0x3d6247fe	0.05524444
100	0xbdf556f0	-0.11979473
101	0x3d2220dd	0.039582122
102	0x3d97afd7	0.07406586
103	0x3d51ad55	0.051190693
104	0xbd86c145	-0.06579832
105	0x3deb7536	0.114969656
106	0x3d4f068f	0.050543364
107	0x3eabf479	0.33584955
108	0x3e65987c	0.2242145
109	0x3d2cc648	0.042181283
110	0xbe63224c	-0.22181052
111	0x3e86af16	0.26305455
112	0x3c0e6d81	0.0086931
113	0x3e396dd2	0.181083
114	0xbe710a23	-0.23539023
115	0x3e3f2a2e	0.18668434
116	0xbdc32369	-0.09528238
117	0xbcad4787	-0.021152271
118	0x3de0897f	0.10963725
119	0x3d69e147	0.057099607
120	0x3e3a6509	0.18202604
121	0xbe3c235e	-0.18372867
122	0xbdd72d5e	-0.105067
123	0x3e1839ed	0.14865847
124	0x3dca7c67	0.09887009
125	0x3e23d958	0.16000879
126	0x3da0640e	0.07831584
127	0x3a805211	0.0009790083
128	0xbd1bea45	-0.038065214
129	0x3e5df68b	0.2167608
130	0x3d1d5604	0.03841211
131	0xbda7af84	-0.08187774
132	0xbe3a6b76	-0.18205056
133	0xbdaf5099	-0.08560295
134	0xbde46525	-0.11152104
135	0xbde351c3	-0.11099579
136	0x3cbf79ca	0.023373503
137	0xbe89668c	-0.2683605
138	0x3df700c8	0.12060696
139	0x3e125850	0.14291501
140	0x3d7d4d97	0.061841574
141	0x3de92524	0.11384037
142	0xbd914c30	-0.0709461
143	0xbe099ef9	-0.1343955
144	0x3defb23b	0.11703917
145	0x3d58ad88	0.052899867
146	0x3e308f70	0.17242217
147	0xbc92b79b	-0.017909816
148	0x3d9745e9	0.07386381
149	0xbd070187	-0.03296044
150	0xbd9abc53	-0.07555451
151	0x3ea4cc85	0.32187286
152	0xbd7b1018	-0.061294645
153	0x3df6b798	0.120467365
154	0x3e0116d6	0.12606367
155	0x3e419a62	0.18906549
156	0xbcf56aa1	-0.029958071
157	0xbdd3190a	-0.1030751
158	0x3e0584ed	0.13038988
159	0x3d596922	0.053078778
160	0xbe29c760	-0.16579962
161	0x3d3dcd20	0.0463382
162	0x3dc6bdaf	0.09704148
163	0x3d7081b6	0.058717452
164	0xbd99f153	-0.07516732
165	0xbb7df711	-0.0038752
166	0x3e2f5bee	0.17124912
167	0xbdf137cc	-0.117782205
168	0x3ddac1f0	0.10681522
169	0xbeac694d	-0.33674088
170	0xbcd3ce1a	-0.025855113
171	0xbe539ff2	-0.20666483
172	0x3db83947	0.089953
173	0x3da1d85f	0.07902598
174	0x3e8eb031	0.27868798
175	0x3e21b043	0.15789895
176	0x3da2922c	0.07938036
177	0x3e707f22	0.23485997
178	0xbdbb62e8	-0.09149724
179	0x3def84db	0.11695262
180	0x3c834ffb	0.016029349
181	0x3deb7103	0.11496165
182	0xbe34d96c	-0.17661065
183	0x3e30a1a3	0.1724916
184	0xbdc7d60f	-0.09757625
185	0x3dc18fb6	0.09451239
186	0x3cc9ca0a	0.024632473
187	0x3e806b03	0.25081643
188	0xbc99f7d8	-0.018794939
189	0xbdcf0b43	-0.1010957
190	0xbe3e42e9	-0.18580212
191	0xbea29bf8	-0.3175962
192	0xbe5d3428	-0.21601927
193	0x3e561b3d	0.20908828
194	0x3e30c8ba	0.17264071
195	0xbd83f414	-0.064430386
196	0x3e6c2479	0.23060788
197	0x3da0fd02	0.078607574
198	0xbd15a7ad	-0.03653686
199	0xbdb81219	-0.08987827
200	0xbe211507	-0.15730678
201	0x3ec5d84a	0.38641578
202	0xbcf6673a	-0.03007852
203	0xbd7221e4	-0.059114352
204	0xbe14e3c7	-0.14540015
205	0x3eac5b2c	0.3366331
206	0xbe9f4a30	-0.31111288
207	0x3e81ec70	0.253757
208	0x3d75c947	0.060006406
209	0x3cd3f4b1	0.025873514
210	0x3dc91c19	0.09819812
211	0x3db6d432	0.08927192
212	0xbdbb801a	-0.09155293
213	0x3dc7ad9b	0.097499095
214	0x3c868b14	0.01642374
215	0xbe2a0eaf	-0.16607164
216	0x3de4646f	0.11151969
217	0x3df96b37	0.12178653
218	0x3d8c6c6a	0.06856616
219	0x3d88a45f	0.06671976
220	0xbe016ef6	-0.12639984
221	0xbcc91c65	-0.024549672
222	0x3ca924c6	0.020647418
223	0x3e1cd738	0.15316474
224	0xbe209c44	-0.1568461
225	0xbdfc93b3	-0.12332859
226	0x3b0165f6	0.0019744611
227	0xbcc64226	-0.024201464
228	0x3d0d7296	0.034533106
229	0xbe7a579a	-0.2444748
230	0xbe5fffe3	-0.21874957
231	0xbc294bb9	-0.010332995
232	0x3c030816	0.007997533
233	0x3d2501d2	0.04028494
234	0xbe1393a8	-0.14411795
235	0x3e6ed915	0.23324998
236	0x3c8dd978	0.017315611
237	0xbe006339	-0.1253785
238	0xbd0ca22e	-0.034334354
239	0x3d4b0b80	0.049571514
240	0x3ddcc93b	0.10780569
241	0x3ad6f2a9	0.0016399223
242	0x3d8875a7	0.066630654
243	0xbe499709	-0.19686522
244	0x3e5a5413	0.21321134
245	0x3dc0c1d4	0.0941197
246	0x3eb694a2	0.35660273
247	0x3e11faca	0.14255825
248	0xbddc4d2b	-0.10756906
249	0xbe806048	-0.25073457
250	0xbd168679	-0.036749337
251	0xbdf53bef	-0.11974322
252	0xbe3de8eb	-0.18545882
253	0x3e5139f0	0.20432258
254	0xbda9fc8c	-0.083001226
255	0x3e508b5f	0.20365666

mean.bias f4 [6]
0	0x3de2707e	0.110566124
1	0x3d7cdfcb	0.061736863
2	0x3dc76680	0.09736347
3	0x3d78f3eb	0.060779493
4	0x3e1c9e11	0.15294673
5	0xbd87f79c	-0.066390246
