saved_models/initial_critic_20241125_215723.pth (torch, 78766 bytes, 5 tensors)

critic.0.weight f4 [128, 17]
00000000: 3471 da3d 5eb1 013e 786a 52bd 12cb dabd
00000010: f6d9 bbbd 706f c0bd 6870 1c3d 606c 8a3d
00000020: 3ea2 1ebe 984d 58be 8433 493e 007d 4abc
00000030: 838d 24be 1894 0fbe 3acb 39be 80a1 553d
00000040: 1260 633e c067 123e 6c0a 403e 1a10 91bd
00000050: f87d 8f3d 403e 3ebe ac1a 353e c22e 36be
00000060: 9274 72be e036 713d c007 d93c 3c09 25be
00000070: 4c86 223e 6683 f8bd e0b6 55be dee7 603e
00000080: a0e7 d03d 7845 cdbd 988e 9fbd 05e3 77be
00000090: bc65 ae3d 6c0e 0c3e 0068 683e d08c 3b3d
000000a0: 8056 873a a039 723e 3e20 2cbe 4625 b8bd
000000b0: 70aa d03d e485 6cbd 9a46 2a3e 4426 1a3e
000000c0: bc3a 363e c038 c2bb 18a3 dabc 246f c13d
000000d0: e0d2 de3d 7aca 673e 106f 313d 3527 1cbe
000000e0: 14ce c23d 8090 32bc 401a 11bc 2834 40be
000000f0: 5654 0cbe 4683 4fbe e856 723d a8da e5bd
00000100: 49be 2cbe a01f 07be de38 28be f8b9 ebbc
00000110: 6958 77be c828 45bd 4dd7 5bbe 70b5 cc3d
00000120: 406a 123e 12be 403e 9674 233e acef 24be
00000130: 7ab9 f1bd b859 1cbd 35b2 61be ba70 123e
00000140: 8635 523e 72f6 653e 765d 13be 92fb 77be
00000150: 6a87 5d3e 8c17 18be 885a 90bd 6056 dfbb
00000160: 5041 d43d 9472 033e 041a 523e d07c bdbc
00000170: 20ac 02be 802a c8bd 7012 363d 465d cbbd
00000180: d432 ad3d 3215 87bd 88b8 b9bd 8a0f 563e
00000190: dcd7 38bd 9084 c73d 58a7 ae3d f03b edbc
000001a0: d033 133e a0e9 6a3e 100e 2a3e 449d b63d
000001b0: 444a 973d 941e f93d 20a1 433d 1022 25be
000001c0: a093 323e 98f1 e83d edab 48be 4802 acbd
000001d0: fc70 5b3e 834a 49be c034 7ebb 6a7e 4b3e
000001e0: a82c 003d dec1 46be d2b8 653e 20d6 993c
000001f0: fada 613e 40a1 6ebe e82a 303e 167c 0c3e
00000200: 8640 9cbd a2d4 4abe 28f4 113d 3003 9d3d
00000210: 2252 12be 3ad8 11be 7452 5b3e 7d0d 72be
00000220: 8ca4 673e 727d 703e 3172 08be 90a3 a2bd
00000230: a0c4 aa3d 5ca5 45bd 482f 98bc 60d2 be3d
00000240: 942e 93bd ac3e e63d 5cd2 d23d 70de 71bd
00000250: c02e fc3c c5b2 39be 2ccd 2d3e 73bb 20be
00000260: f8a5 0a3e 4806 1a3d 90ee 9ebc 38ae 3f3d
00000270: 6ea1 603e a89d 6d3d aae5 4d3e 2e6a 453e
00000280: 0003 6dba 5c17 013e 68f2 b03d 5895 16bd
00000290: 2e47 eebd 82cf 6ebe 8850 303d 24b8 fd3d
000002a0: 47c1 5ebe 0e16 543e ec6c 0bbe 5ece c4bd
000002b0: faee aebd b564 60be de61 0abe 40a9 20be
000002c0: 7095 823c 1070 b53c c875 ba3d 246b 253e
000002d0: 00bf f93d 06ec 50be 1a5f 57be 58b2 653d
000002e0: 3043 fb3d 4af8 64be 5227 113e a603 eebd
000002f0: 2cb3 ccbd 0411 863d 8f6d 6ebe 1cd9 a63d
00000300: d84c 0e3d e3fc 12be 38c2 70be 06a4 3ebe
00000310: b43f 45be 9a12 05be aee1 a1bd a0f2 e6bb
00000320: d8d6 b63d e6c5 463e 7519 fcbd 0ee2 b8bd
00000330: e258 c1bd 54d0 20bd 7430 43be 6029 493e
00000340: d264 d7bd f836 bf3d 6604 273e a202 473e
00000350: 5631 d6bd a819 8f3d 4016 bb3b 92e0 3e3e
00000360: 38c3 bd3d fa26 193e 94f3 1abd fc17 6cbe
00000370: 88c3 403d 185c 5a3e 54ea 003e 30a6 fc3d
00000380: 6834 89bd b826 763d c011 22bd c28c 4fbe
00000390: 3836 aabd 2c28 233e 9829 67be 62b4 6a3e
000003a0: 9003 45be 8450 283e b425 2dbe c0f7 273d
000003b0: 68d4 eabd 50b4 43bd f617 023e f13a 33be
000003c0: a891 b7bc 689f 5cbe 0a73 1d3e fc75 ecbd
000003d0: 0eb0 5c3e b09f 68bd 3c07 c33d e0c8 d83c
000003e0: 508e 81bc 6050 083d e00d 203e cced ca3d
000003f0: 9457 513e a0a1 833d 48a1 aa3d 9019 893c
0.10666123 0.12665316 -0.051371068 -0.10683264 -0.09172432 -0.09396255 0.038193136 0.06758952
-0.15491578 -0.2112335 0.19648558 -0.012358904 -0.16069607 -0.14021337 -0.18143931 0.05215597
0.22204617 0.1429739 0.18753976 -0.07083149 0.070064485 -0.18578434 0.17685956 -0.17791274
-0.2367728 0.058890224 0.026492953 -0.16116804 0.15871543 -0.12134437 -0.20870543 0.2196345
0.10200429 -0.10023016 -0.077908695 -0.24207695 0.08515498 0.13677377 0.22695923 0.045788586
0.0010325462 0.23654795 -0.16809174 -0.08991484 0.101887584 -0.057744876 0.16628495 0.1505366
0.17795843 -0.0059271753 -0.026689097 0.094450265 0.10880065 0.22635832 0.043318808 -0.15249331
0.095119625 -0.010898709 -0.008856356 -0.18769896 -0.13704047 -0.2026492 0.05916491 -0.11223346
-0.16869463 -0.13195658 -0.16427943 -0.0287752 -0.2415482 -0.048134595 -0.2146885 0.09995544
0.14298344 0.18822506 0.15962443 -0.16107053 -0.11802955 -0.0381715 -0.22040637 0.14300814
0.2052823 0.22457293 -0.14391121 -0.2421706 0.21633688 -0.14852732 -0.070485175 -0.0068157166
0.1036402 0.12836677 0.20517737 -0.023130804 -0.12760973 -0.09773731 0.044451177 -0.099299
0.0845696 -0.065958396 -0.090684 0.20904365 -0.045127735 0.09742081 0.08528012 -0.028959244
0.14375234 0.22940683 0.16606927 0.08916715 0.07387212 0.121640354 0.047761083 -0.16126275
0.17439127 0.11374205 -0.19596834 -0.083988726 0.21429819 -0.1965733 -0.0038788766 0.19872442
0.031292588 -0.19409892 0.22433785 0.01877886 0.22056189 -0.233037 0.17203867 0.1371921
-0.07629494 -0.19807675 0.035633236 0.076666236 -0.14289144 -0.1424264 0.21418172 -0.23637958
0.22621363 0.23485354 -0.1332481 -0.07941353 0.083382845 -0.048253402 -0.018577233 0.093174696
-0.071866184 0.112424225 0.10294029 -0.059050024 0.03078401 -0.18134601 0.16972798 -0.15696506
0.13539875 0.037603647 -0.019400865 0.046797007 0.2193658 0.05801168 0.20107141 0.19278786
-0.00090412796 0.12606567 0.08639985 -0.03676352 -0.1163467 -0.23321345 0.04304555 0.12388638
-0.21753417 0.20711538 -0.13615769 -0.09609674 -0.08541675 -0.21913417 -0.13513896 -0.15689564
0.015940398 0.022148162 0.09104496 0.16154152 0.121946335 -0.20402536 -0.21032372 0.056078285
0.122686744 -0.2236034 0.14175156 -0.1162179 -0.09995112 0.06546214 -0.23283981 0.08146879
0.034741253 -0.14354281 -0.23511589 -0.18617257 -0.19262582 -0.12995377 -0.07904373 -0.007047966
0.08927697 0.1941143 -0.12309543 -0.090274915 -0.09440781 -0.039261177 -0.19061452 0.1964469
-0.10517277 0.09336656 0.16310272 0.19434598 -0.10458629 0.069873154 0.0057094395 0.18640354
0.09265751 0.14956275 -0.03782995 -0.23056024 0.047061473 0.21324193 0.12589389 0.12336385
-0.06699449 0.06009552 -0.03956771 -0.20268539 -0.08311123 0.15933293 -0.2257446 0.22920373
-0.1923964 0.16436964 -0.16908914 0.041007757 -0.114662945 -0.04777938 0.12704453 -0.17502953
-0.022408321 -0.21545184 0.15375915 -0.11545941 0.21551535 -0.056792915 0.09522864 0.026462972
-0.01581493 0.033279777 0.15630293 0.099086374 0.20443565 0.06427312 0.08331543 0.016735822

critic.0.bias f4 [128]
00000000: 6ad9 1bbe 2608 0c3e 7eb5 333e 80f4 ba3c
00000010: c007 2e3e 0671 e4bd 2429 a2bd 6efd f6bd
00000020: 28e4 803d 7f38 49be ec22 e53d 7413 20bd
00000030: 7061 773e 8763 48be 9227 043e 6568 3bbe
00000040: 553c 72be 6e1d 17be 04cf 223e f87c 4f3d
00000050: 0880 2e3e a4ae 803d 9071 283e 3a3b adbd
00000060: 68fc 313d 9cc3 42be 7c94 923d 5093 163d
00000070: 00ca 51bb ee42 a5bd 58e4 053d aa21 1c3e
00000080: 3dbb 28be c039 b4bd 801e 70be baca d9bd
00000090: 7af4 213e c28d 213e 4c64 683e ce51 783e
000000a0: 444d a53d 40db 05bc 76c6 4d3e f028 2dbc
000000b0: e4f8 1dbe 4428 5dbe aae7 0b3e b444 2d3e
000000c0: a48e 7bbd c0ba 653e e0eb 1a3c 5e50 3e3e
000000d0: 86ec 033e e36e 1fbe 5ef2 24be 9003 b33c
000000e0: f0e8 9e3d 1038 d33d 7f2c 4cbe ac4b c13d
000000f0: 2801 213e 5c8e 153e f4c8 edbd 9e93 23be
00000100: cb9e 3fbe d435 013e 4dce 53be 147f 833d
00000110: a86d 8fbc e695 443e c272 a7bd c0b3 8d3b
00000120: 0c22 2ebe 0cfa 08bd a0d8 e6bd 5cbb 6fbe
00000130: c073 fbbc 82ac 1f3e e829 15be 669e 6dbe
00000140: 1038 e83d a033 d1bc 5c5d 4ebe 66bc 40be
00000150: c0b6 5d3e c0b9 183d d6b2 1cbe 4029 6bbc
00000160: 763f 30be 7857 823d babe 6f3e 2887 6b3e
00000170: ca5c 12be 56d1 4e3e 0af2 a5bd cecc 283e
00000180: 243d 0cbe 32fb 163e c01e 6ebd 6ca4 eb3d
00000190: 5cd5 9b3d 5015 1c3d 6a52 5d3e ccb2 e8bd
000001a0: 3490 9abd d073 143e 588b 713d d070 14be
000001b0: 4e6c 1ebe 9421 f23d 38b9 523e 48f8 f73d
000001c0: 14ab d73d 280d 643d d215 593e c650 1dbe
000001d0: 90ef e1bd 56ed ecbd d634 053e 20d6 a3bb
000001e0: d26b 3ebe 30a9 0abe 285c d93d f0c4 c43d
000001f0: ec03 fb3d 20e0 4f3d 006a 9b3c 8e1b 39be
-0.15219656 0.13674983 0.17549703 0.022821665 0.16995144 -0.1115437 -0.07918003 -0.120600566
0.06293517 -0.19650458 0.111883014 -0.039081052 0.24158263 -0.19569217 0.1290572 -0.18301542
-0.23655827 -0.1475732 0.15899283 0.05065629 0.17041028 0.0628331 0.1644957 -0.08458562
0.043453604 -0.19019932 0.071572274 0.036761582 -0.003201127 -0.080694064 0.03268847 0.15247217
-0.16477676 -0.088000774 -0.23449135 -0.1063437 0.15815917 0.15776733 0.2269451 0.24249956
0.08071378 -0.008169949 0.20095238 -0.010568842 -0.15426975 -0.21597391 0.13662592 0.1692074
-0.06141533 0.2243452 0.009455651 0.18585345 0.12883195 -0.15569644 -0.1610808 0.021852285
0.07759273 0.103134274 -0.19938849 0.094382614 0.15723097 0.14605087 -0.116105944 -0.1597428
-0.18712918 0.1261819 -0.20684166 0.064207226 -0.017508343 0.19197807 -0.08176185 0.0043244064
-0.17005175 -0.03344159 -0.11271787 -0.23411316 -0.030694842 0.1559315 -0.14566767 -0.23204955
0.11338818 -0.025537312 -0.20152801 -0.18821868 0.21651745 0.03728652 -0.15302595 -0.0143530965
-0.17211708 0.063643396 0.234126 0.23000777 -0.14293209 0.20197043 -0.08102806 0.16484377
-0.13695198 0.14744261 -0.058134794 0.1150597 0.076090544 0.038106263 0.2161347 -0.11362228
-0.07547036 0.14497304 0.05897078 -0.1449616 -0.15471002 0.11822811 0.20578468 0.12107903
0.105306774 0.05567661 0.2119973 -0.15362844 -0.11032021 -0.11568706 0.13008437 -0.004999891
-0.18595818 -0.13541102 0.106132805 0.09607875 0.122566074 0.05075085 0.018971443 -0.18076918

critic.2.weight f4 [128, 128]
00000000: cdc8 41bd 38f4 523c ac8c cfbc c640 4a3d
00000010: 3869 f63c ec4d a6bc 8603 39bd 37fd 6fbd
00000020: ca21 373d 3096 98bc b0bd 84bc b1e6 59bd
00000030: c559 91bd e83c d53c d0f7 113c 0b6f 12bd
00000040: d23e 3d3d c4b3 a8bd c3b1 833d 9451 a93c
00000050: 446b 96bd 9c6b bebc eb15 7fbd 6898 8e3c
00000060: 7a34 2b3d 683c c03c 4141 adbd 3665 353d
00000070: a11b 853d f647 473d a05b 293c f42b 973c
00000080: 4113 92bd 7f80 b03d f70b 0fbd e0e1 a3bc
00000090: 6ef6 b4bd f02f 943b d13c 9c3d 2a62 323d
000000a0: 9fa2 803d f483 9fbd 94aa d1bc 7617 75bd
000000b0: 0ec5 6f3d d8c4 1dbc 5d4d 92bd 4878 8bbc
000000c0: aaf5 433d 5863 103d 81ba 9ebd 3e86 a7bd
000000d0: 5029 4c3c e2aa 6e3d 0cd2 843c 104e 97bb
000000e0: b6a8 6a3d c2b0 97bd faca 85bd f976 a33d
000000f0: 98e1 fcbc e1f0 983d 58c0 f2bc 3e00 72bd
00000100: 865a 703d 9489 ebbc a08a 87bd 3003 b53b
00000110: 8c8a cf3c cf62 8b3d 201b 11bb 6098 913c
00000120: 17d2 69bd 85e1 b43d a0fc f2bb 594b ae3d
00000130: 800d 0f3d a023 ad3c 3664 a1bd 9868 87bd
00000140: 5ccd 843c 732a a43d 1088 15bc a79b 913d
00000150: b0de 6bbc 8c3e a93c a022 763c 621d 7a3d
00000160: 2160 79bd 3eeb 14bd 0e72 6ebd 00cc 84bb
00000170: 4be1 4cbd 3a23 9cbd 1fa1 ad3d cc50 d13c
00000180: 2327 2ebd bd1d 80bd e8f6 453c d43f ba3c
00000190: 4d9e a43d e08d 423c f8c7 d43c 18c9 f6bc
000001a0: 6730 b33d f285 283d 05d9 993d aee8 663d
000001b0: 0b15 9d3d 9c0c e63c 4b4b a23d cb4e 823d
000001c0: b8b0 da3c d98c a03d f077 093c 1886 75bc
000001d0: a010 1cbd 8cfe 70bd fad7 8bbd ef24 903d
000001e0: 7df7 04bd b03c d7bb 9974 02bd 51c9 853d
000001f0: 7e3a 723d 68bd 31bc 0234 9cbd a009 123c
00000200: 88f0 dabc b7cb a33d e006 ed3b dd33 883d
00000210: 0065 393b a073 00bd 7178 50bd 9711 b2bd
00000220: 9661 7f3d cab4 4e3d 8087 d83b 3df0 1abd
00000230: 382f 17bc e863 653c 609e a73c 70fc 813b
00000240: 1c1c 82bd 6c51 dc3c 2518 49bd 53c3 a23d
00000250: 289a fc3c 4db0 803d 0ece 493d 9f7f 983d
00000260: 9fd4 17bd e0d3 a5bd 7454 7fbd 17cc 913d
00000270: 32b2 71bd 3cd2 c93c e136 b4bd 803f 3fbb
00000280: d05a 0abc f007 c43c d1ad 17bd 40b8 38bb
00000290: 490d 88bd f515 873d 70f0 6ebd 2b29 a9bd
000002a0: bfa7 a43d 22a5 70bd f13b ad3d a09b f0bc
000002b0: f025 803c 9b12 35bd 1fb1 a9bd c052 833c
000002c0: a8b1 f43c a085 4c3c 9fab 9e3d e79e a13d
000002d0: 6abe 533d 4f9f ae3d 00a8 9ab8 28c5 15bc
000002e0: 58f0 803c 2899 8bbc 4eb1 783d 46a8 afbd
000002f0: b09c 563c 6024 94bd f6cb 4a3d da73 6abd
00000300: 00ae 49b9 5520 a93d 8063 ee3a ce26 87bd
00000310: 383f b03c 09cc b43d 20e6 7f3b cba9 0bbd
00000320: 42c3 3a3d 38b7 24bc 729d 96bd 66ba 253d
00000330: b1fa 8e3d ccf4 9ebc 7ef4 39bd 58dd 213c
00000340: d35a 813d 760d 113d c019 643b 4900 03bd
00000350: 55f1 9bbd 5a07 0abd 94c7 e83c a92b 883d
00000360: b5fa a53d 028c 713d 4438 aebc 2812 a8bd
00000370: be86 9fbd 7923 903d f22f 363d e5eb 99bd
00000380: f07c c9bb bb4f 54bd 4ed1 753d 6e57 5f3d
00000390: 90f7 b53b 38a0 53bc 05da 913d 5077 bdbb
000003a0: 932c 903d 9884 ff3c 2729 b13d 19a8 45bd
000003b0: 8055 053d f43e b23c c55b 9e3d a8f9 533c
000003c0: 80ef 2bbc d857 273c 4b7f 7cbd 4287 773d
000003d0: d462 61bd 521b 70bd 9117 b43d d904 953d
000003e0: e718 aebd 9ce3 f63c 6562 16bd 8b60 63bd
000003f0: ec7f cb3c fd7d 63bd e2ea 4f3d 06e3 95bd
-0.04731064 0.012875609 -0.025335632 0.04937818 0.03007947 -0.020300828 -0.045169376 -0.058591094
0.044709958 -0.018626302 -0.016203731 -0.05319852 -0.070972 0.026030019 0.008909181 -0.03575043
0.04620249 -0.082374126 0.0643039 0.020668782 -0.07344678 -0.023244672 -0.062276762 0.017406657
0.041798092 0.023466304 -0.08459712 0.044285975 0.064994104 0.04865261 0.0103367865 0.018453576
-0.07132579 0.08618259 -0.03492352 -0.020005167 -0.08836065 0.004522316 0.07628787 0.043550648
0.062810175 -0.0778884 -0.025594033 -0.059836827 0.058537535 -0.009629451 -0.07143662 -0.017025128
0.047841705 0.03525099 -0.077504165 -0.081799015 0.012461022 0.058268435 0.01621344 -0.00461746
0.0572898 -0.07406761 -0.06532855 0.079816766 -0.03086929 0.07467819 -0.029632732 -0.059082262
0.05868008 -0.028752126 -0.066182375 0.0055240616 0.025334619 0.068059556 -0.0022141412 0.017772853
-0.057085123 0.08832077 -0.007415369 0.08510465 0.034924984 0.021135151 -0.07880442 -0.066117465
0.016211204 0.08015909 -0.009126678 0.071097665 -0.014396355 0.020659707 0.015022904 0.061063178
-0.06088269 -0.036357157 -0.05821424 -0.004052639 -0.050019544 -0.076239064 0.08477997 0.025551222
-0.042517792 -0.06255672 0.012082793 0.022735514 0.08038006 0.011874646 0.025974259 -0.030125186
0.087494664 0.041143365 0.07512096 0.056374244 0.07670029 0.028082184 0.07924517 0.06362685
0.026695594 0.078393646 0.008390412 -0.014985584 -0.038101792 -0.058836505 -0.06828304 0.070382945
-0.032462586 -0.006568514 -0.031849477 0.06532539 0.059137814 -0.010848381 -0.07627107 0.008913428
-0.026726022 0.0799784 0.0072334856 0.06650517 0.002828896 -0.03136027 -0.050896112 -0.08694761
0.062348925 0.050465383 0.0066079497 -0.037826765 -0.009227566 0.01400087 0.020461261 0.0039668605
-0.06353018 0.026894294 -0.04909529 0.079474114 0.030835226 0.06283627 0.049268775 0.07446217
-0.037068006 -0.080970526 -0.0623364 0.07119005 -0.05900783 0.02463638 -0.0879953 -0.0029182136
-0.008444503 0.023929566 -0.037031 -0.0028185993 -0.06643159 0.06595985 -0.058334768 -0.08259805
0.080398075 -0.058751233 0.084586985 -0.029371083 0.01564309 -0.044207197 -0.08285736 0.01603067
0.02986987 0.012483031 0.07747578 0.07891636 0.051695265 0.085264795 -7.374585e-05 -0.009141244
0.015739605 -0.017040804 0.060715966 -0.085770175 0.013098881 -0.072335005 0.04951092 -0.05723939
-0.00019233674 0.0825812 0.0018187612 -0.06599198 0.02151452 0.08827979 0.0039047077 -0.034097474
0.04559637 -0.010053448 -0.07354249 0.040460967 0.06981409 -0.019403838 -0.04539918 0.009879433
0.063161515 0.035413228 0.0034805387 -0.031982694 -0.0761439 -0.033698417 0.028415479 0.066489525
0.08104459 0.058971412 -0.021267064 -0.08206588 -0.07789372 0.07038016 0.044479318 -0.075156964
-0.006148927 -0.05183385 0.06001406 0.05452674 0.0055531934 -0.012916617 0.07121662 -0.0057820454
0.07039752 0.031191155 0.08650427 -0.048256014 0.032552242 0.021758534 0.077323474 0.012937941
-0.010494113 0.010213815 -0.061644834 0.060431726 -0.05502589 -0.058619805 0.087935574 0.07276315
-0.085008435 0.03013783 -0.03671493 -0.055511992 0.024841271 -0.055540074 0.05076111 -0.07318692

critic.2.bias f4 [128]
00000000: e673 2e3d 2406 72bd c0d9 fb3a c102 9f3d
00000010: c41b 81bd a3c5 a2bd 7a28 8abd 59be 9cbd
00000020: 84ec 0dbd 5c52 2ebd d6c2 463d f0dd 21bd
00000030: 0254 433d a690 363d 2612 98bd 32ce 5b3d
00000040: 20fc c03b 9016 a5bb 54e3 febc c85e 57bd
00000050: abe0 863d 3a75 323d 8fb1 a53d 54b5 74bd
00000060: 8283 583d 1c90 32bd 95a4 41bd 162b 9bbd
00000070: fa69 f8bc 2081 cc3b 22b5 0c3d 605d 0e3b
00000080: 10d2 fa3c a2f6 353d c0ba 3e3b 95cb b03d
00000090: cf50 973d e0df 57bb 954b a33d f0ee ae3b
000000a0: 3a36 39bd a85c 73bd 0abc 34bd e034 c1bc
000000b0: de96 febc 7297 103d 3d7f 9a3d 2042 01bc
000000c0: d779 9c3d b069 63bc aa55 0e3d 8879 b13c
000000d0: e8ec 323c 10a0 513c d2eb 4d3d 1acf e1bc
000000e0: 3cbd 75bd e10b 2cbd bb50 a0bd 5fe0 b03d
000000f0: 044e 6fbd 3009 173c 549d df3c c7d2 54bd
00000100: 0c44 eabc c5ce 893d eaf7 aebd 0403 a53c
00000110: 18fa 053d 7fbb 3bbd be1d 263d 0024 b43b
00000120: ef20 8f3d 5ff9 0abd 06d1 413d e6f8 70bd
00000130: c055 34bb a1c4 8bbd 0710 aebd 2b04 a63d
00000140: 8d0b b1bd b022 a93c 26ee 2c3d 9f35 7ebd
00000150: 715b 1dbd 8098 f13b c6ab 0e3d 1809 613c
00000160: 3065 a0bc e6ea 173d aa17 333d 782c 563c
00000170: 164f 6d3d 5053 b3bb 78dc 033d 30f1 dfbb
00000180: 0f12 893d 00d3 4dbb 53b8 3dbd e643 4fbd
00000190: d5b5 21bd d6f2 59bd c45e 11bd 90d3 08bc
000001a0: 0e33 643d bb56 11bd 360e 30bd de88 6c3d
000001b0: 7855 c33c b981 a6bd f408 a8bc 4e0e 4c3d
000001c0: d02e b0bc 8ab3 713d 1c6b dd3c e84f 153d
000001d0: 3c3c d3bc 002c ec38 0180 2dbd 8ec3 edbc
000001e0: 4cf0 04bd 3220 8dbd d204 7c3d 6fc9 3abd
000001f0: 66af 28bd 46cd 7ebd b1bf a63d 50a0 98bc
0.042590998 -0.059087887 0.0019214675 0.07764197 -0.06304124 -0.079478525 -0.067460015 -0.076534934
-0.034649387 -0.042559013 0.048525654 -0.039518297 0.047687538 0.04457154 -0.074253365 0.05366344
0.0058894306 -0.00503809 -0.031114258 -0.052580625 0.06585821 0.043568827 0.08090507 -0.05974324
0.05285979 -0.043594465 -0.0472761 -0.07576577 -0.030323971 0.006240979 0.03435243 0.0021723136
0.030617744 0.04442466 0.002910301 0.0863258 0.0738846 -0.0032939836 0.079734005 0.005338542
-0.04521773 -0.059414536 -0.04412464 -0.023584783 -0.031077798 0.03530068 0.075438 -0.007889301
0.076404266 -0.013880178 0.034749664 0.021664396 0.010920741 0.0127945095 0.050273724 -0.027564574
-0.05999492 -0.042003516 -0.07827898 0.086365454 -0.05842401 0.009218499 0.0272967 -0.051958825
-0.0285969 0.06728891 -0.085433796 0.02014304 0.03270921 -0.045833107 0.040555708 0.0054974556
0.069887035 -0.033929225 0.04731848 -0.058831118 -0.0027516931 -0.06824613 -0.08499151 0.08106264
-0.08644781 0.020646423 0.042219304 -0.062062856 -0.038417283 0.0073729157 0.034831785 0.013735078
-0.0195795 0.03708925 0.04372374 0.013072126 0.05793675 -0.005472578 0.032192677 -0.0068341717
0.066928975 -0.0031406283 -0.046318363 -0.050601862 -0.03948005 -0.053210102 -0.035490766 -0.008351222
0.055712752 -0.035483103 -0.042982303 0.057747714 0.023844466 -0.081302114 -0.020512082 0.04981833
-0.021506697 0.059009112 0.027028613 0.036453158 -0.025785558 0.000112615526 -0.042358402 -0.029023912
-0.032455727 -0.068909064 0.061528035 -0.04560226 -0.041182898 -0.062207483 0.08142031 -0.01863113

critic.4.weight f4 [1, 128]
00000000: cd05 863d b033 89bc a8af 393c dee1 2f3d
00000010: cd5d a3bd 48c7 033d 2853 153d 1fb1 8e3d
00000020: 3f0b 8bbd 5019 90bb 6391 8c3d 4503 b4bd
00000030: 46d5 283d c8a2 963c 08ff 683c 88dd 70bc
00000040: 406f 97bd 2a57 83bd 1049 143c b433 c2bc
00000050: b051 01bd 68b4 96bc 0054 b43b 09bb 64bd
00000060: a2cb 453d 7065 d03c 384a 68bc bec8 7e3d
00000070: 7480 9ebc 59d2 38bd e10d 54bd c446 b7bc
00000080: 7234 7e3d d07d d73b 1fbb 0abd 8362 9f3d
00000090: b02c 74bc 5a8e 4b3d 9082 97bd 91a1 8bbd
000000a0: 1afe a5bd c2e7 9fbd 3030 b7bc bf01 20bd
000000b0: e490 9bbc 52d0 683d 4029 ca3a 3306 92bd
000000c0: 84b2 c7bc 92ec 91bd b827 7ebc bed9 27bd
000000d0: cada 89bd 4f87 893d f0b9 3bbd 2ef6 f9bc
000000e0: c6c7 363d f2e6 b2bd 95cc 9c3d 9c2c 14bd
000000f0: d817 43bc 68bf 39bd e482 abbd 10da 38bc
00000100: 78a5 263c 88ae 6f3c 0051 c0b9 b6a0 143d
00000110: c031 79bd 8971 a9bd f275 383d 8872 88bd
00000120: 0074 2dbc 6cf8 92bd f80a 5d3c 89ab 8f3d
00000130: f24d 9fbd 6268 493d d045 003c a0db 6b3c
00000140: 9ce6 c43c 00dd 20bc 27b9 943d 5056 1d3c
00000150: 8030 a33b 245f 983c 184b 353c 89f0 40bd
00000160: 9740 9c3d 5779 ae3d d8ae 033c e59b a4bd
00000170: 58bc 5c3c 862b 9dbd 5e47 0abd 8e0b abbd
00000180: 2870 8cbd aa96 753d f92a 90bd 7100 b03d
00000190: 52d6 9ebd 02e7 593d 38ce 4e3c 0909 a23d
000001a0: 62b1 05bd 30a0 9cbd 553d a73d 75be 95bd
000001b0: 00a9 89b9 563d 7c3d 9393 44bd d49a 92bd
000001c0: 5aeb 4c3d 6092 7d3b 8cbc 9cbc 86e7 87bd
000001d0: 18ad a33c d382 1ebd be4f 7a3d 285d 82bc
000001e0: 7c5c 8ebc e084 803b 2a70 89bd 00a9 f2b9
000001f0: d6a8 7d3d 3e4e 7c3d 33ca 9cbd 7950 36bd
0.06544075 -0.01674828 0.011333384 0.042940013 -0.079768755 0.03217247 0.036456257 0.06967377
-0.067892544 -0.0043975487 0.06863668 -0.08789686 0.04121902 0.018388167 0.01422096 -0.014701255
-0.07394266 -0.064131096 0.009050623 -0.023706295 -0.031572044 -0.018396571 0.0055031776 -0.055842433
0.048289903 0.025438994 -0.014177851 0.06220316 -0.01934836 -0.04512248 -0.05177105 -0.02237261
0.062061734 0.0065762773 -0.03386986 0.077824615 -0.014903232 0.049696304 -0.0739795 -0.06817926
-0.08105107 -0.07807876 -0.022361845 -0.039064165 -0.018989988 0.056839295 0.001542367 -0.07130089
-0.024377115 -0.071252 -0.015512399 -0.04097914 -0.06731184 0.06715261 -0.04583162 -0.030512895
0.044624113 -0.087354556 0.076562084 -0.036175355 -0.01190754 -0.045348555 -0.08374575 -0.011282459
0.010171287 0.014629014 -0.00036681443 0.03628608 -0.06083846 -0.08273608 0.045034356 -0.0666247
-0.010586739 -0.07176289 0.013491385 0.070151396 -0.07778539 0.049171813 0.007829145 0.014395624
0.024035744 -0.0098183155 0.072618775 0.009603098 0.004980147 0.018600054 0.011065267 -0.047104392
0.07629507 0.085192375 0.0080372915 -0.08037547 0.013472639 -0.07674317 -0.033759467 -0.08351813
-0.068573296 0.059958138 -0.070394464 0.08593834 -0.07755722 0.05319882 0.012622409 0.079118796
-0.03263987 -0.07647741 0.08165995 -0.073117174 -0.0002625659 0.061581932 -0.0479923 -0.07158437
0.050029136 0.0038691983 -0.019132875 -0.066359565 0.019979998 -0.038698982 0.061111204 -0.015913561
-0.017378084 0.00392209 -0.06710847 -0.00046283752 0.061928593 0.061598055 -0.07655754 -0.04451034
