saved_models/initial_actor_20241125_215723.pth (torch, 81590 bytes, 7 tensors)

log_std f4 [6]
0.0 0.0 0.0 0.0 0.0 0.0
00000000: 0000 0000 0000 0000 0000 0000 0000 0000
00000010: 0000 0000 0000 0000

actor.0.weight f4 [128, 17]
-0.23237363 0.052228063 0.061879277 0.18311328 0.2024284 -0.09268211 -0.21279342 -0.088052645
-0.05175653 -0.24178444 0.19079322 0.031808764 0.080492735 0.0626975 -0.015643507 -0.22747084
0.10198209 0.17405829 0.058534324 -0.11993217 -0.15988097 -0.062084332 0.18180162 -0.058441073
-0.22373249 0.13703504 -0.11150886 0.04257089 0.03890422 -0.10987878 -0.08042841 0.22664237
-0.20317027 0.002134174 -0.039431274 0.10222164 -0.03076993 0.025687575 0.094827175 0.23004189
0.16363347 0.115205824 0.17745432 -0.23633285 0.07074383 -0.21990682 0.13769153 0.18808308
0.23866454 -0.09003164 0.12602013 0.027913362 0.116984844 -0.21978952 -0.13727051 0.20399094
-0.1856972 -0.0989355 -0.18621665 -0.12024419 0.21154743 0.02073428 0.19117269 0.02079305
-0.16767211 0.1787456 0.0729765 0.12688813 -0.016940385 -0.17746206 -0.010293111 -0.23474975
-0.14527383 0.10553214 0.0010467172 0.07574949 0.030756325 0.2070607 -0.12392623 0.033450216
0.09684014 0.01790464 -0.22312298 0.06855786 -0.04281898 0.0064516813 0.02431038 0.015654027
0.05106467 -0.20367953 -0.20314474 0.08625841 0.05744031 -0.18960227 -0.03921558 0.2409311
-0.0027733445 -0.22460242 -0.057631627 -0.152588 0.105540365 -0.08524495 0.07407907 -0.085497215
0.16545898 -0.04127887 0.12359741 0.055322856 0.06558752 -0.072215825 -0.08241935 0.081250906
-0.2038754 0.0338659 -0.13960241 -0.19197214 0.21375689 0.16591367 0.16689196 0.09681404
0.14237672 -0.01994139 0.029214203 -0.12971553 -0.075289965 -0.22725643 -0.17379355 0.16834474
-0.23074669 0.13515592 0.16285628 0.053116053 0.14869452 0.18279806 0.066943705 -0.16742311
0.029206514 -0.08943969 0.120891035 -0.16561446 0.18563601 0.13827008 0.104040354 0.22643915
0.20861238 -0.10680656 -0.20065211 -0.23103184 0.22275564 -0.10860717 0.18760759 -0.19302955
0.03724715 -0.07554585 0.21632046 -0.22576348 -0.17363054 0.075656235 0.16455159 0.17543912
0.005748555 -0.13670957 -0.043615773 -0.12668385 0.057965457 -0.14774403 -0.16750306 -0.08747347
-0.19145226 -0.1649056 -0.002293691 0.14135295 -0.031922817 -0.038961902 0.20560062 0.055253953
-0.16393948 0.10612485 0.14559323 0.15424287 0.002812028 -0.20815265 -0.009111434 -0.08512147
-0.17025882 -0.14349374 -0.06377649 -0.10148963 -0.028435677 -0.11060746 -0.12972105 0.13153249
-0.07818934 -0.04788725 -0.0029096603 -0.06327799 0.031878203 0.040728033 -0.079004526 0.0993233
0.047974348 0.19860706 0.056135744 -0.06717105 0.18897471 -0.11298418 0.04573807 -0.052582413
-0.19150552 -0.005451128 0.013088673 0.0058090985 -0.050712004 -0.11030972 0.1082612 0.040976822
-0.18050328 0.1204004 0.23280478 0.10990858 -0.10854623 -0.0467723 -0.0024118572 -0.13171941
-0.0061062574 -0.17476934 0.114091635 0.21819386 0.04486832 0.20631337 -0.01694192 -0.22904707
0.049643546 0.15988389 0.21965757 -0.17634296 -0.12713087 -0.033787027 0.12764886 -0.23567656
-0.10782404 0.1749089 0.006388396 0.11070353 0.19218317 0.0002604425 0.1565817 0.23050553
-0.19160753 -0.05802253 -0.10974817 0.040524453 -0.097042575 -0.026553556 0.23289847 0.21423367
00000000: 5af3 6dbe 18ed 553d 2075 7d3d 0c82 3b3e
00000010: 6449 4f3e 1ed0 bdbd 85e6 59be f254 b4bd
00000020: a8fe 53bd 5796 77be 4c5f 433e e849 023d
00000030: 60d9 a43d 8c67 803d d026 80bc 1eee 68be
00000040: fcdb d03d 563c 323e b0c1 6f3d ff9e f5bd
00000050: d6b7 23be 244c 7ebd 342a 3a3e e85f 6fbd
00000060: 211a 65be ea52 0c3e c25e e4bd d05e 2e3d
00000070: 085a 1f3d 2008 e1bd a6b7 a4bd f014 683e
00000080: de0b 50be 80dd 0b3b b082 21bd 9459 d13d
00000090: 3811 fcbc c06e d23c c034 c23d 1a90 6b3e
000000a0: 888f 273e 08f1 eb3d 96b6 353e 3d01 72be
000000b0: 24e2 903d 412f 61be 02ff 0c3e da98 403e
000000c0: 7a64 743e 8262 b8bd 6c0b 013e 90aa e43c
000000d0: c095 ef3d 8110 61be a490 0cbe 00e3 503e
000000e0: 6827 3ebe b29e cabd 94af 3ebe 9642 f6bd
000000f0: e49f 583e f0da a93c c6c2 433e 3056 aa3c
00000100: 3db2 2bbe 1609 373e b474 953d f6ee 013e
00000110: 90c6 8abc 9db8 35be 70a4 28bc 3d62 70be
00000120: aac2 14be 3c21 d83d 0032 893a 8c22 9b3d
00000130: b0f4 fb3c b807 543e 09cd fdbd 1803 093d
00000140: 2054 c63d c0ac 923c 5a7a 64be 1068 8c3d
00000150: f462 2fbd a068 d33b 9026 c73c e03c 803c
00000160: 3029 513d 5e91 50be 2d05 50be 40a8 b03d
00000170: 8846 6b3d 1927 42be 84a0 20bd a4b6 763e
00000180: 00c1 35bb 2dfe 65be 240f 6cbd 0740 1cbe
00000190: 8c25 d83d e894 aebd c4b6 973d 2a19 afbd
000001a0: 146e 293e 0814 29bd a420 fd3d 389a 623d
000001b0: c052 863d e4e5 93bd 7acb a8bd e066 a63d
000001c0: b6c4 50be f8b6 0a3d eff3 0ebe 5894 44be
000001d0: 16e3 5a3e 46e5 293e bae5 2a3e 7046 c63d
000001e0: 34cb 113e 205c a3bc a052 ef3c 26d4 04be
000001f0: a031 9abd e9b5 68be f0f6 31be 9062 2c3e
00000200: dc48 6cbe 5066 0a3e ccc3 263e 3890 593d
00000210: 6043 183e 6a2f 3b3e c819 893d f770 2bbe
00000220: 8042 ef3c 282c b7bd b895 f73d d696 29be
00000230: 5e17 3e3e ac96 0d3e 1c13 d53d aadf 673e
00000240: 7c9e 553e 66bd dabd bf77 4dbe 9c93 6cbe
00000250: 0e1a 643e 706d debd 341c 403e 8aa9 45be
00000260: 7890 183d c8b7 9abd 1c83 5d3e 8b2e 67be
00000270: 34cc 31be a8f1 9a3d 3680 283e 50a6 333e
00000280: 605e bc3b 98fd 0bbe 74a6 32bd 69b9 01be
00000290: 306d 6d3d 364a 17be ec85 2bbe 4a25 b3bd
000002a0: 100c 44be 03dd 28be c051 16bb d4be 103e
000002b0: 80c1 02bd 8496 1fbd f888 523e f851 623d
000002c0: c0df 27be fc57 d93d 6416 153e d8f1 1d3e
000002d0: 004a 383b f825 55be 2048 15bc 2a54 aebd
000002e0: 5458 2ebe 06f0 12be 409d 82bd ccd9 cfbd
000002f0: f0f1 e8bc 2a86 e2bd 98d5 04be 74b0 063e
00000300: bc21 a0bd 6c25 44bd 00b0 3ebb e497 81bd
00000310: b892 023d 70d2 263d 20cd a1bd 046a cb3d
00000320: c080 443d a65f 4b3e 98ee 653d fa90 89bd
00000330: 9682 413e 4064 e7bd d857 3b3d a860 57bd
00000340: 061a 44be 609f b2bb e071 563c 405a be3b
00000350: 64b7 4fbd 10ea e1bd 0cb8 dd3d 50d7 273d
00000360: dad5 38be 7c94 f63d 6064 6e3e c017 e13d
00000370: 7c4d debd 5094 3fbd 4010 1ebb 74e1 06be
00000380: 0017 c8bb bcf6 32be e0a8 e93d 366e 5f3e
00000390: d8c7 373d d043 533e c8c9 8abc 518b 6abe
000003a0: 0857 4b3d 9ab8 233e eaed 603e 4093 34be
000003b0: 982e 02be 4464 0abd 62b6 023e 3255 71be
000003c0: dad2 dcbd 521b 333e c055 d13b 88b8 e23d
000003d0: aacb 443e 008c 8839 f456 203e a409 6c3e
000003e0: c434 44be 08a9 6dbd a6c3 e0bd f8fc 253d
000003f0: 42be c6bd d886 d9bc f07c 6e3e 1260 5b3e

actor.0.bias f4 [128]
-0.23019037 0.095198035 -0.1639716 0.08734304 -0.23181854 -0.054199368 -0.0058683157 0.17134306
0.22123098 -0.1619614 -0.07759175 0.058365077 -0.01541777 0.050192863 0.030280769 0.09750244
-0.21271281 -0.023367375 0.23148519 -0.17083782 0.23425785 -0.0078026503 -0.18944761 -0.1146456
0.06559631 -0.029617816 0.2154434 -0.15797907 0.21419224 -0.08832438 -0.21566232 0.08102074
0.21524468 0.22342715 -0.14444599 -0.03797379 0.18739027 -0.22477522 -0.20132817 -0.15987918
-0.2351679 0.06835413 -0.035250112 -0.08070873 0.17050895 -0.07905345 -0.10580899 0.23679078
-0.05309382 -0.05434628 0.1519649 0.07202464 -0.14542586 0.13174081 -0.16800645 -0.21131417
-0.06602228 0.14432126 -0.01679574 0.0545474 -0.07809298 -0.10597828 -0.105827436 -0.16379744
0.21201402 -0.18576755 -0.032424703 -0.10934311 0.17521724 0.2150555 -0.07507402 -0.17505951
-0.07999949 -0.13771054 -0.14165694 0.16113842 -0.02360405 0.19203421 -0.13438168 0.23563948
0.23641565 -0.07001257 -0.011016101 0.1318925 0.23916182 0.022026569 -0.22952439 0.004296258
-0.24070574 0.028207242 0.023288041 -0.2114785 0.08574206 0.09685761 -0.0058051944 0.10997969
0.022321016 -0.1071575 0.071828425 -0.10478635 0.15051907 0.19844383 0.10742152 0.07732436
0.16717952 -0.18964575 0.05166331 -0.078909874 0.039910078 0.039130747 -0.04639867 0.18783608
0.1127325 -0.13516924 0.16383141 -0.20071265 -0.1479991 -0.18201129 0.11139727 0.22501034
0.20968312 0.13362786 0.08118436 -0.028341562 0.027062982 -0.07300368 0.11262208 0.17932194
00000000: 06b7 6bbe 30f7 c23d 2ce8 27be e8e0 b23d
00000010: d761 6dbe 2800 5ebd 004b c0bb 8e74 2f3e
00000020: 608a 623e 36d9 25be 6ce8 9ebd 3810 6f3d
00000030: d09a 7cbc 0897 4d3d 600f f83c 5caf c73d
00000040: 63d1 59be f06c bfbc 740a 6d3e 1cf0 2ebe
00000050: 4ae1 6f3e 60ad ffbb 8efe 41be 50cb eabd
00000060: 5c57 863d 10a1 f2bc 329d 5c3e 44c5 21be
00000070: 3655 5b3e 6ae3 b4bd 95d6 5cbe 34ee a53d
00000080: 1a69 5c3e 16ca 643e a6e9 13be 688a 1bbd
00000090: 3ce3 3f3e 7a2b 66be f928 4ebe 5eb7 23be
000000a0: dbcf 70be 40fd 8b3d 6c62 10bd 9e4a a5bd
000000b0: e699 2e3e c6e6 a1bd 62b2 d8bd 4879 723e
000000c0: e878 59bd 349a 5ebd b09c 1b3e a881 933d
000000d0: 84ea 14be 10e7 063e e209 2cbe be62 58be
000000e0: b036 87bd f4c8 133e 3897 89bc 186d 5f3d
000000f0: 36ef 9fbd 240b d9bd 0ebc d8bd 84ba 27be
00000100: 341a 593e d939 3ebe c4cf 04bd 48ef dfbd
00000110: 266c 333e 8237 5c3e 68c0 99bd cd42 33be
00000120: c6d6 a3bd fe03 0dbe 840e 11be 7801 253e
00000130: 485d c1bc 9ea4 443e 5a9b 09be 7a4b 713e
00000140: f216 723e c062 8fbd e07c 34bc d40e 073e
00000150: d6e6 743e 1071 b43c 7108 6bbe a0c7 8c3b
00000160: 917b 76be e012 e73c 90c6 be3c d28d 58be
00000170: 8899 af3d 485d c63d 8039 bebb 083d e13d
00000180: 90da b63c 6475 dbbd c81a 933d 3a9a d6bd
00000190: ac21 1a3e dc34 4b3e d0ff db3d 3c5c 9e3d
000001a0: 1c31 2b3e 7f32 42be e89c 533d 809b a1bd
000001b0: c078 233d 9047 203d 880c 3ebd 1a58 403e
000001c0: 4ce0 e63d ce69 0abe 6cc3 273e 9e87 4dbe
000001d0: 138d 17be 2b61 3abe 4024 e43d 1c69 663e
000001e0: 2cb7 563e bed5 083e fc43 a63d 902c e8bc
000001f0: 30b3 dd3c f482 95bd 68a6 e63d 2ca0 373e

actor.2.weight f4 [128, 128]
0.058364324 0.08243821 0.07833483 0.08615636 0.021958254 -0.03495378 0.045244373 0.08829113
-0.01646845 -0.07069129 -0.06613972 0.062440835 -0.05728574 0.050071277 0.027778469 -0.02752499
0.004516594 0.0389091 -0.030520756 -0.033941984 -0.050598912 -0.028121315 0.0731472 0.027491823
-0.07043108 -0.012994707 -0.060727265 -0.08601645 -0.06740818 0.04395894 -0.036516882 0.08126143
0.024717346 0.04425446 -0.07790197 0.07887917 0.08658942 -0.046672754 -0.043027107 -0.07368156
-0.014717191 0.02405551 -0.0865556 0.023793466 -0.04502415 0.07952347 0.08015356 0.027337238
-0.075633265 -0.0061289296 -0.07861346 0.077608414 -0.06906 0.03893087 0.02698832 -0.037151676
-0.06792581 0.052971087 -0.01543425 -0.008594878 0.006797351 0.075811945 0.07715548 0.015782848
-0.0853344 -0.0076705813 -0.03856384 -0.003971763 -0.07014949 0.037087806 0.012091152 -0.08125879
0.025826566 0.069648854 -0.037673634 0.034534223 0.014898166 0.044164903 0.085808925 0.0098801255
-0.05192065 -0.059098154 -0.06694822 -0.0075624585 0.06694602 0.075874604 -0.05000069 0.07423913
0.026763573 0.0715918 -0.064171925 -0.0065669566 0.08709458 0.06178526 0.06240151 0.022804134
-0.06756637 0.04586049 -0.060982127 -0.06484598 0.023502924 0.011339001 -0.079679966 0.025841005
0.06849525 0.015370004 0.055837743 -0.013077021 0.01647006 0.040303774 -0.08550099 -0.049183898
0.04483717 -0.008111075 0.087913 -0.07747585 0.0066025853 0.08222919 -0.07361072 -0.061910465
0.025379673 0.058537297 -0.0058816373 0.014871523 -0.057094555 -0.02529192 -0.016832322 -0.007854909
-0.03828663 -0.06913857 0.015242264 -0.05343389 -0.013833173 -0.08707834 0.034038335 -0.04541073
-0.06843429 0.060632043 -0.017803177 -0.020715468 -0.04561465 -0.0635705 0.013350755 0.003130287
0.024819344 -0.05131737 0.01598046 0.046883456 -0.08373772 0.011147343 -0.052391786 0.053198747
-0.08730971 0.053719096 0.060604014 0.08518607 -0.031595774 -0.017496698 -0.0005893707 -0.024092004
-0.0012885854 0.0087231845 0.04208719 0.047451623 0.076519646 0.087753735 -0.02941481 0.05160152
0.07546594 0.010919012 0.07743346 -0.01694379 0.05996319 -0.08261683 -0.04829309 0.020759419
0.074677296 0.079789884 0.0061468408 -0.026196457 0.06842121 0.0625988 0.056049637 0.0040069222
-0.013891324 0.041920327 0.063053764 -0.081453755 -0.076576725 0.086528264 0.009357467 0.04117406
-0.00628148 0.068923734 -0.016233146 0.021377832 -0.06742011 0.017550327 0.06526864 -0.08227944
0.04168891 -0.064151295 -0.06194985 0.08194629 -0.084164366 -0.034146342 0.07516507 -0.048846565
-0.078554735 0.024329804 -0.03681448 0.075304575 -0.048496418 0.0007049516 0.07782962 -0.024874195
0.06067147 0.07142728 0.006474212 -0.014580727 -0.059863664 0.02653768 -0.059430365 -0.025924072
0.040753998 -0.061102297 -0.03517908 -0.087685555 -0.08734892 0.041896142 0.07587849 0.02086433
-0.073534586 -0.0591476 -0.050383765 0.056509294 -0.060122192 -0.05189495 0.03147023 0.04256963
0.065598555 -0.04884353 -0.0069869384 -0.052256823 0.041003726 0.061959542 -0.065110706 0.038681768
0.0077774078 0.04203313 -0.07692026 -0.08262515 0.036232762 0.081267886 0.07405382 0.0369341
00000000: 6e0f 6f3d 5dd5 a83d 036e a03d bf72 b03d
00000010: cce1 b33c b22b 0fbd 2a52 393d fbd1 b43d
00000020: d8e8 86bc 98c6 90bd 4374 87bd f6c1 7f3d
00000030: 74a4 6abd 8a17 4d3d ac8f e33c 167c e1bc
00000040: f0ff 933b 265f 1f3d aa06 fabc c006 0bbd
00000050: ce40 4fbd ac5e e6bc 33ce 953d 8836 e13c
00000060: 2c3e 90bd c0e7 54bc 27bd 78bd 6429 b0bd
00000070: 4d0d 8abd 4a0e 343d ba92 15bd 656c a63d
00000080: 087c ca3c 2a44 353d 118b 9fbd 678b a13d
00000090: cb55 b13d ee2b 3fbd 313d 30bd 5ce6 96bd
000000a0: 6020 71bc 1010 c53c 1044 b1bd 84ea c23c
000000b0: 3e6b 38bd 33dd a23d 8d27 a43d 58f2 df3c
000000c0: 9de5 9abd 30d5 c8bb 1800 a1bd 29f1 9e3d
000000d0: 546f 8dbd fa75 1f3d 9c16 dd3c 5b2c 18bd
000000e0: b01c 8bbd 36f8 583d f0df 7cbc 88d1 0cbc
000000f0: 50bc de3b 4b43 9b3d b103 9e3d 084b 813c
00000100: cdc3 aebd 8059 fbbb 1ef5 1dbd 9025 82bb
00000110: 89aa 8fbd 62e9 173d f819 463c 026b a6bd
00000120: 3c92 d33c 0fa4 8e3d ab4f 1abd c273 0d3d
00000130: 7017 743c 42e6 343d 97bc af3d 40e0 213c
00000140: bfaa 54bd e810 72bd 261c 89bd 80ce f7bb
00000150: ff1a 893d 2564 9b3d 86cd 4cbd af0a 983d
00000160: 483f db3c b99e 923d 926c 83bd a02f d7bb
00000170: a55e b23d 8a12 7d3d ba98 7f3d bccf ba3c
00000180: 3d60 8abd 36d8 3b3d 65c8 79bd f8cd 84bd
00000190: 3489 c03c 38c7 393c 402f a3bd 84b0 d33c
000001a0: 3d47 8c3d 78d2 7b3c 1eb6 643d 0041 56bc
000001b0: 38ec 863c 9215 253d 251b afbd 0e75 49bd
000001c0: 2ea7 373d 50e4 04bc bb0b b43d a9ab 9ebd
000001d0: 805a d83b c767 a83d 38c1 96bd d495 7dbd
000001e0: 08e9 cf3c cec4 6f3d c0ba c0bb b0a7 733c
000001f0: fbdb 69bd 0031 cfbc f0e3 89bc e0b1 00bc
00000200: 71d2 1cbd 8698 8dbd b0ba 793c 7fdd 5abd
00000210: 88a4 62bc 2156 b2bd c86b 0b3d 9a00 3abd
00000220: 4727 8cbd 4e59 783d f8d7 91bc 7cb3 a9bc
00000230: 6dd6 3abd 4031 82bd 20bd 5a3c 8025 4d3b
00000240: f051 cb3c 2a32 52bd 74e9 823c de08 403d
00000250: af7e abbd 58a3 363c c598 56bd eee6 593d
00000260: 6fcf b2bd 8e08 5c3d ea3b 783d 0976 ae3d
00000270: 926a 01bd 3c55 8fbc 0080 1aba 985c c5bc
00000280: c0e5 a8ba b0eb 0e3c 9e63 2c3d a25c 423d
00000290: 55b6 9c3d 3bb8 b33d 54f7 f0bc 1e5c 533d
000002a0: e38d 9a3d a8e5 323c 6f95 9e3d b4cd 8abc
000002b0: f69b 753d 0333 a9bd face 45bd a80f aa3c
000002c0: 69f0 983d e168 a33d 706b c93b f499 d6bc
000002d0: 6b20 8c3d cd33 803d 4e94 653d 804c 833b
000002e0: 7098 63bc a6b4 2b3d 5522 813d 3ad1 a6bd
000002f0: 42d4 9cbd bb35 b13d 1050 193c 22a6 283d
00000300: e0d4 cdbb e327 8d3d 60fb 84bc 9020 af3c
00000310: 8e13 8abd b4c5 8f3c 91ab 853d 1f82 a8bd
00000320: fec1 2a3d c161 83bd 20bf 7dbd 75d3 a73d
00000330: 5e5e acbd 09dd 0bbd 25f0 993d 5613 48bd
00000340: 4ee1 a0bd 4c4f c73c c8ca 16bd 4939 9a3d
00000350: 2ea4 46bd 80cc 383a 2365 9f3d f8c4 cbbc
00000360: a682 783d 7748 923d a025 d43b 00e4 6ebc
00000370: 9a33 75bd 8c65 d93c 416d 73bd b85e d4bc
00000380: aaed 263d 6746 7abd f017 10bd 7c94 b3bd
00000390: fee3 b2bd 4a9b 2b3d 2f66 9b3d aceb aa3c
000003a0: 4d99 96bd c144 72bd 355f 4ebd 4a76 673d
000003b0: b042 76bd cd8f 54bd eee6 003d 7e5d 2e3d
000003c0: 8958 863d 2710 48bd b0f2 e4bb 400b 56bd
000003d0: 86f3 273d 4ac9 7d3d c358 85bd c670 1e3d
000003e0: a0d9 fe3b ee2a 2c3d 5f88 9dbd 6037 a9bd
000003f0: ce68 143d c76f a63d 87a9 973d 3648 173d

actor.2.bias f4 [128]
-0.041750174 0.07776526 0.03356207 -0.06752652 -0.042590242 -0.005665526 -0.06516792 -0.04072395
0.081169985 0.009073608 -0.04463642 -0.087812886 0.07653787 0.013857529 -0.060414217 0.08495698
-0.0048804656 -0.00053133816 -0.021766096 -0.0008806288 0.063981004 0.078878455 -0.01318112 0.035560198
-0.06119423 0.0180628 0.08639606 0.08002416 0.013968706 -0.041337553 0.034617633 -0.017547473
-0.029454578 0.0410629 -0.05181015 0.067387246 0.02185662 0.08268774 -0.039238937 -0.08550524
0.011689484 -0.05155516 0.07709835 -0.043897387 -0.065058865 0.040709056 -0.061500985 -0.08497701
-0.030936345 0.08467545 -0.02890138 0.01844401 -0.079454556 0.08588367 0.012992106 0.029040024
-0.0763134 0.076120205 0.07228715 0.015729085 0.07037718 0.00140962 -0.020891853 -0.06582612
0.07126706 -0.015089057 -0.038847603 -0.07523559 -0.03262419 -0.029892389 0.027024485 -0.0038094223
-0.011595294 -0.029308897 0.081950404 0.046511777 -0.06635403 -0.0011784658 -0.084489 0.047778465
0.05373595 0.03463328 -0.068361685 -0.022321142 -0.06950624 -0.07042839 -0.08232493 -0.010337293
0.0074825212 -0.032896288 -0.006099798 -0.042852163 0.06933474 -0.032441176 -0.043174747 -0.0593626
0.037366353 0.072501145 -0.05268241 0.060553096 0.000104263425 0.061525367 0.07294502 -0.05620633
0.06622406 0.047071554 -0.029957082 0.053715415 -0.015820444 -0.01588779 -0.066162884 0.02872689
-0.07817212 0.06270511 0.06140756 0.06542667 0.005706914 -0.021654911 0.059924833 -0.051842466
-0.03795529 -0.08704784 0.051563703 -0.0194192 -0.05333337 -0.0475885 0.037347056 0.024231464
00000000: 3b02 2bbd 6543 9f3d 6278 093d 584b 8abd
00000010: 1b73 2ebd e0a5 b9bb c276 85bd 28ce 26bd
00000020: 733c a63d 78a9 143c aed4 36bd 3ed7 b3bd
00000030: e3bf 9c3d b00a 633c e674 77bd edfd ad3d
00000040: 50ec 9fbb 8049 0bba d04e b2bc 00da 66ba
00000050: 7908 833d 078b a13d a0f5 57bc 92a7 113d
00000060: cda6 7abd 70f8 933c 6bf0 b03d b5e3 a33d
00000070: 00dd 643c 9151 29bd 38cb 0d3d b8bf 8fbc
00000080: ba4a f1bc 9231 283d e136 54bd 5302 8a3d
00000090: a80c b33c 3158 a93d 02b9 20bd 5f1d afbd
000000a0: 4085 3f3c 812b 53bd bde5 9d3d bfcd 33bd
000000b0: 953d 85bd 8abe 263d 75e8 7bbd 6d08 aebd
000000c0: 386e fdbc 536a ad3d 96c2 ecbc e417 973c
000000d0: 12b9 a2bd c7e3 af3d d8dc 543c 58e5 ed3c
000000e0: 334a 9cbd e9e4 9b3d 490b 943d 48da 803c
000000f0: e921 903d 00c3 b83a 6425 abbc d8cf 86bd
00000100: 77f4 913d 1838 77bc aa1e 1fbd 1e15 9abd
00000110: f1a0 05bd e2e0 f4bc 7462 dd3c 80a7 79bb
00000120: 30fa 3dbc 3619 f0bc 9dd5 a73d 2283 3e3d
00000130: 9fe4 87bd c076 9aba 9208 adbd 5ab3 433d
00000140: 3a1a 5c3d a0db 0d3d 3601 8cbd d4da b6bc
00000150: 4a59 8ebd c23c 90bd f999 a8bd c05d 29bc
00000160: f02f f53b 42be 06bd d0e0 c7bb c085 2fbd
00000170: 5fff 8d3d 0ae1 04bd 01d8 30bd 3326 73bd
00000180: 760d 193d 7b7b 943d 83c9 57bd 8606 783d
00000190: 00a8 da38 0602 7c3d 3364 953d 9c38 66bd
000001a0: 7ba0 873d 1ace 403d 8e68 f5bc b204 5c3d
000001b0: e099 81bc 1c27 82bc 6880 87bd a854 eb3c
000001c0: b418 a0bd 896b 803d 7e86 7b3d 6bfe 853d
000001d0: 1001 bb3b a465 b1bc be73 753d c458 54bd
000001e0: 0277 1bbd 2346 b2bd 7634 533d 0415 9fbc
000001f0: 1774 5abd 29ec 42bd 3af9 183d 1081 c63c

mean.weight f4 [6, 128]
0.056369923 -0.033707477 -0.07933911 -0.08661901 -0.010057874 0.016790353 -0.081428796 0.0871708
0.021164574 -0.07553836 -0.07034257 0.0567734 0.031157292 0.08076175 0.03851735 0.06265997
-0.022164837 0.0571459 0.026525624 -0.016379684 -0.032404836 0.022742122 -0.080434896 -0.00034012645
0.034480244 0.08637988 0.08123874 0.087727316 -0.06080848 -0.06179984 0.04435662 0.08355511
-0.06061533 0.032382168 -0.08312135 -0.056466565 0.06813582 -0.044798274 0.008752622 -0.08081653
0.029245831 -0.0016957596 0.041569494 0.038432084 -0.054681424 -0.039104942 0.0029641986 0.0780086
-0.048204277 -0.0152431205 -0.08108546 -0.058781333 -0.02338183 0.06742091 0.034831777 0.078160934
0.06862535 0.015459843 -0.08351453 0.08148081 0.05928225 -0.0043495223 -0.05096463 -0.020438544
-0.0361409 -0.06245537 -0.021916285 0.005021997 0.0644118 -0.03716668 -0.029243022 0.06832784
0.08312399 -0.012674734 0.07952612 -0.07426392 -0.03475172 0.04931108 -0.042445246 -0.063674994
-0.06805181 0.0489522 0.05031476 -0.032241665 0.045232274 -0.03257238 0.057092704 -0.08472339
0.044023223 0.03669583 0.0825463 0.05188272 0.072602905 0.057694353 -0.074398845 -0.030603375
-0.08803947 -0.06607005 -0.02313906 0.04863908 -0.011572979 -0.047123704 0.029618189 -0.01598537
-0.07482448 -0.011525564 0.041838296 0.06341093 0.039696343 0.019007176 0.0050116107 0.05512757
-0.0058068633 0.08358004 -0.02913659 0.053520538 -0.03151147 -0.0809831 0.059015878 -0.06411438
0.058475457 -0.08288102 -0.03558334 0.07441134 -0.0566618 0.083897226 0.029645681 0.013224557
-0.034171768 -0.009063743 0.038373552 -0.0460862 0.06280636 -0.05763515 -0.08501338 -0.05000515
0.032523565 -0.05287166 0.068423055 0.08310374 -0.03279046 0.02091743 0.06858469 -0.08650225
0.044681527 -0.036801353 0.03184832 0.007231243 0.038621403 0.08463479 -0.029458243 -0.024735205
-0.029807072 0.024671026 0.062381975 0.08376595 0.008926004 -0.06701402 0.007665597 -0.042610127
-0.013372786 0.06539308 0.077803396 -0.02888764 0.0024735779 -0.058005355 0.03161709 -0.060386043
-0.054579347 -0.030374613 -0.08145334 -0.03484579 -0.052527342 0.00041550398 0.08778643 0.037670948
0.08186246 0.03488165 0.02148027 0.030637681 0.05101473 0.071158044 -0.053952526 -0.038366433
-0.08712196 -0.036026094 0.005321227 0.074207 0.011114165 0.020787291 0.063476644 -0.06720136
-0.010918349 -0.007588044 0.075008236 -0.04095035 0.062148713 -0.04985031 -0.06152871 -0.051978476
-0.042921085 0.031937942 -0.043979067 -0.050672702 -0.02420877 0.08709211 -0.06713925 0.05396255
-0.004067801 0.07934802 0.048563503 0.08418051 -0.04554814 0.035157666 0.019834287 0.017743953
-0.012321696 -0.049029026 0.026380047 -0.07881453 0.027012832 0.02430591 0.053745367 0.024973638
-0.061903372 -0.08642957 0.061508484 -0.04475091 -0.04873519 -0.054316085 -0.06818275 -0.0856945
0.03733126 -0.01937648 -0.05928714 0.060433052 0.072467916 -0.078504845 0.056609698 -0.0035479292
0.020513915 0.011223339 0.051462464 -0.043480217 0.031135708 0.0024463087 -0.03182971 -0.02195429
-0.04750508 -0.083488345 -0.08800544 -0.06353346 -0.0802074 0.059525944 0.06879438 0.036254846
00000000: 26e4 663d da10 0abd 8b7c a2bd 4f65 b1bd
00000010: c8c9 24bc ec8b 893c 24c4 a6bd 9b86 b23d
00000020: 5461 ad3c dbb3 9abd c40f 90bd 3a8b 683d
00000030: 943d ff3c 6b66 a53d 5ec4 1d3d df53 803d
00000040: 0893 b5bc d211 6a3d 444c d93c b02e 86bc
00000050: efba 04bd b04d ba3c 0dbb a4bd 0053 b2b9
00000060: 283b 0d3d efe7 b03d 7f60 a63d 61aa b33d
00000070: 5012 79bd d421 7dbd 4aaf 353d f11e ab3d
00000080: c847 78bd 2aa3 043d 873b aabd 7c49 67bd
00000090: cb8a 8b3d 657e 37bd 2867 0f3c 2383 a5bd
000000a0: f494 ef3c 4044 deba c644 2a3d f66a 1d3d
000000b0: a1f9 5fbd 812c 20bd 0043 423b f9c2 9f3d
000000c0: d971 45bd 48be 79bc 2210 a6bd b2c4 70bd
000000d0: 408b bfbc f913 8a3d c4ab 0e3d d712 a03d
000000e0: 738b 8c3d 484b 7d3c aa09 abbd 69df a63d
000000f0: f2d1 723d 7086 8ebb 4ac0 50bd bc6e a7bc
00000100: 7b08 14bd 34d1 7fbd c889 b3bc 908f a43b
00000110: 55ea 833d 173c 18bd 108f efbc 77ef 8b3d
00000120: e93c aa3d b0a9 4fbc 97de a23d af17 98bd
00000130: d257 0ebd 6afa 493d 11db 2dbd 0968 82bd
00000140: bf5e 8bbd 1a82 483d da16 4e3d d60f 04bd
00000150: 7a45 393d 9e6a 05bd 0ada 693d 7583 adbd
00000160: b251 343d 5e4e 163d 090e a93d fa82 543d
00000170: d5b0 943d ea50 6c3d 6c5e 98bd eeb3 fabc
00000180: 0a4e b4bd bc4f 87bd 208e bdbc c639 473d
00000190: 989c 3dbc c904 41bd d8a1 f23c c0f3 82bc
000001a0: 943d 99bd b8d5 3cbc a25e 2b3d 97dd 813d
000001b0: a298 223d f0b4 9b3c 7038 a43b 72cd 613d
000001c0: 8047 bebb 032c ab3d dcaf eebc 5a38 5b3d
000001d0: 2c12 01bd 78da a5bd a2ba 713d 664e 83bd
000001e0: f683 6f3d 86bd a9bd d6bf 11bd f964 983d
000001f0: 3416 68bd 4fd2 ab3d 80db f23c d0ab 583c
00000200: b2f7 0bbd 1880 14bc 962d 1d3d e2c4 3cbd
00000210: 9fa0 803d d612 6cbd 7f1b aebd 33d2 4cbd
00000220: 6e37 053d f48f 58bd 6321 8c3d 4b32 aa3d
00000230: 4a4f 06bd 085b ab3c 2176 8c3d 1728 b1bd
00000240: fa03 373d 04bd 16bd 6273 023d 10f4 ec3b
00000250: 7a31 1e3d 0155 ad3d 6a52 f1bc 7ca1 cabc
00000260: f62d f4bc e41a ca3c 3e84 7f3d 7b8d ab3d
00000270: 603e 123c a63e 89bd b02f fb3b f587 2ebd
00000280: 8819 5bbc cfec 853d 6357 9f3d c6a5 ecbc
00000290: c01b 223b 0697 6dbd ec80 013d 5b57 77bd
000002a0: 988e 5fbd 2ed4 f8bc 02d1 a6bd 76ba 0ebd
000002b0: e926 57bd 00d8 d939 5fc9 b33d da4c 1a3d
000002c0: 81a7 a73d 10e0 0e3d 64f7 af3c e0fb fa3c
000002d0: d2f4 503d 4fbb 913d 53fd 5cbd 1f26 1dbd
000002e0: 006d b2bd 1990 13bd b05d ae3b d7f9 973d
000002f0: 3018 363c 1c4a aa3c 0b00 823d dea0 89bd
00000300: e0e2 32bc 20a5 f8bb eb9d 993d 8ebb 27bd
00000310: a68f 7e3d d72f 4cbd 8705 7cbd 62e7 54bd
00000320: 05ce 2fbd 5cd1 023d 6523 34bd 2e8e 4fbd
00000330: 7851 c6bc 595d b23d 4e80 89bd d607 5d3d
00000340: 304b 85bb 3781 a23d 86ea 463d d566 ac3d
00000350: b090 3abd 7c01 103d 847b a23c c45b 913c
00000360: f0e0 49bc a9d2 48bd f81a d83c 8369 a1bd
00000370: 044a dd3c 301d c73c 1a24 5c3d 8495 cc3c
00000380: 648e 7dbd fd01 b1bd 52f0 7b3d bb4c 37bd
00000390: 8d9e 47bd 8b7a 5ebd 66a3 8bbd 9980 afbd
000003a0: aae8 183d 6cbb 9ebc 12d7 72bd a688 773d
000003b0: 0f6a 943d 26c7 a0bd 92df 673d 6084 68bb
000003c0: cc0c a83c 18e2 373c 4eca 523d 5018 32bd
000003d0: 5010 ff3c 4052 203b df5f 02bd 7cd9 b3bc
000003e0: b094 42bd f0fb aabd 323c b4bd d51d 82bd
000003f0: c743 a4bd 7ad1 733d 11e4 8c3d f67f 143d

mean.bias f4 [6]
-0.05529082 -0.03775189 -0.037898973 -0.04554814 0.008806743 -0.055831984
00000000: a078 62bd baa1 1abd f43b 1bbd b090 3abd
00000010: 284a 103c 14b0 64bd
