walker_small_saved_models/best_actor.pth (torch, 25765 bytes, 7 tensors)

log_std f4 [6]
000000 f3 2b a2 bf b2 70 b6 bf 19 3a c0 bf 34 3f 70 bf
       -1.2669662 -1.4253142 -1.501773 -0.9384644
000010 5f e2 93 bf 71 81 c9 bf
       -1.1553458 -1.5742627

actor.0.weight f4 [64, 17]
000000 18 db ac be bf 4c 0a bf 57 1e b5 3e 55 c4 04 bf
       -0.33760905 -0.54023355 0.3537471 -0.5186208
000010 fc 7a 26 bd e1 25 3d 3c 52 b2 04 be 2d 04 14 be
       -0.04064463 0.011544676 -0.12958649 -0.14454718
000020 78 b4 11 be 62 b9 61 bd 60 b0 fe 3b 60 a2 44 3e
       -0.14229 -0.055108435 0.0077724904 0.19202566
000030 09 f1 24 3e 6c b0 88 be 7b a1 30 3e b8 d1 bf bd
       0.16107573 -0.266971 0.172491 -0.093661726
000040 a1 ff 98 bd 51 94 1e bd 03 0a 89 3e 49 97 88 3e
       -0.07470632 -0.038715664 0.2676545 0.2667792
000050 4f aa f4 be d6 48 a4 3e 17 2b 5e 3e 61 05 18 be
       -0.47786185 0.3208682 0.21696125 -0.14845802
000060 9e 6a ab 3e a7 99 c6 bd c9 15 d6 be c8 56 08 3d
       0.3347978 -0.096972756 -0.41813496 0.033285886
000070 58 56 0a 3e b4 a0 e1 3e cd 57 9f 3d 77 90 c1 3e
       0.135095 0.4406792 0.077804185 0.3780553
000080 4b 30 91 bd 54 5c 81 3e 0e 2a 1f be 79 88 d2 bd
       -0.07089289 0.25265753 -0.15543386 -0.10279936
000090 23 80 4e be 2e 2f 34 bd d8 19 91 bd fa 51 a3 3d
       -0.20166068 -0.043990307 -0.070850074 0.0797462
0000a0 84 1a 00 3f 6a fd 19 be d2 74 4d be ae e4 a9 3e
       0.5004046 -0.15038076 -0.20064095 0.3318228
0000b0 95 28 68 bd f1 2b 60 3e 19 d0 01 be be 39 40 be
       -0.056679327 0.21891762 -0.12677039 -0.18772027
0000c0 0b 47 bd be e4 bd 75 be cd b3 bd 3d fc 98 0e 3e
       -0.36968264 -0.23998219 0.0926281 0.13925546
0000d0 c3 f8 bf 3d 65 d5 51 3e 14 96 42 be 5b 4b b9 be
       0.093736194 0.2049156 -0.19002563 -0.36190304
0000e0 f6 49 af 3d 74 7a 0b be 27 13 27 3e 6c 75 d8 3e
       0.08559029 -0.13620931 0.163159 0.42277086
0000f0 73 fb c8 3e ce 3a d4 3d 23 3f 91 be ab 24 b8 bc
       0.3925434 0.103627786 -0.28368482 -0.022478422
000100 4e 55 16 be 9f 9a f6 bd c9 ef 46 be 02 cd b5 bd
       -0.14680979 -0.120412104 -0.19427408 -0.08876993
000110 42 d9 b6 3e 29 c1 9b bd 9f 06 65 be 83 ea 00 3f
       0.3571263 -0.07605202 -0.22365807 0.50357836
000120 04 12 04 3d 1a ab 67 be 09 c5 e8 bc 65 d9 0b bf
       0.032243744 -0.22623864 -0.028414266 -0.5462859
000130 36 c1 0c 3e ad 4c b4 3a eb ae 0f 3e 22 ca 31 be
       0.13745579 0.0013755761 0.1403157 -0.17362264
000140 8c 0a 47 3e fb 4e b6 3d f0 40 4f 3e e5 3c 12 be
       0.19437617 0.08901783 0.20239615 -0.14281042
000150 90 83 64 3d 4b 07 30 be 31 a6 8d be e6 93 58 3f
       0.05578953 -0.17190282 -0.27665856 0.84600675
000160 01 ea a4 3d 52 eb 58 be 7c dd 92 3c 02 3e af 3d
       0.08052445 -0.21183518 0.017927878 0.08556749
000170 a0 b4 5e be 62 3c 6a be 24 4f 60 be 24 92 11 be
       -0.2174859 -0.22874597 -0.2190519 -0.14215904
000180 16 c6 46 3e e0 a8 34 be 9e d1 4a be 52 02 29 3c
       0.19411501 -0.17642546 -0.19806525 0.010315495
000190 82 f9 90 3e c0 56 4b bd fd 91 aa be f2 2c b1 3d
       0.2831536 -0.049643278 -0.33314505 0.08651151
0001a0 7f 5d 02 be 35 8f 98 be 83 01 b9 bd da 09 fc bd
       -0.12730978 -0.29796758 -0.090334915 -0.123065665
0001b0 67 af ee bd ef 9c 67 3d 9d aa d3 3e 3f 1b be 3c
       -0.11654549 0.056546148 0.41341105 0.023206351
0001c0 27 6a a4 3e 30 c8 f9 bd 3d 02 a5 be 8f 02 96 3c
       0.32112238 -0.12196386 -0.3222827 0.018311767
0001d0 6c 64 66 3d 14 f8 0a 3e 5a 95 70 3e 0d 82 88 be
       0.056248114 0.13571197 0.23494473 -0.2666172
0001e0 7a ce 35 bc 11 e4 05 be 9a 9e ff bd 22 10 41 bc
       -0.011096591 -0.13075282 -0.12481423 -0.0117836315
0001f0 9a 1c c7 3e 55 3b cc be 5b 39 a4 be d5 e6 e9 3d
       0.3888901 -0.39889017 -0.3207501 0.11420981
000200 4e c6 a2 be 0c 50 2c be 92 93 f2 3d f0 10 41 3e
       -0.3179192 -0.1682741 0.11844553 0.18854117
000210 86 33 8c 3e 5f 0d c5 3e 98 8c a8 be a6 c3 5a be
       0.2738306 0.38486764 -0.32919765 -0.21363696
000220 16 a5 cb bd 9d cc a6 bd e8 c6 9f 3e e6 e3 89 be
       -0.09943597 -0.08144496 0.3120644 -0.26931685
000230 91 4c 85 3e 5f 8d bd 3d 06 84 0e 3e e9 4d ed 3e
       0.26034978 0.0925548 0.1391755 0.46348503
000240 12 94 ba be 81 c2 5f 3e 6b 2d 6e be f3 48 b3 be
       -0.36441094 0.21851541 -0.23259513 -0.35016593
000250 30 e9 00 3c d0 e5 1a bc 20 c6 bf 3c cb d4 98 3e
       0.007868096 -0.009454206 0.023409903 0.29849848
000260 57 f5 1f 3e 53 8f 02 bd 13 27 ca 3d 0b 5c 85 3e
       0.15620933 -0.031874966 0.09870734 0.26046786
000270 e1 a4 c0 be 2e e2 41 bf b3 cd 12 3e e0 53 5f be
       -0.37625793 -0.7573575 0.1433628 -0.2180934
000280 6b a9 c0 be 97 2c 3b 3e 08 05 0a 3d 4f 0e 4d be
       -0.37629256 0.18278728 0.033696204 -0.2002499
000290 85 c9 04 3e a1 17 2f 3e 74 1d 61 3e 1f d8 03 be
       0.12967499 0.17098857 0.21983892 -0.12875412
0002a0 b0 7a 1f 3e ea ff 51 be 9b 3c a9 3d c3 92 22 3e
       0.15574145 -0.2050778 0.08263513 0.15876298
0002b0 f1 20 2a bd dc 77 42 bd 0a d5 e9 3e f2 e8 fb bd
       -0.04153532 -0.047477588 0.45670348 -0.1230029
0002c0 ac 86 73 bd 6e 78 fd 3b 4a 8c 43 be aa 04 97 3e
       -0.059454605 0.0077353036 -0.19096485 0.29495746
0002d0 82 4a 15 bd f1 51 f1 be 2f b9 92 3e d7 0d 0d be
       -0.03644801 -0.4713283 0.2865691 -0.1377481
0002e0 25 0c b7 3c 6b 25 77 be 85 d5 bc 3d 46 29 80 3e
       0.022344658 -0.24135368 0.09220413 0.2503149
0002f0 9c c9 f2 be 3f 30 51 bc c5 22 b4 be c3 1c f7 3e
       -0.4741944 -0.01276785 -0.35182777 0.4826413
000300 8b 7c 8b 3d 5e 9f fb 3b 97 e5 f4 bd e7 37 a1 be
       0.06810864 0.00767891 -0.11957853 -0.31487963
000310 28 12 29 3d 86 fb 4e 3e 00 29 95 be ee 50 32 be
       0.04127708 0.20213136 -0.29132843 -0.17413685
000320 d8 6e 14 3e e3 d2 1f 3d a0 8a 83 3e 9d 3c 44 be
       0.14495409 0.039019477 0.256917 -0.19163747
000330 7a 69 6b ba df b6 2e 3e 11 a6 a0 bd 2e 04 e3 bd
       -0.0008980256 0.17061947 -0.07844175 -0.110847816
000340 05 fa af 3e 68 23 87 be a5 1e de be dc f0 bb 3e
       0.34370437 -0.263942 -0.43382755 0.367072
000350 aa b8 40 3d 32 3a a9 3e 6f b9 8a 3e f1 78 0e 3c
       0.04705111 0.33052212 0.270946 0.008695827
000360 c9 73 7f be da 34 45 bd 30 ae 4b bd 51 fa a6 3d
       -0.24946512 -0.048146106 -0.049726665 0.08153213
000370 ff 68 0a bd 76 50 46 bd 24 5d a1 bd 1a 59 7f bd
       -0.03379154 -0.048416577 -0.07879093 -0.062340833
000380 64 9d 90 3e 73 b9 1c 3d 8a 30 07 bc ec b6 b0 be
       0.2824508 0.038262796 -0.008251319 -0.34514558
000390 ca 83 5d bc 8b 37 a2 be aa c5 ed bd 86 7d e4 3c
       -0.0135201905 -0.31683 -0.11609967 0.027891885
0003a0 26 0f b3 be ee 07 27 3e 00 a5 1f 3c 5c 63 2a 3e
       -0.34972495 0.16311619 0.009743929 0.16639465
0003b0 33 a2 ca 3d 45 e7 3c be 9b 2f a6 be ff f7 06 bf
       0.09894218 -0.18447597 -0.32458195 -0.5272216
0003c0 74 11 94 3e c7 66 fc be 9b 9b 3f bd 01 4e 9a bc
       0.28919566 -0.49297163 -0.046779256 -0.018836023
0003d0 bf 13 53 be 35 2d 01 be 93 0c 14 be e0 7e d6 3b
       -0.20613001 -0.12614901 -0.14457922 0.0065458864
0003e0 a1 cc 2d bd 8b 3d 2d 3e a5 96 8e be ac 19 6c 3e
       -0.042431477 0.16918008 -0.27849308 0.23056668
0003f0 a9 42 dd bd 1e 97 10 3e 3f 94 1d 3e 41 52 fe bd
       -0.1080373 0.14120147 0.15388583 -0.124180324

actor.0.bias f4 [64]
000000 d9 e1 4f be 98 24 26 bd e1 e4 38 3d 68 c0 8a be
       -0.20300998 -0.040562242 0.04514015 -0.2709992
000010 9c 28 2b 3e b2 6d 76 bd 39 78 c2 bd e3 59 1c be
       0.1671471 -0.060163207 -0.09495587 -0.15268664
000020 30 da bf 3c 1d d2 8a be a3 0b 73 bc 67 4b 9e 3e
       0.02341947 -0.2711343 -0.014834317 0.30916902
000030 b3 eb 2c 3e b2 15 1b bd 81 88 e6 bd 62 38 e3 3c
       0.16886787 -0.037862487 -0.11256505 0.027736846
000040 6a 52 dc bd cc 5b 93 be 0d 33 9d bd 18 fd 8c be
       -0.10757907 -0.28780973 -0.07675753 -0.27536845
000050 53 d3 09 3d 11 5e a1 3e 21 28 9c bd 38 7c a5 3d
       0.0336488 0.3151708 -0.076248415 0.080803335
000060 a0 b0 2e bc f3 15 6f be bc c7 32 be 95 f8 8a 3d
       -0.010662228 -0.23348217 -0.17459005 0.067856945
000070 ad 82 1b bc 6a 35 39 be e1 0f 27 bd 92 61 83 be
       -0.009491605 -0.18086782 -0.040786628 -0.25660378
000080 02 4b 09 be 0c ba 17 be 97 bd 97 be 7d da 64 3e
       -0.1340752 -0.14817065 -0.29636833 0.22348972
000090 af 3d 22 3c d7 73 88 3e 76 31 6d be ce 1b 03 3e
       0.009902402 0.2665088 -0.23163399 0.12803575
0000a0 76 59 3e bc 43 88 b0 3e bb b2 51 bd db 47 a8 3d
       -0.011618009 0.3447896 -0.05119584 0.0821683
0000b0 1e a1 0f 3e 9a 89 53 be 5d 3d 39 bb df 46 70 3d
       0.14026305 -0.2065796 -0.0028265335 0.058661338
0000c0 9a 26 90 3d a1 4f b7 3d c0 f3 96 be d8 10 85 be
       0.07038613 0.08950735 -0.29482841 -0.25989413
0000d0 46 fd 40 be 2c 67 83 bd db 90 7a be 2f a3 9e 3d
       -0.18846616 -0.06416163 -0.2446932 0.077459686
0000e0 ce e1 94 bd b6 2b 7a 3d 76 11 f2 bd b2 92 1e 3e
       -0.07269631 0.061076842 -0.11819737 0.15485647
0000f0 3f cd 9a be 1a a2 84 be ef 02 93 be b5 c0 a0 bd
       -0.30234715 -0.25904924 -0.28713176 -0.07849256

actor.2.weight f4 [64, 64]
000000 22 44 97 3c d0 b7 51 3c da ac 04 3e ce 57 61 be
       0.018465105 0.012800172 0.12956563 -0.22006151
000010 e5 f8 07 3d 8d 14 0e bd 8f 10 ad bd 93 c6 b6 3d
       0.03319635 -0.034687568 -0.08450424 0.08924594
000020 49 d3 a2 3d 4a 2c 98 3e c5 8a da 3d 8c 2e f7 bd
       0.07950456 0.2972129 0.106709994 -0.12069425
000030 83 35 3a be f7 78 63 3c 0f ba 22 be d4 be d1 3b
       -0.18184476 0.013883821 -0.15891288 0.0064009223
000040 e3 17 06 be eb fc 30 3d 18 b0 0f 3d bc 65 d9 bc
       -0.1309505 0.04320995 0.035080045 -0.026537769
000050 72 3c 43 3d b6 66 c1 3d dd 48 66 3d f4 c5 0a 3d
       0.047665067 0.09443419 0.05622183 0.03388019
000060 55 a0 0a be d2 97 eb bb 81 77 61 3d 25 4e 0a be
       -0.13537724 -0.0071897293 0.05504561 -0.13506372
000070 40 77 9d 3d 1c 04 97 bd c7 07 69 bb 66 be dc 3d
       0.07688761 -0.07373831 -0.0035557614 0.10778503
000080 84 30 0a 3e c7 f1 c4 be eb db 20 be e6 01 6e 3d
       0.1349507 -0.3846571 -0.15708892 0.05810728
000090 d5 ec 21 bd 0c 97 4f 3d c1 09 07 be e3 d2 31 bd
       -0.0395325 0.05068116 -0.13187315 -0.043414008
0000a0 27 67 d5 3b 33 5e dd 3d 66 11 42 3e 69 d5 6a bc
       0.006512541 0.10808983 0.1895195 -0.0143331075
0000b0 73 4c 13 be c5 d5 2f be 0b 8e ad bd eb e7 26 3e
       -0.14384632 -0.1717139 -0.08474358 0.16299407
0000c0 00 0b 63 3e d8 f6 ad bd b3 0c 8b bd 44 17 84 3d
       0.22172165 -0.08494347 -0.067895316 0.0644975
0000d0 52 b0 8a bd f7 bc d3 3d a2 e3 45 3e a2 c6 56 be
       -0.06771912 0.103387766 0.19325116 -0.2097421
0000e0 6b b2 00 3e 25 ff 74 3e 55 25 0f be 30 e3 69 be
       0.12568061 0.23925455 -0.13979085 -0.22840571
0000f0 1a b4 9b be 4a 3f cd 3d da 38 83 be 98 69 20 3d
       -0.30410844 0.10021837 -0.25629312 0.039163202
000100 27 62 ed 3d f0 3c 8b bc 02 4d e5 bd 63 85 1e 3e
       0.11590987 -0.01699683 -0.11196329 0.1548057
000110 e0 be 08 3d 71 6f 28 be 3a e0 16 3e b0 37 2c bd
       0.033385158 -0.16448762 0.14733973 -0.042045295
000120 59 67 3a 3e 21 73 33 3e 69 1e ee bd bc 1e 11 bc
       0.18203487 0.17524387 -0.11626894 -0.008857425
000130 80 ba 18 bd 44 91 e6 3d 4e 45 ea bd 80 e6 12 bc
       -0.037287235 0.11258176 -0.11439 -0.008966088
000140 4a 2f 74 bd 7e b8 7a 3d 20 16 3b be c4 e1 72 3e
       -0.05961541 0.0612111 -0.18270159 0.23718935
000150 b1 86 cf 3d 45 96 17 be 30 77 6b 3d 9c 81 79 bd
       0.10133112 -0.14803417 0.057486713 -0.06091462
000160 24 9f e3 bd 21 de cb bc 1f 36 97 3d a5 8e c8 3d
       -0.11114338 -0.024886193 0.0738337 0.09792832
000170 06 c8 09 bd 6a 5e 6b bc 2a 58 26 3e cb b5 96 bc
       -0.033638023 -0.014365772 0.1624457 -0.018397233
000180 8e 8f 40 be 33 67 6a be cc a4 ba 3d dd 22 45 bd
       -0.18804762 -0.2289093 0.09113464 -0.04812895
000190 ee bc d6 3d 4f 38 70 3d 01 1c 9e bd fc 91 89 be
       0.10485254 0.05864745 -0.07720185 -0.2686919
0001a0 c5 93 44 3d 8a b6 a0 bd 93 15 bd bc c4 87 9b be
       0.047992487 -0.078473166 -0.023081576 -0.30377018
0001b0 dc 3b 47 3e 76 d2 93 3d 6e 52 63 bd 76 92 b1 bb
       0.19456428 0.072178766 -0.055498533 -0.005419071
0001c0 41 df 3f bd 9f ab 09 bb e1 08 e6 3d 9a e4 a9 3c
       -0.04684377 -0.0021006835 0.11232162 0.020738889
0001d0 d8 66 31 3e d2 a6 20 3e ac 34 e9 3d c7 af a2 3d
       0.17324388 0.15688637 0.113869995 0.07943683
0001e0 dd 5f 85 bc 5a 98 2c bd fa 41 30 be 44 62 80 3b
       -0.016281063 -0.04213748 -0.17212668 0.003917964
0001f0 48 3e c0 3c b1 83 bc 3d 0b 09 53 bd b7 eb d8 bd
       0.023467198 0.09204806 -0.051522296 -0.10591834
000200 00 98 b8 bd 2e 11 71 3d 69 06 4d 3a 4b 8a 9e bd
       -0.09013367 0.058854274 0.00078210846 -0.07741221
000210 52 ab 39 be 6b cb 44 be 6b 59 2f 3e 73 5d 1f be
       -0.1813176 -0.19218223 0.17123954 -0.15562992
000220 da 42 5c bd 17 94 22 3e 55 a7 0a 3d ee 44 4f be
       -0.053774692 0.15876804 0.033850987 -0.20241138
000230 ef 2d be 3d 33 6e 95 be b2 08 10 be ad a2 3a be
       0.09286105 -0.29185638 -0.14065817 -0.18226118
000240 2f 28 3d 3e 28 40 07 3e 1e 20 59 bc 66 3a 8d 3d
       0.1847236 0.13208067 -0.013252286 0.06895904
000250 9e dc df 3c 87 4b 64 bd c6 96 4b be f4 5d 77 3d
       0.027326878 -0.05573609 -0.19881734 0.060392335
000260 82 81 b8 bd 2e a0 4d 3d 3c 0b 32 3e fc 77 45 3e
       -0.09009077 0.050201587 0.17387098 0.19284052
000270 b2 e9 59 be 37 2f f7 3d a7 fc 92 bc 11 96 cd bd
       -0.21280554 0.120695524 -0.01794274 -0.100383885
000280 c9 0c 9b 3d 17 7b 39 3d ff 3c 9b 3c a7 ec 91 be
       0.07570798 0.045283403 0.018949984 -0.28500864
000290 e4 cb 0e bd 07 59 60 be 90 2c b9 bb 44 f6 9c 3d
       -0.034862414 -0.21908961 -0.005651064 0.07664159
0002a0 9c c4 7b bd 8d 66 22 bd 7c 5f 59 3d 4d 94 b0 be
       -0.0614668 -0.03964858 0.053069577 -0.34488145
0002b0 5b 3e 89 bc 90 78 1f bd 95 e6 d2 3c 69 3d df 39
       -0.016753366 -0.038933337 0.025744716 0.0004257963
0002c0 d3 04 b8 bd af 02 b3 bc 3f 19 10 bd e6 8f 15 3e
       -0.08985295 -0.021851866 -0.035180327 0.14605674
0002d0 c5 20 8a 3e cb 35 60 bd d9 29 be bc 9d 1f e6 bd
       0.26978126 -0.0547388 -0.023213314 -0.112364985
0002e0 33 e5 78 3e 8c 52 15 3e 7f 47 33 bf f5 80 4c be
       0.24306183 0.1458227 -0.7003097 -0.19971068
0002f0 d6 d2 72 bd 0f 3f 8f 3d 26 a8 ca bd 91 a1 09 3d
       -0.0592831 0.06994449 -0.09895353 0.033601347
000300 86 1e 1b bb 44 7b f7 3d c9 e4 2e 3e 69 e1 16 3d
       -0.0023669316 0.12084058 0.17079462 0.03683606
000310 70 6f d5 3b 2c 34 00 3c b3 47 76 bc cf 24 29 3d
       0.0065135285 0.007824939 -0.015031743 0.04129487
000320 75 e9 40 be 96 21 3b be 7b a3 bb 3d 50 59 dc bc
       -0.18839057 -0.18274531 0.09162041 -0.026898056
000330 ea 7a a4 bc 1e 6a 4b be 59 8a 7c 3e 2c 0f b7 3c
       -0.020078141 -0.19864699 0.2466215 0.022346102
000340 bb f6 15 be 87 96 17 3e c7 87 0f 3e 73 51 19 bc
       -0.14644901 0.14803515 0.14016639 -0.009357798
000350 87 02 40 bc 76 79 f1 bd ad 4d 49 be 0d 69 28 be
       -0.011719353 -0.11790745 -0.19658537 -0.16446324
000360 78 d5 fe bd 90 6a 70 3e c2 8a f9 bb 5d cd cf bc
       -0.1244306 0.2347815 -0.007615418 -0.02536648
000370 34 3b 28 3e e9 96 fe bd 93 95 10 3e 89 8f 8f be
       0.16428834 -0.124311276 0.14119558 -0.28039196
000380 ec 2e 26 3d 6b dd 38 3e 6f 78 f2 3d b4 e1 b4 be
       0.040572092 0.18053214 0.11839377 -0.35328448
000390 7f 36 a6 bb 3e 53 e7 3c 5d 4e 47 be 8f aa db bc
       -0.0050724144 0.028237935 -0.19463487 -0.026814727
0003a0 c2 5c 6b be 0f 51 98 3d 3e 0e 98 bd cc 7b 89 bd
       -0.22984603 0.07437336 -0.074245915 -0.067130655
0003b0 a1 02 5c 3e 65 b5 8e bc 8c 43 38 3d e0 a7 3a bd
       0.21485378 -0.01742048 0.044986293 -0.045570254
0003c0 c3 8a 72 be 2b f8 2a be 9d c3 5e bd 33 95 5d 3e
       -0.23685746 -0.16696231 -0.05438577 0.21638946
0003d0 e9 6d 7b 3c f4 84 5b be 85 53 e4 be d5 d9 46 3e
       0.015346029 -0.21437436 -0.4459497 0.19419034
0003e0 6c 41 92 be c1 79 a7 3d 1f a4 1c bd 2e 98 19 3d
       -0.28565538 0.081775196 -0.038242456 0.037498645
0003f0 55 ad 02 3e 91 d2 8e be 97 29 8e 3d 69 e8 46 3c
       0.12761433 -0.27895024 0.069415264 0.012140372

actor.2.bias f4 [64]
000000 16 c1 08 3d 61 cf ff 3c ff 19 7e 3d a8 06 15 3e
       0.033387266 0.031226816 0.06203651 0.1455332
000010 fc 1c 6e 3e 6a f2 4d 3d f4 ec a6 3c 5c 7f 62 be
       0.23253244 0.050280012 0.02037666 -0.22118896
000020 67 9c 94 bd 37 40 26 3e 13 6c 23 be 90 ba 81 3e
       -0.07256394 0.16235434 -0.15959196 0.25337648
000030 8f bc 76 bb ff c7 da bd f8 08 07 be b3 6b ea bd
       -0.003764901 -0.106826775 -0.13187015 -0.11446323
000040 35 97 14 3d d6 8f d7 bd ec 20 8d bc 68 81 c8 bd
       0.036277015 -0.105254814 -0.017227612 -0.09790307
000050 b8 ea 87 bc 77 b6 0c 3e 9a a1 13 3d a0 37 52 bd
       -0.016591415 0.1374148 0.036042787 -0.05132258
000060 23 a4 a1 bd 2d 22 1e be 27 23 7c bc 83 b7 ff bc
       -0.07892635 -0.15442725 -0.01538924 -0.031215435
000070 4e f1 3f be 4a c9 12 be 6c 4c 86 bd ec c2 c4 3d
       -0.18744394 -0.14334598 -0.06557545 0.09607491
000080 93 c4 e7 bd a8 86 ab bd 9d a2 42 bd 43 af 51 bc
       -0.113167904 -0.08375293 -0.04751836 -0.012798133
000090 fb 52 16 3e c5 19 a8 3d 3e 04 1d be 7b b5 30 3e
       0.14680092 0.0820804 -0.1533365 0.1725673
0000a0 8e d2 9f 3d 4e 9d 9d 3d 02 41 5c bd c7 84 80 3e
       0.07803832 0.07696019 -0.053772934 0.251013
0000b0 97 bc 00 3d 72 22 c0 bd 40 ab 13 3e 7c 87 9c 3c
       0.031429853 -0.0938157 0.14420795 0.019107573
0000c0 ad 18 a7 be f7 f1 89 3d ce b2 82 bd 15 20 44 3e
       -0.32636014 0.06735604 -0.063817605 0.19152863
0000d0 e3 4a 2e be 06 58 b0 3d d8 77 8a 3d 5b 91 b9 bd
       -0.17020755 0.08610539 0.0676114 -0.090609275
0000e0 ce b5 51 3e 9a cf b5 bd 69 68 09 3e 0b 0a b1 3d
       0.20479509 -0.088774875 0.13418736 0.08644494
0000f0 ee 31 30 be 8c de 4a 3e b8 eb 02 be 35 41 42 bd
       -0.17206547 0.19811457 -0.12785232 -0.047425468

mean.weight f4 [6, 64]
000000 99 aa 71 be e1 8d 2f 3e 76 cc 55 3e a1 a2 4f bd
       -0.23600234 0.17143966 0.20878777 -0.050692204
000010 a8 a2 4a be 9c c2 99 bd 5a 74 69 be b5 73 d0 be
       -0.19788611 -0.07507822 -0.22798291 -0.40713277
000020 9f aa 16 be 7b ed 6f 3e 32 a6 90 be 83 e2 9e 3c
       -0.14713524 0.23430435 -0.28251797 0.019395119
000030 68 ff 5c 3e 48 5d af 3d 55 f8 aa be ae 28 07 be
       0.21581805 0.08562714 -0.33392587 -0.13199112
000040 ad 78 eb bc 2b 7c b3 bc 01 b9 68 3c 39 14 d0 3c
       -0.028744066 -0.021909794 0.014204265 0.025400268
000050 07 9d c8 bd 9d c8 9c 3c 45 37 c3 3d 0b 68 2c be
       -0.097955756 0.019138629 0.09532026 -0.16836564
000060 d0 40 bb bd dc 3e 9e 3d 4f c8 29 bd 99 f1 87 3d
       -0.091432214 0.07726833 -0.041450795 0.06637878
000070 5e 04 3a be f5 19 b1 be ce 9f 6f bd 94 10 5f 3e
       -0.18165728 -0.34590116 -0.05850201 0.21783668
000080 c4 65 5b bd 4f c8 a1 3e 52 e3 44 3e 84 ff 74 be
       -0.05356385 0.31598136 0.19227341 -0.23925596
000090 27 ec 18 3d 91 77 0b 3e ec f3 ed 3d f0 7f f4 bd
       0.037334587 0.1361983 0.1161879 -0.11938465
0000a0 06 2b 21 be d1 12 bf bd d3 21 80 3d 1d 2a 7c 3e
       -0.15739068 -0.09329761 0.062564515 0.2462544
0000b0 09 d0 29 3e 3a 08 fc bd de 40 12 3e a4 12 9a 3e
       0.16583265 -0.123062566 0.14282557 0.30092347
0000c0 68 ff b0 bd 2b 6f 23 bd 1d 6a b6 3d f1 4b 81 3e
       -0.08642465 -0.03990094 0.08906958 0.2525325
0000d0 7b 65 ec be da c3 fd 3d 1c 1c 77 be e3 be 9b bc
       -0.46171173 0.12390871 -0.24131817 -0.01901192
0000e0 4c 5b d2 3d 78 1b f2 3c 2a 02 35 3e f0 ea 19 3c
       0.1027132 0.029554114 0.17676607 0.009394392
0000f0 e7 80 db bd 15 5c 29 3e e6 26 8f 3d 87 30 ac 3e
       -0.107179455 0.16539033 0.06989841 0.33630773
000100 00 6d 0d be f8 22 66 bd c3 ff 5a be ad 9b c0 3e
       -0.13811111 -0.056185693 -0.21386628 0.3761877
000110 74 02 5a be 72 dc a5 bd 7e 2b 96 bd b4 2a 20 bd
       -0.21289998 -0.08098687 -0.07332514 -0.039103225
000120 c5 14 9f 3d 58 4b 3d be b0 cd 26 be 8e 59 52 3e
       0.07767633 -0.18485773 -0.16289401 0.20541975
000130 e5 43 a0 bc ee e5 31 3e 61 59 00 3c 21 dc bf bd
       -0.019563625 0.17372867 0.00783381 -0.09368158
000140 73 4c 62 3e 57 da 22 3e 8b b1 f9 3d e4 0a c2 bd
       0.22099476 0.15903603 0.12192067 -0.094747335
000150 68 a5 40 3c 92 50 1e 3e 8b aa 54 be 99 37 ac be
       0.011758186 0.15460423 -0.20768182 -0.33636168
000160 47 74 9b bd a1 57 13 bd ee 50 01 3e 70 85 83 3e
       -0.075905375 -0.03597224 0.12628528 0.25687742
000170 65 f2 b8 bb 28 3f 02 3e 75 78 5b 3e 4f 57 1d 3e
       -0.00564413 0.12719405 0.2143267 0.15365337
000180 15 ea e9 3d e7 fd cc 3d 97 7d 6b be a9 e8 34 bd
       0.11421601 0.100093655 -0.22997127 -0.044167195
000190 a2 73 e1 bd 79 18 c9 3c 02 26 93 bd 48 0a 8f bd
       -0.11008383 0.024547802 -0.07184984 -0.06984383
0001a0 7b 56 d5 3d 50 31 da bc 8c 14 ab 3e 0d c1 18 bd
       0.104168855 -0.026634842 0.33414114 -0.037293483
0001b0 7c c4 a6 3d 50 5f 35 3e 91 c7 98 bd 37 f9 60 3d
       0.08142945 0.1771214 -0.07459939 0.05492517
0001c0 14 70 ac 3d 0c 40 24 3e 01 7c e2 bd ea 3d 6b 3e
       0.08419815 0.16040057 -0.11058808 0.22972837
0001d0 be 89 9b 3d 73 55 38 bd 2d 4d 3e 3d e6 b4 3a 3d
       0.075946316 -0.045003366 0.04646032 0.045582674
0001e0 f8 c4 5c 3e 4c 4f d8 3c 2a 8b 3d 3e f5 f1 fd bd
       0.21559513 0.026405 0.18510118 -0.12399665
0001f0 88 81 ce 3c 07 55 ab 3d d8 16 04 3e 46 61 15 bc
       0.02520825 0.08365827 0.12899339 -0.00911743
000200 65 1f 5f bd 2e 2b 2e be 5b bb 53 be 32 25 84 bc
       -0.0544733 -0.17008659 -0.20676939 -0.016131017
000210 d0 7c 8d 3e 0a 9b 68 3e 18 9d 8e be c0 1d 86 3e
       0.27634287 0.22715393 -0.27854228 0.26194572
000220 8b 0f 56 bd 29 ae 55 3e b7 8f 69 3e e3 c7 1b 3e
       -0.052260917 0.20867218 0.22808729 0.1521297
000230 28 1a e6 3c e0 7f 1b bc 37 81 09 be b6 8f e5 bd
       0.028088644 -0.009490937 -0.13428198 -0.11209051
000240 66 fc 96 3e fd 5d 46 3d a8 20 eb 3d 38 76 f5 3d
       0.2948944 0.048429478 0.11480838 0.11985439
000250 25 0e 3c 3e c7 0c 92 3e af f3 84 be 0b fa 7b bd
       0.1836477 0.28525373 -0.25967166 -0.061517756
000260 ba fd d3 bd c8 83 1f be 7d 88 06 3e 77 91 6c bd
       -0.10351129 -0.15577614 0.13138004 -0.057755914
000270 71 e0 0b be 44 e0 6e 3e 49 a8 04 bd 18 1e c4 bd
       -0.13659836 0.23327738 -0.03238705 -0.095760524
000280 89 89 00 3f 54 2f c6 3d 6b bb e2 bc 13 f1 19 be
       0.5020986 0.09676996 -0.027677258 -0.15033369
000290 dc 23 97 3d 08 52 4a 3e 9f 97 29 be 72 dd a3 3d
       0.073798865 0.19757855 -0.16561745 0.08001222
0002a0 23 07 e6 bd ea 11 4c 3d 3c 26 de 3c 66 f5 54 be
       -0.1123183 0.04982177 0.027117841 -0.20796737
0002b0 a9 27 66 3e df 10 c8 bd a7 a0 07 3e 00 2e c6 3c
       0.22476067 -0.09768843 0.13244878 0.024191856
0002c0 53 be 85 3e 9e d0 8c be 7f 12 2c be 5b e1 80 3e
       0.26121768 -0.27502912 -0.1680393 0.25171933
0002d0 43 10 25 bd df c0 8b 3a eb 66 8e 3d fe 9a c2 be
       -0.04029871 0.0010662338 0.06953224 -0.38008875
0002e0 a0 33 81 3e 47 47 48 3d 23 35 4a 3d 9e ad 78 bd
       0.252347 0.0488961 0.04936708 -0.06071245
0002f0 eb a0 9a bd 97 a2 0d 3c a0 71 0d bd c1 db 22 3d
       -0.07550224 0.0086447215 -0.03453219 0.039760355
000300 b3 8c 3c bc c8 fc df bd 6c 66 59 be 39 7c 85 3c
       -0.011508155 -0.10936886 -0.21230477 0.016294586
000310 21 3f 5d 3e df ce 1f 3d 28 70 87 bd 1d c1 93 3e
       0.21606113 0.039015647 -0.06613189 0.2885827
000320 1a 62 83 b8 e7 08 21 3c b6 bd 63 3e 53 14 0a bd
       -6.2648396e-05 0.009828783 0.22240338 -0.03371079
000330 aa c6 f6 bc 9b b4 bb bd 71 eb 1c 3d 95 fe 29 3e
       -0.030124027 -0.09165307 0.038310472 0.16601022
000340 1b 1d 1f be 83 1e a9 3d 4f d1 8c 3c 78 ce cc 3b
       -0.15538447 0.08257773 0.01718965 0.006250199
000350 fc 2d 94 3e 32 dc 1a 3e c9 bf 38 bd bd 5a 00 3d
       0.28941333 0.1512306 -0.045104776 0.031336535
000360 36 c9 6d 3d f5 4b 31 bd e9 04 b4 3d 5a 05 0c be
       0.058053218 -0.04328533 0.08789999 -0.13673916
000370 57 38 8a 3e 4f ba 63 bc e5 85 34 3e 87 a5 23 3d
       0.2699611 -0.0138994 0.17629202 0.03995278
000380 4e ff 6f bd 62 c5 a3 3e 50 de db 3b 01 24 a9 3c
       -0.058593087 0.3198653 0.0067098513 0.02064705
000390 6d b4 77 3e f0 07 a3 bd 0f 4b 82 3e 6f 55 a5 3e
       0.2418992 -0.07960498 0.2544789 0.32291743
0003a0 90 96 06 3d fa df a5 be 18 36 c9 bc 85 d5 9a 3d
       0.03285843 -0.32397443 -0.024561927 0.07560257
0003b0 a2 c0 76 bc ff 04 39 3e 4d 40 77 3d e5 87 84 bd
       -0.015060576 0.18068312 0.060364056 -0.06471232
0003c0 f1 e8 7c 3e e0 05 d2 3e 20 c2 03 3e 86 55 43 3d
       0.24698235 0.41020107 0.12867022 0.047688983
0003d0 34 d7 bd 3c fd fa c9 3e d3 e6 6f be 38 84 71 be
       0.023173906 0.394493 -0.23427896 -0.23585594
0003e0 6d 65 01 3d d6 94 ab 3d 47 88 c2 bc 1d ba 4c 3e
       0.031590868 0.083779976 -0.023746623 0.19992872
0003f0 9d 07 b6 3b c6 4f 20 be 97 6d f7 bd fe bf 3d 3e
       0.005555107 -0.15655431 -0.120814495 0.1853027

mean.bias f4 [6]
000000 5f 7e 1c 3e 14 42 1d 3e 7f 43 d7 bd 2a cd e0 3d
       0.15282582 0.15357238 -0.10510921 0.10976632
000010 af 6e 43 3e 9e 46 a0 3d
       0.19085191 0.07825969
