walker_small_saved_models/best_critic.pth (torch, 24240 bytes, 5 tensors)

critic.0.weight f4 [64, 17]
00000000: de30 b8bd 8199 fe3f b292 eabe 176c 2a3e
00000010: 559a b73e e638 cb3d 18af 9dbe e6a0 0e3e
00000020: 2d2a 7b3e 0091 58be 6f14 653d 0e32 923d
00000030: eea0 243d 7e75 623b a4f4 27be 2a88 a4bd
00000040: 3c0a 303c bd8c 94be 881e 99bf b06e 293e
00000050: f913 ed3d 4d2e a8bd 8d0c a33f ae32 313f
00000060: 5faf 61be 75b5 abbf 9a0d a13e 9841 413e
00000070: 5edf 13be c29e f8bb 8348 97bb 93e9 963d
00000080: 56c2 833d 2d78 53bb 0beb 75be ece4 7cbd
00000090: a4e3 96be 6772 5ebe fd91 a4be 5070 e93e
000000a0: c933 c73d c8c6 95be 44e4 78bf ef86 373f
000000b0: de77 a03d ffbd 0d3d 497c bcbd 63a4 533e
000000c0: 51e5 f43e 752a 823e d55d 6c3c 06f6 cf3e
000000d0: 628e a53f e51e 64bf d606 84bf cb53 9dbd
000000e0: 73ef 3ebf 9e7a 7fbf cbd2 403f 9e21 173e
000000f0: 1941 e7be d4a3 2dbf aafe 683e 48a6 c43d
00000100: e7eb 8fbc fbb6 b23e 45c6 513e 9775 eabc
00000110: ca59 033e 1672 26bf e686 8d3e 66a0 173e
00000120: f48e 7b3e 91b0 443f be63 323f e27b b1bf
00000130: 70f5 11bf 690c 8c3e 48be bbbe b16e 233e
00000140: ec04 f13d 45d6 3abc aa0b 553e 7158 503e
00000150: 1f47 5b3e 7d57 1d3f 6fbf 873f 456a 543e
00000160: b84e a63f 8983 bf3e 6232 1ebf 44b0 453f
00000170: c534 c13d c082 a3be cb38 16bf a85d b93b
00000180: 7bed 3cbe 2bb3 41bd 8794 3e3d 060c 263e
00000190: d863 ae3d ea04 05bc 2763 a13e 0692 ad3e
000001a0: deb9 19be 5712 2a3d 797b 2a3e 475b 0bbf
000001b0: d89c 01be b33e dc3e 1acf bd3e 2972 133d
000001c0: 6734 13bf a075 6e3d 5f36 ad3d c197 d2bb
000001d0: 1b2c 4b3e 2983 d33d a382 d83c fb3b f53c
000001e0: 31e3 c4be 7eeb 3f3b 0c25 adbe 008d 3c3d
000001f0: 4b41 be3f 62c0 0c3f e2b7 613f 9616 a6be
00000200: 44a8 753e 69f7 e03d 410e acbc 4be1 2d3c
00000210: 590a 6f3c 5d3c acbd dd55 03bd d140 3cbc
00000220: 76a2 743e 32f2 f9bf c921 a63f 3757 653f
00000230: 4c3c d23d 8113 303f 7225 9d3e aa65 9c3e
00000240: ffed 1dbe a51c 07bf a88e 27be 1450 ca3d
00000250: 1bd5 533d 2919 073b 1fca 0c3d e3f5 fa3b
00000260: 4643 69bd aac4 623e a188 ffbf 050e f13e
00000270: 6726 9b3f 4d3d 6fbe 035c 073f 7b79 3d3f
00000280: 4782 b8be 4106 75bd bc74 9cbe b445 97be
00000290: 74fd d0bb afd2 0f3d 74b6 dc3c 7f94 3d3e
000002a0: a417 b53d 0d68 69ba c300 87be 0484 3dbf
000002b0: 74fa 41bf 6d4a aabe 6c6b 1f3f 0883 533f
000002c0: 97b4 51bf 2a02 623f ad84 633e c1e8 b83e
000002d0: 1562 c73e 434f d3be 8aee 4cbe a540 eebc
000002e0: 6085 b2bd 88ea c0bd 13cb 48be 4da4 9e3f
000002f0: 5505 833f ad2e dcbe 07f9 543f 8ff8 4a3f
00000300: 4249 a4be 9ec8 723e 3e9e ef3e 3533 af3c
00000310: e850 043f faab 81be 71e0 253e 3e40 ae3d
00000320: 9814 eb3c 1f37 063e 4d5f c63d cb10 8dbb
00000330: 31ba 253f b993 56bf 228b 383f d006 1cbf
00000340: 83c6 24bd c1e5 8d3e 20c7 6f3f c3c0 0bbf
00000350: e07b 8dbe 64df 443f 820a 033f 719f 3abe
00000360: 24ae 92bd e1bf de3c 1a09 91be 26a3 27be
00000370: 04ac abbb 534e 913f e045 1b3f 7330 c7be
00000380: 9992 133f 3e61 083f daf0 90be c126 5e3f
00000390: 4bee ecbe fb28 03bf 5ea8 cb3d 0da4 393e
000003a0: ddc5 12be 7aca acbd 1f75 10bb 2673 62bd
000003b0: 6977 3dbc a361 6bbb 35e2 78be e5ec b3bf
000003c0: d634 883e 8f45 143f 0619 89bd f77b 293f
000003d0: db7f 5a3f 4615 633d 0090 b9bf 66bd 123e
000003e0: 2557 2a3e 5c9e 9a3d 2d20 c03d 999f c8bc
000003f0: 57b4 e6bd 3574 253c 47ed d3bb 34b2 1f3f
-0.08993696 1.9890596 -0.45815045 0.16642796 0.35859933 0.09922962 -0.30797648 0.13928565
0.24527808 -0.21149063 0.05592769 0.071384534 0.040192537 0.0034554894 -0.16401917 -0.08033784
0.010744628 -0.29013625 -1.1962442 0.1654613 0.11576075 -0.08211956 1.2738205 0.69217956
-0.22039555 -1.3414751 0.3145569 0.18872678 -0.14440677 -0.007587285 -0.0046167984 0.073687695
0.06433551 -0.0032267675 -0.24015443 -0.061741754 -0.2947055 -0.21723329 -0.3214263 0.455935
0.09726674 -0.2925322 -0.97223306 0.7169027 0.07835363 0.034605023 -0.09203393 0.20668177
0.47831205 0.25423017 0.014426668 0.40617388 1.2934077 -0.8910964 -1.0314586 -0.07681998
-0.7458412 -0.99796474 0.75321645 0.14758918 -0.45166853 -0.67828107 0.22753397 0.09602028
-0.017568542 0.34905228 0.2048579 -0.028620524 0.1282722 -0.6501783 0.27641982 0.14807281
0.24566251 0.7683192 0.69683444 -1.3865931 -0.5701513 0.27353218 -0.3666861 0.15960194
0.11768517 -0.011403625 0.2080523 0.20346238 0.2141385 0.6146162 1.0605296 0.20743664
1.2992773 0.3740504 -0.6179563 0.77222085 0.09433893 -0.31935692 -0.5868041 0.0056569166
-0.18449967 -0.04729001 0.046528365 0.16215524 0.085151374 -0.008118847 0.3152096 0.3390047
-0.15012309 0.041521396 0.16648664 -0.54436153 -0.12657487 0.43016586 0.37072068 0.035997543
-0.57501835 0.058217645 0.08457636 -0.006426782 0.19841044 0.10327751 0.02642948 0.029935827
-0.38454583 0.0029284651 -0.33817327 0.046032906 1.4863676 0.5498105 0.8817121 -0.32439107
0.2398997 0.1098469 -0.02100289 0.010612796 0.014589869 -0.08409951 -0.032064307 -0.011490063
0.23890099 -1.9527037 1.297906 0.89586204 0.10265407 0.6877976 0.3069263 0.30546314
-0.1542282 -0.52778083 -0.16363013 0.09878555 0.051716905 0.0020614362 0.034372445 0.0076587065
-0.056948923 0.22145334 -1.9963571 0.4708101 1.2121094 -0.23363228 0.52874774 0.7401349
-0.36036894 -0.059820417 -0.3055781 -0.29545367 -0.00637787 0.035113033 0.02694247 0.18513678
0.088424 -0.00089037494 -0.2636777 -0.74029565 -0.75772786 -0.33259907 0.6227329 0.8262181
-0.81916183 0.8828455 0.2221858 0.36115077 0.38942018 -0.4127141 -0.2001287 -0.02908356
-0.087168455 -0.09419733 -0.19608717 1.2393891 1.0236002 -0.4300436 0.83192486 0.7928552
-0.3208714 0.23709342 0.46800417 0.021386722 0.51685953 -0.2532652 0.16198899 0.08508347
0.028696343 0.13106965 0.09686146 -0.0043049804 0.6473723 -0.83819157 0.720873 -0.60947895
-0.040228378 0.2771435 0.93663216 -0.54591006 -0.27633572 0.7690337 0.5118791 -0.18224885
-0.07162121 0.027191104 -0.28327256 -0.1637083 -0.0052390117 1.1352028 0.60653496 -0.3890415
0.57645565 0.5327338 -0.28308755 0.86777884 -0.46275553 -0.51234406 0.09944223 0.18128987
-0.14333291 -0.08437057 -0.0022042466 -0.055285595 -0.011564114 -0.003591635 -0.24305041 -1.405667
0.2660281 0.5791864 -0.06694226 0.6620478 0.8535134 0.05544021 -1.449707 0.14330062
0.16634806 0.07549736 0.09381137 -0.024490165 -0.11264866 0.010098507 -0.0064674946 0.6238129

critic.0.bias f4 [64]
00000000: 686d 83bf 19af acbc 959c 07be 4e25 2bbf
00000010: 7ddd 9a3e 81b0 23bf 1d44 673f 7b1d cd3f
00000020: 51d4 993f 9c9c 2e3f 76c5 08be d14f 8abe
00000030: 7549 873e 7a4e 72be 0c3a d7be 2392 b93f
00000040: d4f7 3f3f 2ad9 bc3f a849 57be 0249 cb3f
00000050: afa9 e83f 25be 563f 9652 2bbf 78c6 09bf
00000060: d486 2e3f 47da 993f aefa bf3f 4633 903f
00000070: 2b66 973f 165b ad3f 98af a53f 294d 143e
00000080: 4225 923f 7938 a73f 3f8f dcbc acdf febd
00000090: 0c94 493f c4eb 7b3f 5902 afbe 613d f2bd
000000a0: a28d 52bf 7ce3 4cbf dd3d b93d 44b0 9d3f
000000b0: ad85 a03f 0a63 a43f b4d8 7a3f 58d0 bc3f
000000c0: b337 263e c0f1 83be c34b 25bf c208 bc3e
000000d0: 69be 84bf b73a 73be 170f 963e 4ae3 b83f
000000e0: 89ed 953f 96c4 1bbf cddf ad3e ff6f c63f
000000f0: 4a97 cf3f a1ba 18bf 6f95 d63d 7688 b4be
-1.0267763 -0.021079587 -0.13243325 -0.668538 0.30247107 -0.639412 0.9033831 1.6024622
1.2017919 0.68207717 -0.13356575 -0.2701402 0.2642323 -0.23662749 -0.42036474 1.4497722
0.7498753 1.4753773 -0.21024191 1.5881655 1.8176783 0.8388389 -0.6692289 -0.53818464
0.6817448 1.2019738 1.4998376 1.1265647 1.1828054 1.3543422 1.2944212 0.1448256
1.141762 1.3064109 -0.026923774 -0.12445006 0.78741527 0.98406625 -0.3418148 -0.11828113
-0.82247365 -0.80034614 0.090450026 1.2319417 1.2540795 1.2842724 0.9798691 1.4751081
0.16232185 -0.25770378 -0.6456873 0.36725432 -1.0370609 -0.23752867 0.29308388 1.4444363
1.1713115 -0.6084684 0.3395981 1.5502928 1.6218045 -0.59659773 0.10477721 -0.3526036

critic.2.weight f4 [64, 64]
00000000: 86ce 97be 9df9 2cbf 7087 543d 8d20 b5be
00000010: 487d 633e 83e8 89be 53c8 523d da7b 643f
00000020: ce10 213f cafa c13e e583 363d 32bb 27be
00000030: f5a5 e63c c111 0fbe 9ed0 24bf 12f1 113f
00000040: 62ab a73d 9f2c e43e 0508 7cbf 0b63 0f3f
00000050: 57b2 583f e4fe 3d3e 357e 7cbe 53d3 bf3c
00000060: 7930 3c3e dece a53e aee2 803e 8f8d dc3d
00000070: 3d63 8a3e 00e4 f93e 6835 af3e 3b99 0dbf
00000080: 0cdd 0b3f 6385 f83e 4274 82bf cf4e 5dbf
00000090: 22c1 ee3d 9de6 2f3f 6781 533c 7e51 e3be
000000a0: 09d7 babe 7bdc 97bd 4a41 513d eada 6e3e
000000b0: 6535 703e 63ee a63e 6edc 6a3e 743f 8d3e
000000c0: b4f0 e23e 55db 42bf 35d5 89be 5b01 3b3d
000000d0: e5a2 53be 9f44 bcbd 1379 e2be 59e2 a83e
000000e0: d904 383e 318d b6bd 3a3f d3be 6acd de3e
000000f0: cf64 003f 13c4 0fbf ffa5 67bf 6791 093d
00000100: 98d2 b1be f8f0 43bf 73c2 b4bc 37a6 25bf
00000110: 392c 843d eb78 c0be 4f44 883d c926 6f3f
00000120: 7229 423f 3d75 e13e e14d 5e3e 1945 89be
00000130: 5d4f d93d 6528 2abe 1292 1ebf 9ef8 863e
00000140: 70c8 153e 1bae b73e 45a0 74bf 5fa8 d63e
00000150: 6a2a 2a3f fe23 253e b32b 8dbe 4117 acbe
00000160: ea1a 0cbe d3ba 653e 0cf4 4c3e 603e 123e
00000170: 128e 2dbc d886 ff3e 2636 d13e 0aaf 04bf
00000180: 951f f33e 067b 143f 4820 89bf 8067 49bf
00000190: 9b9a 943e caf2 463f 95ec 93bd 27fc 0dbf
000001a0: a50d dfbe 387a 00bf a881 b9be eda7 9f3e
000001b0: 4279 033e 5dce 0f3f a99d 683e 859b ba3e
000001c0: 55e0 c83e 11b3 82bf 61b7 91be df58 853e
000001d0: 6328 20bf 8f78 8abe faa2 02bf a2dd 953e
000001e0: bbd1 c93d 6256 72be 7c93 dcbe 1c2d 033f
000001f0: c79f d63e 8ba4 f7be 0fc1 83bf bba1 41be
00000200: 53f5 303d 7e5c a73e 9221 33bf a18d 55bf
00000210: 909f 55be 4c2c e93e 57fd 1bbf b5d1 9ebd
00000220: 9124 c93a 5d27 3c3d fd1b c13e 0930 25bf
00000230: 2337 373f 321a 5f3e a175 1f3d 0c1c 853d
00000240: 4b27 8bbe ce52 613d 5d22 b43e 2110 873d
00000250: 36ff aa3d bdbb e8be 07a8 a23c bd47 3f3e
00000260: 59b2 923d 91a1 cc3e 9128 6e3e d53e e4be
00000270: cbd4 753e 1c5f 293e effa a23e db35 ca3e
00000280: 6106 10bf b757 64bf 7f2a d03c 20af 253f
00000290: b357 95bd e676 a5bf 73f8 a23e 36a6 3ebf
000002a0: 5128 c4be e392 493e 0e84 2f3e 7649 503d
000002b0: 505c 833e 71c0 853e f70d 84bc 5800 db3e
000002c0: a01c 57be 90de 793d 74f1 c9be fd31 f8ba
000002d0: de84 9dbd 45da 59be 4fd0 183f aa17 4c3e
000002e0: f460 383e ef03 8dbe 22db 91bf d22e 9f3e
000002f0: 9ffa a33d dbe4 87bf a439 1d3f 2132 fc3d
00000300: 6414 2bbf 7fe0 f3bd 3c4d 3b3d e27d aabe
00000310: daf7 c63e 4864 9cbd 0be7 b4be 4c78 9e3e
00000320: eeaa cb3e 6e3d 243e 22f5 ef3c 27a1 0ebe
00000330: 7a6a 4a3e 3c75 0abc f6ce 81be fcf1 383a
00000340: 9f56 28be b5f2 96bb 2d4b 133f 3c00 903e
00000350: 3f6c f43e 009f 543e ceea 55be b3fc 99be
00000360: 6a2c 023c 5f47 e23e 76c8 f23e 11a3 0b3f
00000370: 0abc 0c3e caa3 7c3e 6834 833e b460 5d3c
00000380: a51a a63c 008e bb3e 269f 91bd 21b4 ea3e
00000390: 75c5 5b3e f71d 6f3e 6253 fabd f0f1 14bf
000003a0: 24d0 42be 2851 7fbd b98e 7ebe 5032 763e
000003b0: ae30 043e 9efd 803e abf7 9dbd 353e 573e
000003c0: 63a3 823e c67b 23be 91eb 0bbf 4840 df3d
000003d0: 74d1 92bf ef4f 423b 0945 083e ac33 163e
000003e0: 51c3 713e e789 0ebe d1a5 8fbe 41a0 9b3e
000003f0: 1e68 9a3d 242c 43bd 21b1 c03e add2 c7bd
-0.29649752 -0.6756838 0.051886976 -0.35376397 0.2221576 -0.26935205 0.051460575 0.8925148
0.62916267 0.3788665 0.04455938 -0.16380003 0.028155306 -0.13971616 -0.64380825 0.5700847
0.081869856 0.44565293 -0.98449737 0.560105 0.84647125 0.18554264 -0.24657519 0.023416197
0.18377866 0.3238439 0.25172943 0.10769188 0.27028838 0.48806763 0.34220433 -0.55311936
0.54634166 0.48539266 -1.0191729 -0.8644838 0.11657931 0.6871126 0.01290927 -0.4439811
-0.36492184 -0.074151 0.051087655 0.23325697 0.23457868 0.3260375 0.2293565 0.27587473
0.44324267 -0.76115924 -0.26920477 0.04565559 -0.20667608 -0.09192776 -0.44232997 0.3298519
0.17970599 -0.08913649 -0.41259176 0.43516093 0.5015382 -0.5615856 -0.90487665 0.033585932
-0.34730983 -0.76539564 -0.022065377 -0.6470675 0.06453747 -0.37592253 0.06653654 0.93418556
0.7584449 0.44034758 0.21709396 -0.2681053 0.106108405 -0.16616972 -0.61941636 0.26361555
0.14627242 0.3587502 -0.9555705 0.41925332 0.6647097 0.16127011 -0.27572402 -0.3361149
-0.13682142 0.22434549 0.20014971 0.14281607 -0.010592954 0.49907565 0.40861624 -0.5182959
0.47485033 0.5800022 -1.0712976 -0.78673553 0.29024205 0.77714217 -0.07222859 -0.5546288
-0.43565097 -0.5018649 -0.36231732 0.31182805 0.12839225 0.5617426 0.22716393 0.36446777
0.39233652 -1.0210897 -0.2846022 0.26044366 -0.62561625 -0.27045104 -0.5102993 0.29270655
0.09854456 -0.23665765 -0.43081272 0.51240706 0.41918775 -0.48367724 -1.0293292 -0.18909352
0.04320271 0.32687753 -0.699731 -0.83419234 -0.2086165 0.45541608 -0.6093344 -0.07754842
0.0015345981 0.045935977 0.37716666 -0.6452642 0.71568507 0.21787336 0.03893054 0.0649949
-0.27178416 0.05501061 0.35182467 0.06594873 0.08349459 -0.45455733 0.019855512 0.1867971
0.07162923 0.39967015 0.23257662 -0.44579187 0.24006955 0.16540188 0.31832072 0.39494213
-0.56259733 -0.8919634 0.025410889 0.64720345 -0.07292118 -1.292691 0.31830177 -0.7447237
-0.3831201 0.19684939 0.17140219 0.050851308 0.25656366 0.26123384 -0.01611994 0.427737
-0.21007013 0.061003268 -0.39442027 -0.0018935796 -0.07691358 -0.2127467 0.59692854 0.19930902
0.18005735 -0.27542064 -1.1394999 0.3109041 0.080067866 -1.0616716 0.6141608 0.12314249
-0.6682799 -0.119080536 0.045727953 -0.33299166 0.3886097 -0.07636315 -0.35332522 0.30951154
0.39778847 0.16039059 0.029291693 -0.13928662 0.1976718 -0.008450802 -0.2535321 0.00070551015
-0.16439293 -0.0046065697 0.57536584 0.2812518 0.47738835 0.20763779 -0.20890352 -0.30075607
0.007945159 0.44195077 0.47418565 0.54545695 0.13743606 0.24671856 0.2562592 0.013511825
0.020276377 0.36631775 -0.07110433 0.45840552 0.21462043 0.23351274 -0.12222935 -0.5818167
-0.19024712 -0.062333256 -0.24859132 0.2404263 0.12909195 0.25193495 -0.077132545 0.21019824
0.2551528 -0.15965185 -0.5465632 0.109009326 -1.147017 0.0029649695 0.13307585 0.14668149
0.23609664 -0.13919793 -0.28056195 0.30395702 0.0753939 -0.047649518 0.3763514 -0.0975698

critic.2.bias f4 [64]
00000000: 47b8 8f3f fafb 653f 44f1 21be 01fd bfbd
00000010: 6f22 783f 55dd 8f3f 346a a33f 8c52 363d
00000020: dc10 59be dfbe 03bf 9ae1 60be 1843 b43b
00000030: b229 5e3f 2c93 863f 47c2 873f f93c 99bd
00000040: 01f6 a9be 6e59 10bf 50cc 8f3f 57ad bebe
00000050: 54e1 803f 605c 823f dd4e e5bd 3a5b 77bd
00000060: aa04 6c3f 4cac 53be 5c5f 2dbd 412d 2bbf
00000070: 40c3 913f 016e fbbe b493 95be 20a7 8a3f
00000080: d645 04be f2a6 d2be 6351 983f 25f8 92be
00000090: 8ba1 5bbf d0e9 d3be bf63 653f 62fd 7b3f
000000a0: d5b9 8ebe 1b33 87be d538 813f b83c 923f
000000b0: acad dfbe 5deb 8e3f 84a2 40be bfe9 7d3f
000000c0: c3ff cfbd 45d5 843f efb9 7b3f b666 943f
000000d0: 26ac 823f 8e1a 923f 1ef4 813f 695e 60be
000000e0: 25e0 3f3f b781 a6be d9d4 9ebd 90a8 83be
000000f0: 0803 a2be 3d3b 8f3f ed0f 8bbe a983 3dbd
1.1228112 0.8983761 -0.15814692 -0.093744285 0.9692754 1.123942 1.2766786 0.044512317
-0.21197838 -0.5146312 -0.2196106 0.0055011623 0.8678237 1.0513663 1.0606164 -0.07482333
-0.331955 -0.5638646 1.1234226 -0.37241623 1.0068765 1.0184441 -0.111966826 -0.060389735
0.92194617 -0.20671195 -0.04232727 -0.66865927 1.138771 -0.49107364 -0.2921425 1.0832253
-0.12917265 -0.41142994 1.1899837 -0.28704944 -0.8579337 -0.41389322 0.89605325 0.98433506
-0.27876154 -0.26406178 1.0095469 1.142478 -0.4368719 1.1165577 -0.18811995 0.99184793
-0.101562046 1.0377585 0.9833059 1.1593845 1.0208786 1.1414354 1.0152624 -0.21911015
0.7495139 -0.3252084 -0.07755441 -0.2571454 -0.31642938 1.1189953 -0.27160588 -0.04626814

critic.4.weight f4 [1, 64]
00000000: 2f02 753f b5f9 a93f 8027 05c0 14c7 cabf
00000010: f4b7 853f d85d 763f 1c9d 7c3f 7b29 12c0
00000020: 56ab e9bf f8ed b6bf fc26 dcbf 9610 d1bf
00000030: a39c 853f 91fc 8b3f 0c0a 8f3f 9d88 51c0
00000040: 8f01 b4bf e115 a6bf ee74 553f 46c6 b5bf
00000050: 0eb6 903f f2ea b73f f79a b8bf d8da c2bf
00000060: 5dd2 d03f 2051 10c0 1bb2 2fc0 d76b 6abf
00000070: a1e8 803f eb38 24c0 c1ad aabf 0b11 733f
00000080: 1608 e4bf fb87 a4bf f17e 873f 248c cbbf
00000090: 2b5a 1ec0 7e8d 87c0 485c 8f3f 2ce3 a73f
000000a0: eb74 aebf 74e4 39c0 ba60 973f 7159 803f
000000b0: ed73 d2bf 2c1f 7b3f 26b6 a7bf fe35 8d3f
000000c0: 9f89 c53d 3256 6e3f b5ec 723f dbbc a83f
000000d0: 3253 e23f 15ae 8a3f f46d 6c3f 7bbe bfbf
000000e0: 12aa a53f b505 22c0 ef6d dcbf f35a c6bf
000000f0: 8ded a9bf 6869 7b3f 70bf a8bf df17 ddbf
0.95706457 1.327933 -2.080536 -1.5842004 1.0446763 0.96236944 0.9867723 -2.2837818
-1.8255413 -1.4291372 -1.7199397 -1.6333187 1.0438427 1.0936452 1.1174941 -3.2739632
-1.4062976 -1.2975427 0.83381546 -1.4201133 1.1305559 1.4368575 -1.4422292 -1.5223036
1.6314198 -2.2549515 -2.7452457 -0.915708 1.0070993 -2.565974 -1.3334275 0.9494788
-1.7814968 -1.2853998 1.0585614 -1.5902143 -2.4742534 -4.236022 1.1200037 1.3116202
-1.362943 -2.9045687 1.1826394 1.0027295 -1.6441628 0.9809444 -1.3102462 1.1032102
0.0964539 0.93100274 0.94892436 1.3182634 1.7681639 1.0834376 0.92355275 -1.4980005
1.2942526 -2.5315983 -1.7221049 -1.5496505 -1.327562 0.9820771 -1.3183422 -1.727291
