walker_small_saved_models/final_actor_20241125_214936.pth (torch, 26016 bytes, 7 tensors)

log_std f4 [6]
000000 6b c1 c3 bf 78 8a d9 bf 72 d9 ee bf 32 fe 93 bf
       -1.5293401 -1.6995382 -1.8660109 -1.1561949
000010 69 20 cb bf 3d a1 ec bf
       -1.5869266 -1.8486706

actor.0.weight f4 [64, 17]
000000 f1 3c ac be bb ef 1f bf 51 1b cf 3e 2f c6 1a bf
       -0.33640245 -0.62475175 0.40450528 -0.60458654
000010 69 68 fd bc 62 99 64 bd dc 48 9b be a9 9a 11 be
       -0.030933576 -0.05581034 -0.30329025 -0.14219154
000020 6e 3e 10 be 09 84 ff bd 9b 4d 4b bd fb 38 48 3e
       -0.14086315 -0.124763556 -0.049634557 0.19552986
000030 a2 2c 2b 3e ce 07 80 be 66 24 1c 3e 2f 2e 09 be
       0.16716245 -0.25005955 0.1524826 -0.13396524
000040 6a 5b 8b bd 48 14 4a bd 4e 2e a3 3e d2 3b bf 3e
       -0.06804545 -0.049335748 0.31871265 0.37350327
000050 63 2f 1a bf 98 69 9f 3e 0b cf 3d 3e 3f 92 52 be
       -0.60228556 0.3113525 0.18536012 -0.20563601
000060 bd 32 c6 3e 84 d6 01 be 6a 42 e3 be 97 50 91 bd
       0.38710585 -0.12679487 -0.44386607 -0.070954494
000070 63 2e f8 3c 6d 35 04 3f b0 b1 e9 3d 74 3f e2 3e
       0.030295556 0.5164402 0.11410844 0.44189036
000080 34 92 dd bd 1a e2 39 3e 78 0a 51 be 3b ed 4d be
       -0.10818902 0.18152657 -0.2041415 -0.20110027
000090 6b 19 d2 be cf e7 54 3d 7a e1 32 be 55 ca 6a 3d
       -0.41035017 0.051978882 -0.17468825 0.057321865
0000a0 82 f6 cf 3e be 32 a2 bd 9f 19 90 be c2 ed a5 3e
       0.40617758 -0.079198346 -0.28144547 0.32407957
0000b0 16 93 33 be 64 35 ba 3d 0a c8 df bd e3 87 3d be
       -0.17536578 0.09092215 -0.10926826 -0.18508868
0000c0 cf 51 f1 be 0f 8d 7c be 6a 1b 65 3d 8b a4 64 3d
       -0.47132728 -0.24663185 0.055934347 0.055820983
0000d0 e4 2f 25 bd dc fc a6 3e f1 ac 16 be 6f e4 de be
       -0.040328875 0.3261479 -0.1471441 -0.43533656
0000e0 be da 25 3e 29 c4 92 be 1b d8 d2 3d 55 5b c7 3e
       0.16196725 -0.28665283 0.10295125 0.38936868
0000f0 56 ad f9 3e 19 3a a8 3d 07 4a 82 be 1d ca b6 bd
       0.48765057 0.08214206 -0.25447103 -0.08925269
000100 f4 fd be bd 94 ae 4e be 26 6d 21 be 05 8f e9 bc
       -0.093257815 -0.20183784 -0.15764293 -0.02851058
000110 05 24 a4 3e 3b 13 f9 bd 7b 54 2f bd f0 e7 09 3f
       0.3205873 -0.12161871 -0.042805176 0.53869534
000120 a7 fa 86 3d 0e ea 77 be 62 e8 1b bd 07 28 f0 be
       0.06590777 -0.24210379 -0.038063414 -0.46905538
000130 78 a1 c4 3d b7 c5 4c 3d 09 6e 01 3e cd b9 04 be
       0.0960111 0.049993243 0.12639631 -0.12961502
000140 1d 16 ec 3d ec 79 06 3e 86 45 3a 3e ab 96 4f be
       0.11527655 0.13132447 0.18190584 -0.20272319
000150 e9 17 8a 3c 55 3f 38 be a1 01 9e be ee 8b 32 3f
       0.016857104 -0.17992909 -0.30860618 0.69744766
000160 41 b1 a6 3d db 5e d2 be 79 bf bc bd 7b 40 0f 3e
       0.08139277 -0.41087994 -0.09216208 0.13989441
000170 82 ea 9b be 70 41 81 be a3 7f 2e be 04 e4 2a be
       -0.30452353 -0.25245237 -0.17040877 -0.16688544
000180 04 25 34 3e cd be b5 bd 93 0b 56 be 9a 28 9b bd
       0.17592245 -0.08874283 -0.20902853 -0.075761035
000190 c8 f2 c1 3e ee d7 07 bd 10 74 ad be 1b 8c c7 3d
       0.3788054 -0.03316491 -0.3387761 0.0974352
0001a0 2c fb 5e bd 96 dc ac be 3c 27 1b be 08 d8 09 bd
       -0.054438755 -0.33762044 -0.15151685 -0.03365329
0001b0 28 66 f2 bd 6b f2 58 3d e2 79 c4 3e 39 fd 33 3d
       -0.11835891 0.052965563 0.3837424 0.043942664
0001c0 5e cb a4 3e 55 fa 65 be ac c0 d0 be bb 4a 9e 3c
       0.32186407 -0.22458775 -0.40771997 0.019322744
0001d0 b3 f3 cd 3d 17 c4 07 3e ea c8 58 3e 25 5c 83 be
       0.100562476 0.13258396 0.21170393 -0.25656238
0001e0 a3 a7 f0 3d 7f 09 74 be d5 fd 5f be ef 3f 84 bc
       0.11750724 -0.23831747 -0.21874173 -0.016143767
0001f0 97 f7 ce 3e e3 01 bc be d3 38 62 be a0 ca 0e 3e
       0.4042327 -0.3672019 -0.22091989 0.13944483
000200 c6 16 e0 be 55 67 f4 bd e8 cf 55 3d fd 53 ee 3d
       -0.43767375 -0.119337715 0.052200228 0.11637113
000210 ea 57 77 3e 59 2d e0 3e ed 56 c1 be 08 77 73 be
       0.2415463 0.43784598 -0.37761632 -0.23775876
000220 08 3d 09 3a 90 61 f1 3d 97 cf 74 3e 19 d6 06 be
       0.00052352296 0.11786187 0.23907314 -0.1316761
000230 2d e0 c4 3e bf 28 76 3e ff 51 b3 3d ad 72 1f 3f
       0.38452283 0.24038981 0.08755874 0.62284356
000240 24 90 8c be b4 b5 00 3e 1c 75 5e be cd 7c 98 be
       -0.2745372 0.12569314 -0.21724361 -0.29782715
000250 72 5a b3 bb 08 50 99 bd 4b 3a da 3d ac a5 a0 3e
       -0.0054734284 -0.07485968 0.1065565 0.31376398
000260 25 b7 27 3e 50 e3 a3 bd 1c 88 b5 3d b8 d1 85 3e
       0.16378458 -0.08002341 0.088638514 0.26136565
000270 08 b7 cb be 10 a2 45 bf a6 16 25 3e ee d9 95 be
       -0.3978808 -0.7720041 0.16121921 -0.2926783
000280 6c ad bd be 29 eb 13 3e 25 69 a6 3c 30 29 a7 be
       -0.37046373 0.14445175 0.020313809 -0.3264861
000290 b4 e3 61 3d ad 2c 71 3e 28 6c 5f 3e bf 71 82 bd
       0.055148795 0.23552199 0.21818602 -0.063693516
0002a0 8f 1c ad 3d b4 84 5e be cf 04 c3 bc 34 f1 b2 3c
       0.08452713 -0.2173031 -0.023806004 0.02184353
0002b0 38 6d ba bc d0 ed 41 be c7 d9 cf 3e fa 9f cd be
       -0.022757158 -0.18938375 0.40595838 -0.40161115
0002c0 19 f7 56 bd 53 6f 00 3e cd 0d a5 be 70 46 63 3e
       -0.052481744 0.12542467 -0.32237092 0.22194839
0002d0 88 c9 03 bd 2b 01 f7 be de d0 ae 3e dd 62 d1 bd
       -0.032174617 -0.4824308 0.34143728 -0.10223935
0002e0 11 2e 47 bd 8e 7e 6c be f8 62 aa 3d 10 8f 74 3e
       -0.048627917 -0.23095152 0.08319658 0.23882699
0002f0 5a 4d f4 be c7 9b 2d be 60 23 4f be 4f 26 fb 3e
       -0.47715265 -0.16953956 -0.20228338 0.49052665
000300 c5 5b 3a 3e 08 70 e2 3d 96 0f 33 be 80 e0 b3 be
       0.1819907 0.110565245 -0.17486414 -0.35132217
000310 d4 3c 63 bd 06 10 1a 3e 0b 7a c0 be f2 3f 8c be
       -0.055477932 0.15045175 -0.3759311 -0.27392536
000320 1a d0 09 3e f5 b2 b5 3d c3 18 90 3e 28 e2 ff bd
       0.1345829 0.08872024 0.28143892 -0.12494308
000330 8e 40 b4 bd a1 0f 64 3e 8b 76 9d be 01 ef c5 bb
       -0.08801375 0.22271587 -0.30754504 -0.0060404544
000340 39 e3 b6 3e 0e 8e b9 bd ff f7 bc be 2c c3 ca 3e
       0.35720232 -0.09060298 -0.36907956 0.3960203
000350 b3 b9 9d 3c 9d 63 a8 3e 1c c4 99 3e 4f 01 35 bc
       0.019253587 0.328885 0.30032432 -0.011047675
000360 b3 73 a5 be 0f 91 0f bd f0 e8 86 bc 72 98 23 3e
       -0.32314834 -0.035050448 -0.016468495 0.15976122
000370 09 1d e8 bb 56 a3 2d 3c 1e e1 49 3d ef fb c2 3d
       -0.0070835394 0.010598024 0.049286954 0.09520709
000380 d8 04 a1 3e aa ce c4 3d e9 3a 49 3c 56 90 9e be
       0.31449008 0.096097305 0.012282112 -0.30969495
000390 f3 7c 4d bb db d0 81 be e6 19 cc bd f2 ba 31 3d
       -0.0031354993 -0.25354657 -0.09965877 0.043391176
0003a0 19 d7 d5 be a5 86 fe 3d b0 d3 3b bc 85 f8 4e 3e
       -0.4176567 0.12428025 -0.011464044 0.2021199
0003b0 c0 62 15 3e 61 47 3a be 93 8b a7 be 7e 9e 00 bf
       0.14588451 -0.18191291 -0.32723674 -0.5024184
0003c0 c6 05 ae 3e 23 c4 cf be cb 10 02 3d 14 bd 07 bc
       0.3398878 -0.40579328 0.031754296 -0.008284826
0003d0 c6 65 6b be 0a cd 55 bd 6d 29 2f be 62 b1 dc 3c
       -0.22988042 -0.052197494 -0.17105646 0.026940051
0003e0 58 a9 b8 ba 5a 0b 92 3e bb 8b 78 be 37 34 50 3e
       -0.0014088554 0.28524286 -0.24272053 0.20332418
0003f0 ed 7a 39 be 26 a4 76 3e 0b 11 66 3e 36 8e ca bd
       -0.18113299 0.24086055 0.22467439 -0.09890406

actor.0.bias f4 [64]
000000 f7 a9 51 be c6 66 13 bd 3c f2 ae 3c 19 c9 bb be
       -0.20474993 -0.035986684 0.02135574 -0.36676863
000010 7b 46 01 3e f9 95 8c bd 36 bc c9 bd e3 1a d7 bd
       0.12624542 -0.068645425 -0.098503515 -0.10503175
000020 43 d5 07 3e 5c 03 a0 be cf 9d d4 bd d3 5e 8b 3e
       0.13264947 -0.31252563 -0.10381662 0.27220783
000030 58 21 dc 3d f4 ef ce 3c 79 2b ec bd 48 1d 2a 3d
       0.10748547 0.025260903 -0.11531729 0.04153183
000040 1c 45 6a bd cd 33 ab be 40 02 92 bd 25 9e b8 be
       -0.057194814 -0.33437958 -0.071293354 -0.36058155
000050 92 7b 44 3d 00 2f b2 3e ae 23 0e be 02 2d 7b 3d
       0.04796941 0.34801483 -0.13880798 0.06132222
000060 7d dc 5d bd 50 9a 69 be 52 9c 07 be 95 bf b2 3d
       -0.054165352 -0.22812772 -0.13243225 0.087279476
000070 e9 c2 8f bd ae a5 38 be f8 d7 91 bc 1e 95 a5 be
       -0.07019598 -0.18031952 -0.017803177 -0.3234033
000080 55 13 54 be b4 de 00 be fe 0f 99 be 38 56 4b 3e
       -0.207105 -0.12584955 -0.29895014 0.19857109
000090 f5 be dc bc 10 43 20 3e bb 15 89 be fe 66 ea 3d
       -0.026946524 0.15650582 -0.26774392 0.114454255
0000a0 48 ae 96 bc d0 69 8b 3e 5c 37 81 bd 92 f2 89 3d
       -0.01839365 0.27229166 -0.06309387 0.0673572
0000b0 7a 6f 4c 3d 13 a4 56 be d7 d9 0e 3d d7 e4 d0 3d
       0.049911 -0.20961027 0.034875717 0.10199898
0000c0 4e b3 a3 3d 31 0e 92 3c 5a e7 8c be d4 9a a0 be
       0.07993184 0.017829033 -0.27520257 -0.31368124
0000d0 19 c3 39 be ba cb e2 bd 2e ce 87 be 78 49 00 3e
       -0.1814083 -0.11074014 -0.2652449 0.12528026
0000e0 d5 d5 b2 bd 0a b7 9a 3d cc 31 24 be f8 9a 26 3e
       -0.087321915 0.07554443 -0.16034621 0.16270053
0000f0 83 bf 8d be dc 71 9f be 3c af b4 be fa 74 a7 bd
       -0.27685174 -0.31141555 -0.35289943 -0.081766084

actor.2.weight f4 [64, 64]
000000 0e ef e3 bc c8 0a d5 3b e3 1e 3a 3e de 6f 82 be
       -0.027823951 0.0065015294 0.18175845 -0.25475973
000010 eb 8b 24 3d da fe ed 3c df 4e 8c bd d0 39 6a 3d
       0.0401725 0.029052187 -0.06850981 0.05718404
000020 35 b7 89 3d d1 18 ba 3e c7 f6 ac 3d b4 2d f6 bd
       0.06724397 0.36347058 0.084455065 -0.12020436
000030 12 bc 93 be de 17 2a 3d 4c 77 05 be 21 a5 f6 3c
       -0.28854424 0.041526668 -0.1303379 0.030108036
000040 a1 76 b6 bd 1c 7d 17 3d 5a 4a a8 3d c8 84 f6 bc
       -0.089093454 0.036984548 0.082173064 -0.030092612
000050 9a 42 b5 3d 48 74 91 bc 80 77 2d 3e 3b 4d 8e 3d
       0.08850594 -0.017755643 0.16940117 0.06948324
000060 c2 51 0c bd 99 eb a5 3d 50 dc b6 3d 19 f8 45 be
       -0.034257658 0.08101577 0.0892874 -0.19332923
000070 ee 01 15 3d 59 63 76 bd 9c 0b 6d 3d a9 17 f0 3d
       0.036378793 -0.06015334 0.0578724 0.11723263
000080 b8 fd 9c 3d af 23 c1 be 09 8b 00 be 82 51 6b 3d
       0.076655805 -0.37722537 -0.12553038 0.05745078
000090 65 16 cb 3c 9e 60 3b 3d fc d5 28 bc e0 f7 ca bc
       0.024790952 0.04574644 -0.010304924 -0.0247764
0000a0 8a 1f f5 3c 7b 6a fc 3d 45 ee 43 3e 03 70 ae bc
       0.029922266 0.12324997 0.19133861 -0.021293646
0000b0 f8 e4 c1 bd 90 1a 37 be 5b c1 60 bd 9e 2c 12 3e
       -0.094675004 -0.17881227 -0.0548719 0.14274833
0000c0 e7 da 62 3e 31 c5 a2 bd db 9e 0c be 3d 72 ab 3d
       0.22153817 -0.079477675 -0.13732474 0.083713986
0000d0 62 fa 4a bc b0 e4 f0 3d 86 db 3a 3e f7 29 8b be
       -0.0123887975 0.11762369 0.18247804 -0.27180454
0000e0 f2 34 3c 3e 92 00 a2 3e c9 6c 04 be 6c 16 7c be
       0.18379572 0.3164106 -0.12932123 -0.24617928
0000f0 b1 dd a0 be ef f7 02 3e 23 06 65 be c6 59 71 3d
       -0.31419137 0.12789892 -0.22365622 0.058923505
000100 22 0b ca 3d ff 4e b7 bd 5b d6 58 be 90 5f 19 3e
       0.09865405 -0.08950614 -0.2117552 0.1497786
000110 f0 de e0 bc f8 18 52 be b0 06 29 3e 52 d2 96 bc
       -0.027450055 -0.20517337 0.16506457 -0.018410835
000120 de da 44 3e 2f 61 24 3e f6 a3 4c bd 22 69 1b bd
       0.19224116 0.16052698 -0.049961053 -0.03794206
000130 22 22 a7 bd 1e db 14 3e e4 58 b8 bd 25 b0 60 3d
       -0.08160807 0.14536712 -0.090013295 0.054855485
000140 f2 ca d2 bd ec 21 85 3d 1e 7f 17 be 50 3a 49 3e
       -0.10292615 0.06500611 -0.14794585 0.1965115
000150 2b d4 14 3c 20 b0 44 be 23 03 c3 3d e2 38 9b bd
       0.009083788 -0.19207811 0.09522083 -0.07579209
000160 87 df 73 bd 25 27 36 bd e9 fd b3 3d ce 6a ad 3c
       -0.059539344 -0.044470925 0.08788664 0.021169093
000170 c7 d6 17 bd b7 99 d0 3c dc f7 e4 3d 76 42 93 bd
       -0.037070062 0.025463922 0.11180088 -0.07190411
000180 13 ab 3b be a6 33 98 be 39 ff 25 3e 1a 3d 92 bd
       -0.18326978 -0.29726905 0.16210641 -0.071405604
000190 54 bc 89 3d 29 80 f7 bc d1 87 b2 bd e7 81 c6 be
       0.06725374 -0.030212479 -0.08717311 -0.38770983
0001a0 d6 1c a4 3c b5 ef cf bd d6 40 f7 bd ca 1c b5 be
       0.020033281 -0.10153142 -0.12072913 -0.35373527
0001b0 c3 2f 19 3e e4 06 f8 3c 2c 04 8a be 67 c5 d3 bd
       0.14959626 0.030276723 -0.26956308 -0.10340386
0001c0 d3 8c 18 be 6b 6b 18 bd 99 dd dd 3d 1b 60 3d bd
       -0.1489747 -0.037211817 0.10833282 -0.04623423
0001d0 5b d8 0d 3e 69 2d 28 3e 56 1b fd 3d 92 7b 8c 3d
       0.13852064 0.16423573 0.123587295 0.06859507
0001e0 1c 1d cd bc 35 8e 7e bd 34 96 3e be b6 ce e2 3b
       -0.025038294 -0.062147338 -0.18611985 0.0069216145
0001f0 09 ff 52 bc d1 89 7a 3d bf 13 1d bd 49 a0 3b be
       -0.012878188 0.06116659 -0.03834891 -0.18322863
000200 88 e1 ed bd a8 ae 2b 3d f3 e5 dc bc 57 ce 6f bd
       -0.11615282 0.041914612 -0.026965117 -0.05854639
000210 46 13 02 be 88 c9 8c be 47 38 50 3e 12 d3 47 be
       -0.12702665 -0.27497506 0.20333968 -0.1951411
000220 3f 51 68 be de cf 16 3e 9e 06 4d 3d e9 db f9 bd
       -0.22687243 0.14727733 0.05005514 -0.12200148
000230 34 ee e2 3d 6e a5 e1 be 62 03 36 be 0a f4 37 be
       0.1108059 -0.44071525 -0.17774728 -0.17964187
000240 07 aa 81 3e c4 39 24 3e 3e c3 29 bd d2 47 ad 3d
       0.25325033 0.16037661 -0.041445963 0.08460964
000250 4d 4b 8e 3d de eb 92 bd c3 9c b8 bd 10 a7 39 3e
       0.06947956 -0.07173894 -0.09014275 0.18130136
000260 3a 09 a4 bd a3 a6 13 3d c9 ea d6 3c b8 35 46 3e
       -0.08009572 0.03604759 0.026235001 0.1935643
000270 f5 4d 34 be 16 d9 20 3e 26 e9 fc bc b6 9b b7 bc
       -0.17607863 0.15707812 -0.030872893 -0.022413116
000280 6a 8b c6 3c d2 42 5d 3b 0e ec 03 bc c3 d3 48 be
       0.0242364 0.0033761752 -0.008051885 -0.1961203
000290 fc 77 0f be 1a 7b 69 be 09 fd 81 bc 7d cf 1b 3d
       -0.14010614 -0.22800866 -0.015867727 0.038039673
0002a0 30 d3 f3 bd 04 9f 0a be 7f 7f 98 3c 46 f9 56 be
       -0.11905515 -0.13537222 0.018615482 -0.20993528
0002b0 12 53 2a 3b 3f e5 02 3c 3e 51 68 bd ea d2 59 bd
       0.0025989455 0.007989227 -0.056718104 -0.05317966
0002c0 f1 9a af bd 51 f7 f3 bd 13 96 ef bd 67 bd 54 3d
       -0.085744746 -0.11912406 -0.11698546 0.05193844
0002d0 35 20 a2 3e a3 52 3d 3d 86 de bd 3a 9a 45 81 bc
       0.31665197 0.046221387 0.0014485873 -0.015780259
0002e0 99 08 21 3e eb 9d ea 3d 39 9b 3b bf 43 65 91 be
       0.15725936 0.11455902 -0.73283726 -0.2839757
0002f0 94 b3 05 bd 93 10 3b 3e 73 53 27 bd f2 89 83 3d
       -0.032641962 0.18268041 -0.040851068 0.06422795
000300 f5 ca d4 3b 89 a2 00 3e 4e 7b 19 3e a1 22 38 3d
       0.006493921 0.12562002 0.14988443 0.0449549
000310 73 64 60 bc 7a 49 3b bd 7b 5f 02 3b 4f 47 e2 bc
       -0.013695824 -0.04572437 0.0019893337 -0.027621893
000320 fb 70 f3 bd 82 5c 5e be a8 7c f3 3d 2d 21 00 be
       -0.11886784 -0.21714976 0.11889011 -0.12512656
000330 ce 90 52 3c bb de 2d be 83 94 52 3e b1 37 35 3c
       0.012851907 -0.16979496 0.20564465 0.011060641
000340 f4 40 22 be 29 f7 12 3e 66 88 e1 3d 3e 31 32 bc
       -0.1584509 0.14352097 0.11012344 -0.010875998
000350 cd 77 eb 3c d7 91 b3 bd c2 fe 6a be 66 8d 38 be
       0.028743649 -0.08768051 -0.22948745 -0.18022689
000360 7b 56 0e be fa b2 2f 3e d0 b4 95 3d 25 73 0a bc
       -0.13900177 0.17158118 0.07309878 -0.008450304
000370 5e 83 47 3e 5d eb 0e be 27 ac c0 3c 07 7a 84 be
       0.19483706 -0.13956971 0.023519589 -0.2587435
000380 e6 f2 2f 3d 34 5a 0f 3e e8 1c 2d 3e ee 65 c0 be
       0.042956255 0.13999254 0.16905558 -0.37577766
000390 ad f8 80 bd a7 97 10 bd e8 8b 25 be 1d 17 12 bd
       -0.06297431 -0.035300877 -0.16166651 -0.035666574
0003a0 45 17 ad be 10 4b b6 3d e5 b3 85 bd d3 20 bf bd
       -0.33806816 0.08901036 -0.06528453 -0.093324326
0003b0 b0 0d 3b 3e b1 ed 1d bd 1f ac 89 3d 2b 88 b1 bc
       0.1826694 -0.03855676 0.067222826 -0.021671375
0003c0 d6 07 77 be 2d 66 4a be 1a 39 3c bd 1f e8 7d 3e
       -0.24124083 -0.1976554 -0.045952894 0.24795578
0003d0 cb 0f cc 3d 1d 80 6c be 62 9d e6 be 99 6b 89 3e
       0.0996395 -0.23095746 -0.4504195 0.26839903
0003e0 7f d5 c8 be c8 0d 5e 3d 27 18 79 3a 35 ee 8c 3c
       -0.39225385 0.05421236 0.0009502195 0.01720343
0003f0 c1 45 2e 3e dd bf 93 be 66 dd af 3d 28 cb 8b 3a
       0.17018797 -0.28857318 0.0858715 0.0010665404

actor.2.bias f4 [64]
000000 9a 5a bc 3b 37 13 e2 bd 2c ab b6 3d 2e c2 29 3e
       0.0057481052 -0.11038821 0.08919367 0.1657798
000010 21 f1 9c 3e 31 80 23 3d 1a 86 21 3d 2b 34 47 be
       0.30652717 0.039917175 0.03943453 -0.19453494
000020 7e ff 48 bd cb 65 38 3e bb b8 e9 bd b9 3a 87 3e
       -0.04907178 0.18007581 -0.11412188 0.2641199
000030 48 31 92 bd f7 6c d8 bd 6a 19 06 be b7 38 e2 bd
       -0.07138306 -0.105676584 -0.13095632 -0.11045974
000040 7e d6 07 3d 24 56 18 be bf ad e6 bc 67 c1 11 be
       0.03316354 -0.1487661 -0.02815902 -0.14233933
000050 74 83 26 3d 3a d7 43 3e 9d 6d 92 3d c1 74 59 bd
       0.040652707 0.19125071 0.07149813 -0.05308986
000060 e8 e5 9a bd f1 39 17 be 3e 6b 3b bd 12 e8 80 bd
       -0.075633824 -0.14768197 -0.04575657 -0.06294264
000070 74 9f 49 be a4 5b cf bd 3f e7 8a bd b6 7c 40 3d
       -0.19689733 -0.10124901 -0.06782388 0.046993934
000080 cd 7a 27 be c4 af 90 bd 15 95 31 bd ea 6b d1 bd
       -0.16355439 -0.07064775 -0.043355066 -0.10225661
000090 ea 55 31 3e a4 41 be 3d 7b 09 cf bd 50 36 58 3e
       0.1731793 0.09289864 -0.1010923 0.21114469
0000a0 62 82 a1 3d 5b 4e 96 3d 31 10 e5 bd da 6d 6b 3e
       0.07886197 0.07339164 -0.11184729 0.22991124
0000b0 9b 88 10 bb f0 42 e4 bd 26 61 48 3e 4f 09 a7 bc
       -0.002205408 -0.1114558 0.19568309 -0.02039018
0000c0 cb b5 ad be f8 a7 ba 3d 0b 04 b3 bd a0 8e 59 3e
       -0.3392776 0.09114069 -0.087410055 0.21245813
0000d0 fc c9 17 be 68 23 eb 3d c6 77 88 3d e1 f3 62 bd
       -0.14823145 0.114813626 0.0666347 -0.055408362
0000e0 2f cf 8b 3e 20 97 b4 bd 37 f1 27 3e 57 82 04 3e
       0.27306506 -0.08817887 0.1640061 0.12940346
0000f0 ee 31 30 be 17 35 31 3e 7f c2 3b be 55 9b a1 bd
       -0.17206547 0.17305408 -0.18335913 -0.07890955

mean.weight f4 [6, 64]
000000 81 73 16 be 41 bf 41 3e 7f 99 3d 3e 57 b1 f8 bd
       -0.14692499 0.18920614 0.18515585 -0.121432
000010 c1 8d 75 be 6a 3f a9 bd 84 3c 43 be 10 34 be be
       -0.23979856 -0.082640484 -0.19066054 -0.37149096
000020 f1 60 81 bd e4 8d 85 3e a7 08 a6 be a2 83 67 3d
       -0.06317318 0.26084816 -0.32428476 0.05652202
000030 8a 1c 5b 3e 9c 1e 05 3e 95 1d b0 be 8a 84 0b be
       0.21397606 0.12999958 -0.3439757 -0.13624778
000040 ef 77 8d 3c ba 96 11 bd 35 93 91 3d 2f 23 bd bc
       0.017269103 -0.035544135 0.07108156 -0.023088066
000050 16 65 82 bd c1 c2 c2 bb 75 02 c3 3d c3 5f 42 be
       -0.06366937 -0.0059436266 0.09521953 -0.18981843
000060 a3 73 93 bd 25 ba 34 3e 00 d5 59 be cc 25 78 3d
       -0.0719979 0.17649134 -0.2127266 0.06058292
000070 92 fc 30 be 5d 04 b7 be a2 d5 08 bd 36 ff 5b 3e
       -0.17283848 -0.35745516 -0.03340686 0.21484074
000080 14 bc 85 bd a5 ad a4 3e 78 fe 64 3e 6b 8f 84 be
       -0.06530014 0.3216373 0.22362697 -0.2589067
000090 0e c6 f8 3c 6f 11 3f 3e 06 ba ad 3d a5 9b 30 be
       0.030367877 0.18658994 0.08482747 -0.17246874
0000a0 7e e2 63 be 93 a2 d7 bc b8 47 34 3e 5d 34 90 3e
       -0.22254369 -0.026322639 0.17605484 0.2816495
0000b0 98 9f 83 3e 40 f3 e9 bd 38 ae fb 3d b7 7a a1 3e
       0.25707698 -0.114233494 0.12289089 0.31538936
0000c0 59 fc 70 3c 64 60 10 be 9c 62 0d 3e 70 b6 96 3e
       0.014708602 -0.1409927 0.13807148 0.29436064
0000d0 f9 d8 ef be af d2 18 3e 96 a4 85 be 42 2c 0b 3c
       -0.46845224 0.1492412 -0.26102132 0.008494439
0000e0 95 db 4b 3e 2c e9 e4 3c d3 a8 48 3e d1 fa 89 3c
       0.19907983 0.027943216 0.19595651 0.016843231
0000f0 e7 80 db bd 55 bf 33 3e 58 c0 25 3e b4 61 92 3e
       -0.107179455 0.17553456 0.16186655 0.28590167
000100 f4 25 39 be 08 30 81 bd 56 12 e3 bd 20 b4 9e 3e
       -0.18080884 -0.06307989 -0.11087482 0.309968
000110 5d 37 43 be b3 0f 2b bc ae c7 e3 bd 42 b1 f7 bc
       -0.19064088 -0.010440755 -0.1112207 -0.03023589
000120 43 bc ef 3d 14 a2 35 be 25 24 1a be 2a 1f 27 3e
       0.1170583 -0.17737609 -0.1505285 0.16320482
000130 6d 4b de bc 4f 27 25 3e 14 e4 a3 3d bf 10 f5 bd
       -0.027135575 0.16128276 0.08002487 -0.11966085
000140 1e 17 82 3e e0 0b 38 3e 95 1d 33 3e 23 b9 2d be
       0.25408262 0.1797328 0.17491753 -0.16965155
000150 c8 5b 96 3b d4 59 25 3e bb 38 57 be 5b 83 a0 be
       0.004588578 0.16147548 -0.21017735 -0.31350216
000160 fd 6f 5d bd c5 05 4e bb e9 fa 04 3e bf e9 98 3d
       -0.05406188 -0.0031436544 0.1298634 0.074664585
000170 ab bb 72 bc 83 33 af 3d 6c b0 68 3e 9d 5e e3 3d
       -0.014815251 0.08554747 0.2272355 0.111020304
000180 51 db 62 3d 80 a9 2a 3e 25 fb 79 be 9b 7f 37 3d
       0.055384938 0.16666222 -0.2441221 0.04479943
000190 ec 2c f5 bd b3 fd 05 3c 14 92 4f bd c4 d7 9b bd
       -0.11971459 0.008178162 -0.05067642 -0.076095134
0001a0 d2 14 d0 3d a7 ea 71 39 a8 59 92 3e 7b 6b c7 bd
       0.10160221 0.00023070966 0.28584027 -0.09737297
0001b0 3f f0 45 3d d9 ae 70 3e 93 7b a6 bd c2 77 38 3d
       0.04832482 0.23504199 -0.08129039 0.045036085
0001c0 ad aa 27 3d cc be 32 3e 48 7d b4 bd 8c d6 3f 3e
       0.040934253 0.17455596 -0.08812958 0.18734187
0001d0 20 8c 9d 3d ff 06 4b bc 94 f1 21 bd 2b a1 2c 3c
       0.07692742 -0.012391805 -0.039537027 0.010536472
0001e0 6f 1c 67 3e 74 33 16 3d 39 84 44 3e c9 83 27 bd
       0.2256944 0.036670163 0.19191064 -0.040897164
0001f0 88 81 ce 3c a0 9e 2e 3d d0 5d 3c 3e 19 70 99 bd
       0.02520825 0.042631745 0.18395162 -0.07492084
000200 1c a4 c7 bc d9 14 1b be 70 f6 98 be 0a 81 3b 3d
       -0.024370246 -0.15144671 -0.29875517 0.045777358
000210 d0 be 9a 3e 7c a0 9c 3e 95 76 8c be 20 87 68 3e
       0.30223703 0.3059119 -0.2743422 0.22707796
000220 93 9e 09 bd 94 11 3d 3e e7 ba 3f 3e 37 29 50 3e
       -0.033598494 0.18463737 0.18723641 0.20328222
000230 46 a3 d7 3c e4 9d 17 3d 0c e4 2f be 90 15 f2 bd
       0.026322972 0.03701581 -0.17176837 -0.11820519
000240 d1 2a 8a 3e 80 fd ca 3c ed d6 f8 3d 4a 16 32 3e
       0.2698579 0.024779081 0.12150369 0.17391315
000250 f9 8f 20 3e ba 38 61 3e d6 65 8a be 69 13 bd bd
       0.15679921 0.21994296 -0.2703082 -0.09232218
000260 8d e5 af bd ae d6 28 be 05 23 1f 3e fd 4d 59 3d
       -0.08588705 -0.16488144 0.15540703 0.05305289
000270 82 ff 05 be 17 cf 8e 3e 9d 3d ec 3c 6e f0 c2 bd
       -0.1308575 0.27892372 0.028837973 -0.095185146
000280 ac 64 05 3f 87 d6 92 3d 8d 74 b9 bd cc 68 b3 bd
       0.5210674 0.07169824 -0.090554334 -0.08760223
000290 e7 86 a6 3d f9 34 51 3e e8 94 41 be 12 59 a7 3d
       0.08131199 0.20430364 -0.1890446 0.08171286
0002a0 94 43 1a be 4f 5e 9a 3d 70 a7 3e 3c c0 87 3d be
       -0.15064842 0.07537519 0.0116366 -0.18508816
0002b0 47 43 6c 3e c0 c0 0d bd b1 6f 0f 3e 28 b7 1c 3d
       0.2307254 -0.03460765 0.1400745 0.03826061
0002c0 98 91 aa 3e 91 ba a4 be 52 a3 4b be 7e db 9b 3e
       0.33314204 -0.3217359 -0.1988652 0.30440897
0002d0 fc 95 9d bd 0e 8a 17 bd 05 27 ab 3d 11 c8 9a be
       -0.07694623 -0.036996894 0.08357052 -0.30230764
0002e0 22 11 b0 3e 81 38 3d 3d e8 0d d1 3c ac a0 cc bd
       0.3438807 0.046196464 0.025519326 -0.09991583
0002f0 eb a0 9a bd 16 3e 80 bc d0 5d 5a 3b f5 13 c0 3d
       -0.07550224 -0.015654605 0.0033320077 0.093788065
000300 96 c7 01 bd 83 41 cd bd 34 b5 d8 bd b2 2d 14 3e
       -0.03168448 -0.10022261 -0.10581437 0.14470556
000310 c8 b9 f5 3d 35 fc a1 bd a9 ad d7 bd dd f3 c2 3e
       0.119983256 -0.07909433 -0.1053117 0.38076678
000320 1f d3 17 3d 87 e3 8f 3c 05 f9 69 3e cb f0 9c bd
       0.037066575 0.017564548 0.228489 -0.07663115
000330 57 b9 6e bd ab 49 a5 3b 16 d4 33 3d bf 00 3f 3e
       -0.058282223 0.0050441823 0.043903433 0.18652628
000340 20 50 69 be d4 d2 0d 3e 84 8e 76 3d 80 d1 18 bd
       -0.22784472 0.13849956 0.060194507 -0.03730917
000350 41 00 99 3e 90 e2 21 3e 74 2b 83 3c c2 91 ce 3d
       0.29883006 0.15809083 0.016011931 0.10086395
000360 8b 00 9b 3d 3c b3 ae bd c4 08 85 3d da f8 ba bd
       0.07568463 -0.0853028 0.064958125 -0.09129496
000370 e9 b0 8e 3e 5b c9 b1 3c 36 23 8b 3e d8 8d 86 3d
       0.27869347 0.02170246 0.271753 0.06570023
000380 a3 7c 0d be ff 87 e2 3e 68 e9 92 bd e7 6e 5a bd
       -0.13817076 0.44244382 -0.07173425 -0.05332842
000390 0c 5e 49 3e b3 1d 59 bd 58 3f 67 3e b8 b1 84 3e
       0.19664782 -0.05300684 0.22582757 0.2591684
0003a0 d3 29 b3 bd bb d8 a4 be 1d 0e 11 bd 36 cc b7 3d
       -0.08748212 -0.32196602 -0.03541385 0.08974497
0003b0 a9 28 bb bd 00 45 3b 3e 03 4f b3 3c ec 9e 02 bd
       -0.09138615 0.1828804 0.021888262 -0.03188984
0003c0 4e 9d e4 3e 03 dc cf 3e 7f 13 18 3e 5d 0b 5f 3c
       0.44651264 0.40597543 0.14851187 0.013613549
0003d0 80 4b 01 3d 37 25 8e 3e fa 2a 5b be 1a 33 a9 be
       0.031566143 0.27762768 -0.21403113 -0.330468
0003e0 e4 f9 96 3c e3 dd ed 3d 82 83 a3 bc c5 e8 80 3e
       0.018429704 0.11614587 -0.019960169 0.2517759
0003f0 9d 07 b6 3b 7e ed 03 be 8f 18 25 be 2f be f8 3d
       0.005555107 -0.12883565 -0.1612265 0.1214565

mean.bias f4 [6]
000000 df c1 0b 3e bf 2e dc 3d 9f ba a4 bd ca 32 05 3e
       0.13648175 0.107511036 -0.08043408 0.13007656
000010 c0 1f 3a 3e 0a 5b bb 3d
       0.18176174 0.09148224
