walker_small_saved_models/final_critic_20241125_214936.pth (torch, 24474 bytes, 5 tensors)

critic.0.weight f4 [64, 17]
000000 4d e3 56 be af fe 15 40 1d 09 18 bf 12 d1 2a 3d
       -0.20985146 2.3436697 -0.59388906 0.04170329
000010 73 39 a4 3e 28 27 80 3d 5c 18 3f bc 1f bd 28 3e
       0.3207508 0.062574685 -0.011663523 0.16478394
000020 ef b0 b7 3e 82 7d 3c be 06 bd 68 bb fa c1 ab 3d
       0.35877177 -0.18407252 -0.0035513057 0.083866075
000030 98 0a c7 3c 42 07 9c 3c 10 b7 b9 bd 98 7e 8b bd
       0.024297044 0.01904643 -0.090681195 -0.06811255
000040 95 c6 af 3b bc 24 96 be 9d 85 99 bf 9f 1a 26 3e
       0.005364249 -0.293249 -1.19939 0.16221093
000050 05 a0 e6 3d f2 94 ae bd 98 79 a3 3f 8a 64 30 3f
       0.1126099 -0.08524503 1.2771482 0.6890341
000060 32 75 5e be b1 1b ac bf 50 75 9f 3e 75 12 3e 3e
       -0.21724394 -1.3445951 0.3114419 0.18561728
000070 ec 13 17 be cd 47 2f bc 39 cc c5 ba 61 8b 90 3d
       -0.14753693 -0.010698271 -0.001509077 0.070578344
000080 d2 c6 7a 3d 7b a8 f9 b8 8e 30 53 be a4 b5 28 be
       0.061224766 -0.00011904627 -0.20623991 -0.1647554
000090 ef 0e 4c bf b6 fc d7 3d 47 8d 8f bd 73 ec 2e 3f
       -0.79710287 0.10546248 -0.070093684 0.6832954
0000a0 34 9d d7 3d bd 07 98 be 2e ef 84 bf f7 e2 55 3f
       0.10528031 -0.29693404 -1.0385492 0.83549446
0000b0 ac d0 53 be b4 62 86 be 98 44 98 bd 3b b3 16 3e
       -0.20685071 -0.2624718 -0.07434958 0.14716808
0000c0 17 25 15 3f 7f 04 d4 3e cc 85 b7 3d 32 22 93 3e
       0.5825972 0.4140968 0.089610666 0.28737026
0000d0 0b aa be 3f 31 1f 24 bf 93 e1 8a bf 2d 16 bc bd
       1.4895643 -0.64110094 -1.085009 -0.09183917
0000e0 73 88 f0 be 33 2c 6d bf ad fe 60 3f a1 64 2a 3e
       -0.46979102 -0.9264557 0.87888604 0.1663995
0000f0 28 84 7d be da a4 3f bf 43 fe 6f 3e e5 c0 b9 3d
       -0.24757445 -0.7486092 0.23436837 0.09069995
000100 6b a6 6d bc 5b c3 e8 3e 70 50 6d 3e d3 cc e2 bc
       -0.014505009 0.45461544 0.23175216 -0.027685558
000110 9f b6 8d 3d 86 c2 7b bf ff 7b dd 3e 84 8e 33 3f
       0.06919598 -0.98343694 0.43258664 0.70139337
000120 4f f1 c8 3e 35 8c e7 3e d4 f4 de 3e fc ad bc bf
       0.39246604 0.45224157 0.43546164 -1.4740596
000130 1d 22 0d bf 25 36 71 3e 6b c2 00 bf 63 34 50 3e
       -0.5513018 0.23555811 -0.5029666 0.20332484
000140 7a 23 d6 3d 39 98 87 ba d0 06 ae 3e 9c aa 7a 3e
       0.10455985 -0.0010345049 0.33989573 0.24479145
000150 96 ba 50 3e 9d 3e 3d 3f 52 a7 8c 3f 66 ec c8 3e
       0.20383677 0.73923665 1.0988562 0.39242858
000160 33 81 8f 3f f7 5a ce 3e 2b 42 31 bf 1a cb 78 3f
       1.1211303 0.40303776 -0.6924159 0.9718491
000170 db 9e fe 3c 41 b0 ca be 28 30 f5 be 2d a4 a8 bd
       0.031081608 -0.39587596 -0.47888303 -0.08234439
000180 67 22 d0 bd 0a c8 95 3c ac 4b 2b 3a 76 84 22 3e
       -0.10162812 0.018283863 0.00065344083 0.15870842
000190 11 19 1a 3e 74 8b f6 bb 44 a0 95 3e e8 71 d6 3e
       0.15048625 -0.0075239483 0.29223835 0.4188378
0001a0 7c de 25 be e3 da 7e 3d 1b 6b 37 3e b0 12 8e be
       -0.16198152 0.062220465 0.17911951 -0.27748632
0001b0 9d ef f0 be 85 6f ca 3e 00 1c c3 3e 8b 70 71 3c
       -0.4705781 0.39538208 0.381073 0.014736305
0001c0 b6 65 25 bf 57 b2 0a 3e c3 eb 85 3d a7 7b ff bc
       -0.64608324 0.13544594 0.065391086 -0.031186892
0001d0 3a 66 63 3e c0 9a dd 3d b2 5a 02 3d ce f7 de bc
       0.22206965 0.10820532 0.031824775 -0.027217772
0001e0 65 2b ad be 28 74 00 bf c0 35 4e be 89 2a e1 3d
       -0.3382217 -0.5017724 -0.20137691 0.10994441
0001f0 73 97 ba 3f 4c a9 e8 3e 81 11 44 3f 89 22 a6 be
       1.4577469 0.45441663 0.7658921 -0.32448223
000200 bb 00 39 3e 32 f2 47 3d 38 7a bb 3c 3b 12 55 3c
       0.18066685 0.04881496 0.022885427 0.013004835
000210 04 c7 d9 ba 91 0c 42 bd 4b fb 24 bc 36 50 1b 3d
       -0.0016615097 -0.047375266 -0.010069679 0.037918292
000220 a3 5d 64 3e f0 8b e5 bf f7 18 c1 3f 1b 9f 73 3f
       0.22301345 -1.793333 1.5085744 0.9516465
000230 07 c9 47 3e 59 89 cb 3f 17 3c 0a 3f cb 93 d4 3e
       0.1951028 1.590129 0.5399794 0.41519007
000240 8d 8c 89 bd 14 82 e6 be 17 3a 26 be 6c 01 7c 3d
       -0.06716261 -0.45021117 -0.16233097 0.061524794
000250 b2 da 0f 3d 56 2d b9 bc ec c2 b2 3d 66 8b 04 3d
       0.035120673 -0.022604626 0.08728585 0.032359503
000260 0f 9d a6 bc 3d 77 aa 3e c6 b8 13 c0 03 17 2f 3f
       -0.020338563 0.33294097 -2.3081527 0.6839449
000270 30 c0 c6 3e 13 11 e8 bd 9e b6 85 3f d2 f9 2c 3f
       0.38818502 -0.11331382 1.0446355 0.67568696
000280 5c e6 09 bf 04 95 bc bc 36 57 be be 1c d6 bc be
       -0.53867126 -0.023020275 -0.37175912 -0.36882102
000290 19 93 85 3d e9 bf 90 3c c6 14 ac 3b 37 44 7d 3e
       0.06522197 0.017669635 0.0052515 0.24733053
0002a0 db 9c 0f 3e e2 7d d7 3b 0e 99 d4 be e9 9d 12 bf
       0.1402468 0.0065762857 -0.4152302 -0.572722
0002b0 55 47 bc bf c6 e2 c1 be e3 11 27 3f de 68 da 3f
       -1.4709269 -0.37868327 0.6526167 1.7063253
0002c0 57 7c 6b bf 95 1a 1b 3f 7d 99 87 3e f9 af 99 3e
       -0.919866 0.60587436 0.2648429 0.3001707
0002d0 26 0a e2 3e 57 88 f3 be bb f3 71 be 8a ba 6c 3d
       0.44148368 -0.47564957 -0.23628132 0.057795085
0002e0 91 78 2a bc dc ff b4 bd 5a d4 5c be 84 75 b1 3f
       -0.010404722 -0.08837864 -0.2156538 1.3863988
0002f0 82 97 72 3f 89 52 bb be bf 4c 44 3f ba f3 50 3f
       0.9476243 -0.36586407 0.76679605 0.816219
000300 88 78 0c bf 74 99 96 bc 7f 8d e6 3e d0 06 30 bd
       -0.54871416 -0.018383719 0.45029828 -0.042975247
000310 37 17 10 3f 87 07 9a be 42 78 7c 3e bd b7 00 3e
       0.56285423 -0.30083868 0.2465525 0.1257009
000320 f7 04 0c bc d3 cf 96 3d 7d ae 32 3d e8 e6 b2 3c
       -0.008546106 0.07363858 0.043623436 0.02183862
000330 7f 5b 80 3f 0e 10 8b bf a9 86 27 3f 6b 36 f2 be
       1.0027922 -1.0864275 0.6543985 -0.47307143
000340 54 c2 d0 3a 63 e0 03 bf 36 ee a0 3f e4 dd 03 bf
       0.0015927055 -0.5151426 1.2572696 -0.51510453
000350 bf 9b c4 be ca 8c 36 3f 3c 71 10 3f 22 aa 57 3d
       -0.38400075 0.7130858 0.5642278 0.052652486
000360 b5 3e 86 3d 81 93 ba 3c c1 3e fa be 9f af 5c be
       0.06554929 0.022775413 -0.48876002 -0.21551369
000370 42 70 f3 bc 9c 73 b9 3f 8b f3 a4 3e a1 83 b7 be
       -0.029716615 1.4488406 0.3221706 -0.35842612
000380 4b 6a 9a 3f 37 03 da 3e 08 3c 40 bf b3 75 88 3e
       1.2063688 0.42580578 -0.750916 0.26652297
000390 ba fc b5 be aa 20 2a bf 3e 84 24 3e 2b d2 ca 3e
       -0.35544378 -0.6645609 0.16066071 0.3961347
0003a0 eb 03 44 be 4b 88 61 bd 3d 35 eb bc 69 c5 0d be
       -0.1914212 -0.05506162 -0.02871191 -0.13844837
0003b0 c4 0b 15 bd ed 4b 09 3d 35 e2 78 be e5 ec b3 bf
       -0.036388174 0.033519674 -0.24305041 -1.405667
0003c0 d6 34 88 3e 8f 45 14 3f 06 19 89 bd f7 7b 29 3f
       0.2660281 0.5791864 -0.06694226 0.6620478
0003d0 db 7f 5a 3f 46 15 63 3d 00 90 b9 bf 66 bd 12 3e
       0.8535134 0.05544021 -1.449707 0.14330062
0003e0 25 57 2a 3e 5c 9e 9a 3d 2d 20 c0 3d 99 9f c8 bc
       0.16634806 0.07549736 0.09381137 -0.024490165
0003f0 57 b4 e6 bd 35 74 25 3c 47 ed d3 bb 23 ff 27 3f
       -0.11264866 0.010098507 -0.0064674946 0.6562368

critic.0.bias f4 [64]
000000 e6 7c 8b bf 0e 32 c6 bc f6 a7 d5 bd c3 dc 3b bf
       -1.0897491 -0.02419379 -0.10432427 -0.7338373
000010 05 15 93 3e a9 20 44 bf 9c 05 6b 3f dc 9e df 3f
       0.28726974 -0.76612335 0.91805434 1.7470355
000020 36 cf ac 3f e9 d0 2a 3f 2a 1f 7f be f8 8e b7 be
       1.3500736 0.6672502 -0.24914232 -0.35851264
000030 7d 42 b9 3e 3a 23 e4 be 0c 3a d7 be 87 51 bc 3f
       0.3618354 -0.44558126 -0.42036474 1.471238
000040 a0 ea 4a 3f 01 ea be 3f 6c 8b 88 be 1d a2 cd 3f
       0.7926426 1.4915162 -0.2666887 1.6065098
000050 3a ff f9 3f 4a 80 79 3f 6e 22 50 bf 77 7f 2a bf
       1.9531014 0.9746138 -0.81302536 -0.66600746
000060 e0 a1 3c 3f 15 b8 9b 3f c6 e5 c2 3f c9 ec 9c 3f
       0.736845 1.2165552 1.5226371 1.2259761
000070 a0 db 93 3f 8c 06 b1 3f fa 37 ac 3f ca dc 7e 3e
       1.1551399 1.3830123 1.3454583 0.24888912
000080 6e d4 92 3f bc d6 b3 3f 3f 8f dc bc 47 cf 35 be
       1.1471078 1.4049907 -0.026923774 -0.17754851
000090 f9 f4 73 3f d6 60 5c 3f 67 65 d6 be 50 be 27 be
       0.95295674 0.8608526 -0.4187424 -0.16381192
0000a0 b2 32 61 bf e6 8b 45 bf 08 1c 2a 3d bc da 9a 3f
       -0.8796798 -0.77166593 0.04153064 1.2098002
0000b0 32 fd 9a 3f 9d b2 b7 3f 0f df 75 3f 98 85 be 3f
       1.2108519 1.4351383 0.96043485 1.488452
0000c0 c6 6a fe 3d c0 f1 83 be ea cb 4c bf 26 25 71 3e
       0.12422709 -0.25770378 -0.7999865 0.23549327
0000d0 51 f1 83 bf 3f 62 cb be 17 03 99 3e d7 9a ba 3f
       -1.0308019 -0.39723393 0.2988517 1.4578503
0000e0 4e ef 9d 3f 19 88 24 bf 39 16 77 3e 10 32 d4 3f
       1.2338655 -0.6427017 0.24129571 1.6577778
0000f0 10 7e d2 3f bc 6a 13 bf 5c ae fa 3d fc e3 e9 be
       1.6444721 -0.5758474 0.12240288 -0.4568175

critic.2.weight f4 [64, 64]
000000 0f dd a5 be 2d 05 2b bf 7d d8 c7 3d bf 86 a5 be
       -0.32395217 -0.6680477 0.09758089 -0.32329366
000010 c0 f7 09 3e d3 fe 84 be ad 01 0e 3d 81 55 67 3f
       0.13473415 -0.25975665 0.034669567 0.90364844
000020 17 b2 23 3f e3 2f 07 3f 67 8f 19 3d b6 2e 40 be
       0.6394362 0.52807444 0.037490275 -0.18767819
000030 fb ff 63 3d cd ba ea bd 9e d0 24 bf f3 7a 16 3f
       0.055664044 -0.11461411 -0.64380825 0.58781356
000040 8a ce c5 3d be 70 f0 3e 70 70 79 bf 86 2f 16 3f
       0.09658535 0.46961015 -0.9743719 0.58666265
000050 64 8f 71 3f 38 fb 82 3e b2 18 86 be 87 2b b1 3d
       0.9435942 0.2558229 -0.26190716 0.0865088
000060 45 11 5d 3e 5f 76 b5 3e 22 dd 98 3e 31 67 5c 3d
       0.21588619 0.35441872 0.2985621 0.05380935
000070 c8 2f 94 3e 6f b8 fe 3e 3b dc ca 3e fd 75 13 bf
       0.28942704 0.49750087 0.39621148 -0.5760191
000080 14 fe 02 3f 3e cb f8 3e 42 74 82 bf 91 c8 0c bf
       0.5116894 0.4859256 -1.0191729 -0.5499354
000090 6f f8 28 3e 0b f9 12 3f 22 c0 16 3d 75 7c e5 be
       0.1650102 0.5741126 0.036804326 -0.44821516
0000a0 0c 34 cd be c0 5e be bc 1f 0b 29 bc e6 b4 6c 3e
       -0.4007877 -0.02323854 -0.010317593 0.23115882
0000b0 03 ef 83 3e 6a f2 a1 3e 28 5b 71 3e b7 47 9b 3e
       0.2576829 0.3163026 0.2356993 0.30328152
0000c0 d4 8e e8 3e 55 db 42 bf 9a 57 8b be 2b a5 53 3c
       0.4542147 -0.76115924 -0.27215272 0.012917797
0000d0 f3 1d 45 be c2 f7 98 bd fc cf a6 be ee 3e b0 3e
       -0.19249706 -0.07469131 -0.32580554 0.34423012
0000e0 d0 22 4a 3e bf f4 06 be 67 b5 f5 be 86 5b f0 3e
       0.19739842 -0.131793 -0.47989962 0.46944827
0000f0 91 5d 06 3f 1d 54 0e bf f3 f9 88 bf e9 7b 82 3d
       0.5248652 -0.55597097 -1.0701278 0.0637129
000100 c6 57 00 bf 7e f1 41 bf a2 c8 dd 3c 26 61 2e bf
       -0.5013393 -0.7575911 0.027073208 -0.68116987
000110 9f 03 6f bc d8 f6 cd be 28 5f 55 3a 91 1c 71 3f
       -0.014588266 -0.4022739 0.00081394846 0.94184214
000120 dd 09 49 3f 64 99 18 3f 05 29 4d 3e 26 d9 a7 be
       0.78530675 0.59609056 0.20035179 -0.3278286
000130 cf 93 a9 3d a4 03 15 be 12 92 1e bf ca 43 51 3e
       0.082801454 -0.1455217 -0.61941636 0.20436016
000140 bf 58 80 3d 4d c5 96 3e 69 df 72 bf 90 65 be 3e
       0.06266927 0.29447404 -0.94872147 0.3718686
000150 9a a0 43 3f a3 b3 6d 3e 47 81 9b be 7f b4 e9 be
       0.76416934 0.23213057 -0.30372068 -0.4564552
000160 2b dc 34 bd 0a 5d 6e 3e 6b 4e 76 3e 11 04 79 3d
       -0.04415528 0.23277679 0.24053352 0.060794894
000170 93 79 95 bd a9 bb 01 3f ff 6e f2 3e 9a 83 0a bf
       -0.07298579 0.5067697 0.47350308 -0.5410706
000180 67 23 c2 3e 8e 8e 16 3f 48 20 89 bf 0c a4 f1 be
       0.37917635 0.5881127 -1.0712976 -0.4719547
000190 f2 9c ab 3e c9 dc 37 3f 96 68 3d bd 1b 31 0e bf
       0.33518177 0.71821266 -0.04624232 -0.5554368
0001a0 b7 6b f8 be ef d2 1a bf d0 e1 aa be 54 3a 8e 3e
       -0.4851968 -0.6047811 -0.33375406 0.27778876
0001b0 df 8e 93 3d ec 5c 0c 3f 3b 45 23 3e cb 4c 9e 3e
       0.07204985 0.5482929 0.15944378 0.30917963
0001c0 e4 d0 ce 3e 11 b3 82 bf cb 83 97 be 43 52 5d 3e
       0.40393746 -1.0210897 -0.29592738 0.21613412
0001d0 f1 d3 40 bf 22 3e ae be 08 7a c9 be 17 23 65 3e
       -0.75323397 -0.3403178 -0.39350915 0.22376667
0001e0 42 8a 8a 3d 42 7c 9c be db 0e fd be 2c 4e 0b 3f
       0.06764652 -0.3056355 -0.49425396 0.54416156
0001f0 a8 21 b7 3e b4 61 f9 be 40 f2 98 bf ff 05 8b be
       0.35767865 -0.48707354 -1.1948929 -0.27153012
000200 52 a3 2d 3e 22 58 a3 3e fd cc 9b bf 47 5c 62 bf
       0.16956833 0.31903177 -1.2171932 -0.88422054
000210 f6 30 16 bf c1 2c a4 3e 72 2a 1b bf 52 9b 0d bd
       -0.5866846 0.32065395 -0.6061164 -0.034571953
000220 c1 3a ec bc 20 04 f7 be 43 4b 90 3e 5b fa 23 bf
       -0.02883661 -0.48245335 0.2818242 -0.6405389
000230 96 dd 56 3f c1 94 6f 3e a1 75 1f 3d fe 7b 90 3d
       0.83931863 0.23396589 0.03893054 0.070549
000240 f1 c7 71 be 5c 76 b7 3d 7b 7a c1 3e 99 9e ab 3c
       -0.23611428 0.08958122 0.37788758 0.020949649
000250 b6 92 79 bd a9 c9 2a bf 30 90 b7 3d 40 e2 44 3e
       -0.06093093 -0.6671396 0.089630485 0.19226933
000260 75 d1 0a 3e fa e9 de 3e e7 01 03 3e d9 7c 92 be
       0.13556464 0.43537885 0.12793694 -0.28610876
000270 d2 bf 86 3e 16 8b 1a 3e f0 9e 96 3e 96 0b c2 3f
       0.26318222 0.1509212 0.29418135 1.5159786
000280 4d a6 ea be 0f b0 b1 bf 7f 2a d0 3c f8 2a 68 3f
       -0.45830002 -1.3881854 0.025410889 0.90690565
000290 5b 43 4e bc d0 90 d1 bf 3e 67 df 3e e1 d3 87 bf
       -0.012589301 -1.6372318 0.43633455 -1.0611535
0002a0 d7 b2 dc be 07 86 8c 3e 5b 52 a8 3e 61 67 c8 3c
       -0.43105194 0.27446005 0.32875332 0.024463357
0002b0 33 ce 87 3e 17 b0 57 3e a6 b1 37 3b cf 47 ea 3e
       0.26524505 0.21063267 0.002802947 0.4575791
0002c0 25 86 ef be 90 de 79 3d 23 6f 12 be e5 61 4b bd
       -0.46782032 0.061003268 -0.14300208 -0.049653906
0002d0 78 a3 83 bd a4 d3 60 be 03 b1 d9 3e 94 68 81 3e
       -0.064276636 -0.21955734 0.42517862 0.252751
0002e0 38 5f 94 3d 41 75 89 be a1 81 b3 bf 75 c6 ac 3e
       0.07244724 -0.2684727 -1.4023935 0.3374516
0002f0 12 28 ad 3d c2 da 8a bf fe 94 35 3f 1f e0 3e 3e
       0.084549084 -1.084801 0.7093047 0.18640183
000300 79 f9 8b bf 13 f8 01 be 97 b6 d6 3d dd 23 aa be
       -1.0935508 -0.12692289 0.10484045 -0.33230487
000310 62 80 b3 3e ff 51 0c be 7e a6 b1 be 67 9f 8b 3e
       0.35058886 -0.13703154 -0.34697336 0.27270052
000320 f2 d1 e3 3e 98 1b b7 3e 89 f2 8e bc d5 b7 c2 bd
       0.44496113 0.3576324 -0.017449634 -0.095077194
000330 e3 2c 5b 3e 79 9c 9e 3d f6 ce 81 be 83 0f 30 3d
       0.21403842 0.077446885 -0.2535321 0.042983543
000340 c0 8d ed bd a6 65 c6 3c 82 48 41 3f c0 5f a7 3e
       -0.11599302 0.024218392 0.75501263 0.3269024
000350 22 20 00 3f 2f d1 9c 3e e6 ca 2f be e2 04 80 be
       0.5004903 0.30628344 -0.17167243 -0.25003725
000360 1b c2 27 be 6d 21 08 3f bc 07 fb 3e 5d ec 0e 3f
       -0.16382639 0.53176004 0.49029338 0.5582941
000370 1d 82 23 3e bd 62 94 3e f5 87 88 3e 99 a0 08 3d
       0.15967603 0.2898158 0.26666227 0.033356283
000380 13 48 04 bd 7e 90 9b 3e 26 9f 91 bd 2a e0 12 3e
       -0.032295298 0.30383676 -0.07110433 0.14343324
000390 00 a8 72 3e a1 a9 19 3e 85 46 00 be 2d e8 e4 be
       0.236969 0.15006115 -0.12526901 -0.44708386
0003a0 5d c1 a6 bd d4 d0 6e 3d 27 79 a7 be b6 fe 95 3e
       -0.0814235 0.058304623 -0.3270962 0.29295892
0003b0 b2 ff 35 3e 96 58 0c 3e 2a f0 19 bd 2a 53 69 3e
       0.17773321 0.13705668 -0.037582554 0.22785631
0003c0 ea 81 bc bd c6 7b 23 be 53 fc f9 be 73 17 c4 3d
       -0.09204467 -0.15965185 -0.4882532 0.09574785
0003d0 1c d7 97 bf b5 65 cb 3c 80 ac 88 3c b0 9e 2e 3e
       -1.1862521 0.024828771 0.016683817 0.17052722
0003e0 c2 63 74 3e 38 70 9e be 4b dd be be 07 be 96 3e
       0.2386618 -0.3094499 -0.37278208 0.29441854
0003f0 6d 11 ad 3d dd 76 4d bc 38 d6 0a 3f 29 d9 17 3b
       0.08450589 -0.012540546 0.5423312 0.002317021

critic.2.bias f4 [64]
000000 ff f6 91 3f 55 ab 62 3f e2 a8 0e be 31 0a 1d be
       1.1403502 0.8854268 -0.13931611 -0.15335919
000010 59 a5 7c 3f 5a 1c 92 3f 06 aa a5 3f e3 c5 4b 3e
       0.986898 1.1414902 1.2942512 0.19899707
000020 5a 31 42 be c6 71 12 bf 01 b0 40 be 0d e6 06 3d
       -0.18964139 -0.57204854 -0.1881714 0.032934237
000030 fb 2d 69 3f 76 d6 88 3f 06 5a 8c 3f e2 28 42 bd
       0.91085786 1.0690448 1.0964973 -0.04740227
000040 a9 dd b3 be 30 0f 1b bf 68 05 92 3f 1e 0a d1 be
       -0.3513005 -0.6057005 1.14079 -0.4082803
000050 ea 98 82 3f eb 5f 8d 3f 06 c5 1c be 4f 35 29 bd
       1.0202916 1.1044897 -0.15309533 -0.041310605
000060 74 1a 7a 3f 61 c4 6c be ed cd 1b 3d 71 ff 33 bf
       0.97696614 -0.23121788 0.038038183 -0.7031165
000070 4e 03 94 3f 54 75 01 bf c8 c8 aa be 28 e5 8c 3f
       1.1563509 -0.50569654 -0.3335631 1.1007433
000080 f4 f9 df bd 04 3b ea be 2e 93 9a 3f e8 f2 9c be
       -0.10936347 -0.4574815 1.2076166 -0.30654073
000090 c4 50 64 bf 4f 69 e8 be cd ce 7a 3f 19 c8 7f 3f
       -0.8918574 -0.45392844 0.979718 0.999147
0000a0 6c 6d 95 be 98 6f 84 be 0a c2 83 3f 75 7d 94 3f
       -0.29185045 -0.2586639 1.0293591 1.1600786
0000b0 db b3 f3 be d5 2a 91 3f 5c ee 49 be 82 38 81 3f
       -0.47598156 1.1341196 -0.19719833 1.009537
0000c0 c3 ff cf bd f3 12 87 3f 1f 1b 80 3f a4 af 96 3f
       -0.101562046 1.0552658 1.0008277 1.1772351
0000d0 8a 65 8d 3f 68 5d 94 3f f8 31 84 3f 32 36 97 be
       1.1046612 1.1591005 1.0327749 -0.29533535
0000e0 51 ef 56 3f ba a2 c8 be fd 19 4c bd 6e c7 90 be
       0.8395892 -0.3918665 -0.04982947 -0.28277153
0000f0 1e d0 bc be f6 7a 91 3f 27 67 9c be eb e1 e4 bc
       -0.3687753 1.136565 -0.3054745 -0.027939757

critic.4.weight f4 [1, 64]
000000 37 ba 7a 3f 93 6d ae 3f da f6 11 c0 e9 c7 d7 bf
       0.9794039 1.3627189 -2.2806916 -1.6857883
000010 89 bb 88 3f f1 b3 7b 3f ed 1c 81 3f 4c 10 67 c0
       1.0682231 0.98321444 1.0086952 -3.6103697
000020 11 73 26 c0 70 ea c2 bf db e8 f7 bf 94 94 e6 bf
       -2.600773 -1.5227795 -1.9367937 -1.8014092
000030 c9 e7 88 3f 90 cc 8e 3f 09 2b 92 3f f7 38 93 c0
       1.0695735 1.1156178 1.1419383 -4.6007037
000040 88 6f be bf cd e2 b1 bf f6 59 5a 3f ab 29 c6 bf
       -1.4877787 -1.3897339 0.8529352 -1.5481466
000050 f6 2c 94 3f ce 65 e0 3f 49 81 cf bf 7b e1 d8 bf
       1.1576221 1.7531068 -1.621133 -1.6943811
000060 87 be ed 3f 30 63 54 c0 58 46 5b c0 61 1d 86 bf
       1.8573769 -3.318554 -3.4261684 -1.0477716
000070 13 ce 83 3f c8 1a 43 c0 7f 18 b7 bf ca d0 78 3f
       1.0297264 -3.0485096 -1.4304351 0.97193587
000080 db 0a f8 bf 8b 73 b1 bf 72 99 8a 3f d9 f1 d8 bf
       -1.9378313 -1.3863386 1.0828078 -1.6948806
000090 47 f8 43 c0 f0 cd b1 c0 c0 87 b6 3f f6 db ac 3f
       -3.0620286 -5.556389 1.4260178 1.3504627
0000a0 82 a1 c2 bf 1f a2 66 c0 27 a4 9b 3f 55 1c 83 3f
       -1.5205538 -3.603645 1.215947 1.0243021
0000b0 36 c5 fe bf 68 92 80 3f 9d 14 b7 bf 29 46 90 3f
       -1.9903934 1.004468 -1.4303166 1.1271411
0000c0 9f 89 c5 3d d3 bc 73 3f 95 1a 78 3f 75 8f ab 3f
       0.0964539 0.9521 0.9691556 1.3403155
0000d0 ae cf f5 3f 75 8d 8d 3f 9d 11 72 3f 94 98 cc bf
       1.9204004 1.1058794 0.94558126 -1.5984063
0000e0 5d 1b cf 3f 4d 8e 33 c0 79 31 fc bf fb 00 d3 bf
       1.6180226 -2.8055604 -1.9702598 -1.6484674
0000f0 e8 1f b6 bf 8c bf 80 3f d7 41 b5 bf 37 9d ed bf
       -1.4228487 1.0058455 -1.4160718 -1.8563603
