walker_small_saved_models/initial_actor_20241125_215633.pth (torch, 80054 bytes, 7 tensors)

log_std f4 [6]
00000000: 0000 0000 0000 0000 0000 0000 0000 0000
00000010: 0000 0000 0000 0000
0.0 0.0 0.0 0.0 0.0 0.0

actor.0.weight f4 [128, 17]
00000000: aeb7 2b3e 14b7 6bbd f277 4dbe 90b8 62be
00000010: e0b0 523c 481c 713d aa03 363e ac1f 6abd
00000020: e29b 243e 7086 23be f488 f93d 947f 113e
00000030: c852 05be 6488 163e 9433 643e dcf7 853d
00000040: c410 a6bd 53dc 3cbe 0ed5 003e 14ed c23d
00000050: da99 01be 30a3 2abe be39 6abe 3144 0dbe
00000060: bd75 04be f059 31bc 8803 143d 3e79 613e
00000070: d8a4 ecbc 50e2 3abe 281c 8a3d 66e1 d2bd
00000080: 805c e83c ee4b fdbd 6420 10be ce4a 6dbe
00000090: 7e78 383e 60cd 833c 50cd bb3c 703c 1abe
000000a0: 68e9 d3bc ce6b 323e eec6 07be 7412 22bd
000000b0: 7a7a 023e d0b4 f33c 54b2 f13d b85e 0fbe
000000c0: 403c d43d 0078 0fbc 7cca b33d 8287 4b3e
000000d0: aa66 1abe 665f 48be 034e 54be f0cc 573e
000000e0: f8c5 98bc a836 513e 32e5 423e 48bb ab3d
000000f0: 4c96 66bd 3ace 15be 50ba 62be 62c0 67be
00000100: bc79 4f3e d2f7 10be 4ecf 56be 36c7 16be
00000110: 40a2 3ebe e063 983c 2428 693e 1053 51bc
00000120: 992c 13be f474 3b3e 66fe 0e3e 500e 3b3e
00000130: d4aa 5ebe 34c4 253e a4a1 b73d 30b8 52bc
00000140: ea6e 99bd ca8f 693e 3aab 96bd d254 ffbd
00000150: f03b ac3d 009c 133e 8ca8 433e 38e3 1dbe
00000160: e06b d23d 60ae be3b d828 a03d 38da 3f3e
00000170: 14fb 803d 5084 633d 24a7 56bd 0625 30be
00000180: 82c8 053e ba6b eabd 60eb 143e 1824 5e3d
00000190: 801d 523d 704c e0bc dcb9 ab3d e0ad b73c
000001a0: aed8 01be 003f 52bc dd19 78be 201a 3b3c
000001b0: 58ff 8dbd 4d61 5abe 781b c2bd bc0e fd3d
000001c0: 34e4 243e 100d cb3c c01e 58bb 6077 3abc
000001d0: 2094 973d 1886 6b3e 640b fbbd 1007 8d3d
000001e0: 50ef 26be c68b 33be 1c16 343e 2eb3 32be
000001f0: 0089 d33c 546d 08be 9811 96bd 0cf3 6abe
00000200: 1fa6 26be 4a4e 23be 240a 253e a08e 493e
00000210: 90f6 473e a293 353e 18fc 553e 2c85 9dbd
00000220: 28a3 8cbd d055 07bd 8cc1 073e 8288 6d3e
00000230: 0668 413e e4ce f83d 7826 493d 7821 91bd
00000240: 8cc0 8a3d f0fe a1bd 5496 02be 1809 b63d
00000250: 006b 243b 90b3 b03d 8816 14bd 7e85 423e
00000260: 0725 72be fa63 0e3e 9690 6dbe e89c ff3d
00000270: 7c56 cabd 4ae0 59be 00b2 473c 5ac0 e3bd
00000280: b02a 1cbe 5c30 1bbe 7ec6 50be 48ac 503e
00000290: 7170 53be 8034 a0bd 13f1 60be c387 fcbd
000002a0: 9c9b 433e ac0a 8d3d f863 efbc ac6b 53bd
000002b0: 54a0 93bd 345c 5dbe 12ba 393e 4c79 923d
000002c0: fc19 533e 2e30 9dbd 0020 cbbd 31b9 11be
000002d0: a64e 5fbe 30b6 993c 995f 3dbe aa7d 6a3e
000002e0: 0edc 073e dce9 3f3e b18e 2dbe c0a1 5c3c
000002f0: 24e6 c93d ac40 653e 901d 8b3c c8f6 95bd
00000300: 1abf 47be a08d b3bb 2854 59be a22a 1ebe
00000310: c03e 463d cec3 0e3e d28e 1c3e 2e78 74be
00000320: b8be 06be f003 be3d 4f95 febd 0460 f23d
00000330: cc5f 0fbe eca3 343e 8e96 513e 0484 e0bd
00000340: d440 9d3d 2ad4 1cbe acff 313e 6e3c 5abe
00000350: fee4 6f3e 4e29 3f3e 4a28 c7bd 04db 233e
00000360: 508c 893d a0ab c53c 9655 9ebd 5c66 3ebe
00000370: 1438 bebd fc9c 04be 3688 02be 5a18 2abe
00000380: 4f0f 1cbe 709a c33d bccf e53d 104d 003e
00000390: 7e47 35be b0bb 8bbc 908f 733e a0dc c13d
000003a0: be51 093e f2e0 3d3e e097 073d 4b87 0abe
000003b0: 7e56 eabd dc4e 3e3e c096 783c 0add 3ebe
000003c0: e0bf 56bd 7452 6abd f49b 0e3e 0696 00be
000003d0: 9561 1ebe b8d1 133e 4d4e 26be c04a 513d
000003e0: 980c 413e 84f6 25bd 78b6 54be c021 24bb
000003f0: 1cff 40bd 3ca3 293e 80ca 0c3d 8264 8cbd
0.16769287 -0.057547644 -0.20065287 -0.22140718 0.012859553 0.05886486 0.17774835 -0.05715911
0.1607509 -0.15969253 0.12184325 0.14208823 -0.1301986 0.14700466 0.222853 0.06541416
-0.081086665 -0.18443422 0.12581274 0.09517875 -0.12656346 -0.16663814 -0.2287359 -0.13795544
-0.12935539 -0.010824665 0.03613618 0.22018906 -0.028887197 -0.18250394 0.06743652 -0.102968976
0.02836442 -0.12367998 -0.14074856 -0.23173067 0.18014714 0.016089141 0.022925049 -0.15062118
-0.025868133 0.17423937 -0.1325948 -0.03956838 0.12742034 0.029749304 0.118015915 -0.14000976
0.10363054 -0.008756638 0.08778855 0.19875911 -0.15078226 -0.19567642 -0.20732884 0.21074271
-0.018649086 0.20431006 0.19032744 0.083853304 -0.056295678 -0.1462945 -0.22141385 -0.22631982
0.20261282 -0.14157036 -0.20977518 -0.1472443 -0.18616581 0.018602312 0.22769219 -0.012776151
-0.14372481 0.18306333 0.13964233 0.18267179 -0.21744853 0.16188127 0.089663774 -0.012861297
-0.07491858 0.22808757 -0.073568776 -0.1246735 0.0840987 0.14414978 0.19107264 -0.15418708
0.10274482 0.005819127 0.0782029 0.18735588 0.06297889 0.055546105 -0.05240549 -0.17201623
0.13064769 -0.114463285 0.14542913 0.05423364 0.051297665 -0.027380198 0.08385059 0.022421777
-0.12680313 -0.012832403 -0.24228616 0.011419803 -0.069334686 -0.2132618 -0.094778955 0.12356326
0.16102678 0.024786502 -0.0032977313 -0.011381 0.074012995 0.23000371 -0.12258032 0.06886113
-0.16302228 -0.17533788 0.17586559 -0.17451164 0.025822163 -0.13322955 -0.073275745 -0.22944278
-0.16274308 -0.15947834 0.1611715 0.19683313 0.1952765 0.17732099 0.20896947 -0.07691416
-0.06867057 -0.03304082 0.13257426 0.23196605 0.18887338 0.12148836 0.049108952 -0.07086462
0.06775007 -0.079099536 -0.12752658 0.08888453 0.002508819 0.08627999 -0.0361543 0.18996236
-0.23646937 0.13905326 -0.23199686 0.12481099 -0.09879777 -0.21276966 0.012188435 -0.111206725
-0.15250659 -0.15155166 -0.20388219 0.2037822 -0.20648362 -0.078225136 -0.21966963 -0.12330582
0.19102329 0.06886801 -0.029222474 -0.051616356 -0.072083145 -0.21617204 0.18137386 0.07152042
0.20615381 -0.07675205 -0.09918213 -0.14230801 -0.21807346 0.018763632 -0.18493499 0.228995
0.13267538 0.18741554 -0.16948964 0.013466299 0.09858349 0.22387952 0.01698187 -0.073224604
-0.19506493 -0.0054795295 -0.2122351 -0.1544595 0.048399687 0.13941881 0.15288857 -0.2387397
-0.13158691 0.09278095 -0.12430822 0.1183472 -0.14001387 0.17640656 0.20467588 -0.1096268
0.076783806 -0.15315309 0.17382687 -0.21312115 0.23427197 0.186681 -0.097244814 0.16001517
0.067162156 0.024129689 -0.07731168 -0.18593735 -0.0928804 -0.1295051 -0.12747273 -0.16610852
-0.15240215 0.09550941 0.11221263 0.12529397 -0.17703053 -0.01705727 0.23785233 0.09465909
0.13410088 0.18542841 0.033103824 -0.13528173 -0.11442278 0.1858477 0.01517266 -0.18639007
-0.05242908 -0.05720754 0.13926679 -0.1255723 -0.15466912 0.1443547 -0.16240807 0.051096678
0.1885246 -0.0405183 -0.20772731 -0.002504453 -0.04711829 0.16566175 0.034372807 -0.06855108

actor.0.bias f4 [128]
00000000: 10ab 233e 1008 da3d 949c debd 00c4 4bbe
00000010: d47c 843d 85f0 39be 6e1b 15be 44de 1ebe
00000020: 54bb 4b3e b057 093e 7f5d 65be 940f 6f3e
00000030: e449 0f3e c074 6d3e 18f7 f4bc 4c1b 553e
00000040: 6518 50be 08c7 04bd a23a 35be 18fe ef3d
00000050: eca4 a7bd 4040 4dbc 60b6 403d 108e cb3d
00000060: 9614 58be d0a7 33bd b29e 5e3e 865e 87bd
00000070: d03b 413e be8d 2bbe a806 43be c0f1 8b3c
00000080: 62df 5abe 10f5 f23c 264a 0dbe 5a1d 123e
00000090: b672 053e fc12 dabd b8d5 1c3e 9dd2 19be
000000a0: ce91 4dbe 58ff 9ebc 1465 0dbd 00ca 3c3b
000000b0: 7841 eabc 0816 5e3e aee1 3fbe a82c ba3d
000000c0: 948e 8dbd 5687 18be 289e ce3d 10a0 fd3d
000000d0: 7c15 5d3e 209c 263d d0b8 f33c 8850 b63d
000000e0: 90a3 9f3c c853 5e3e bc98 1c3e a895 4cbe
000000f0: 7256 04be bcf0 babd 4d80 71be bc78 4d3e
00000100: 6f4f 53be 6a7b 623e c004 7ebb 4231 16be
00000110: 683a 673d d0e0 2fbc 50e3 013d 80ac 8d3b
00000120: bccb ecbd 36c6 f9bd 1c53 043e 968d 88bd
00000130: fea5 34be fe05 c2bd 0071 8b3c 3698 38be
00000140: d473 43be fee2 5abe be8b e5bd c8ae 993d
00000150: daa1 4b3e 14be 3c3e c81e db3d 2469 563e
00000160: a0ef b23c a4a3 c6bd 0094 2fbd 9d43 5abe
00000170: 26f3 4b3e dc45 0bbd 44dd 653e d458 1dbd
00000180: f7c0 f6bd 1a2a 363e a8b3 9abd b043 f5bc
00000190: 3aed 8ebd 18aa 0e3e b08f d23c 12bb 43be
000001a0: 0004 753a 78cb 8fbd 28ea cabd 8ca9 8ebd
000001b0: 0cfc 2cbe 003c 663c 70d5 d83d 204a 33be
000001c0: a042 0abd 3456 0ebe 0e3a 3cbe 3af0 42be
000001d0: 7ed1 0e3e 32a3 20be aa16 1f3e e4ea 593e
000001e0: fa9e 503e d09d cdbc 4812 e53d d06e 7b3d
000001f0: f0af 39be e417 1cbe 0081 f83c 987c 28be
0.15983224 0.10646069 -0.10869709 -0.19898987 0.064691216 -0.18158157 -0.14561245 -0.15514475
0.19895679 0.13412356 -0.22398947 0.23345786 0.13993031 0.23189068 -0.02990298 0.20811194
-0.20321806 -0.032416373 -0.17698148 0.117183864 -0.08185753 -0.012527525 0.047048926 0.09939206
-0.21101603 -0.04386121 0.21740225 -0.06609826 0.18870473 -0.16753289 -0.19045508 0.017083049
-0.21374276 0.02965787 -0.13797817 0.14269009 0.1303204 -0.10648152 0.15315902 -0.15021749
-0.20075151 -0.019408867 -0.034520224 0.0028806925 -0.028595671 0.21688092 -0.18738434 0.09090549
-0.0691196 -0.14895377 0.1008876 0.12384045 0.21590227 0.040676236 0.029751211 0.08902079
0.019487172 0.21711648 0.15292639 -0.19978964 -0.12923601 -0.09127948 -0.23584099 0.20065588
-0.2063577 0.22117391 -0.0038760155 -0.14667228 0.056452185 -0.010734752 0.031710923 0.004323542
-0.11562297 -0.12196009 0.12922329 -0.066676304 -0.17641446 -0.09473799 0.017021656 -0.18026814
-0.19087154 -0.21375653 -0.11208294 0.0750404 0.1988596 0.18431884 0.106992304 0.20938545
0.021842778 -0.09699181 -0.042865753 -0.21314855 0.19916973 -0.03400217 0.22447687 -0.03841479
-0.12048524 0.17789498 -0.07553798 -0.029939502 -0.06978841 0.13932073 0.025703281 -0.1911433
0.00093466043 -0.070212305 -0.09907943 -0.06965932 -0.16893023 0.014052391 0.10587585 -0.17508745
-0.033754945 -0.13900071 -0.18381521 -0.19036952 0.13947102 -0.15687254 0.1553599 0.2128101
0.20373145 -0.025099665 0.111851275 0.061384976 -0.18133521 -0.15243489 0.03033495 -0.16453779

actor.2.weight f4 [128, 128]
00000000: a84f b9bc 6813 06bc bd8b 1cbd 44a9 b6bc
00000010: 1d8e 55bd 303c 053c 5afc 2ebd 48d2 72bc
00000020: 8016 cfba a8c4 5f3c 38c2 71bc 0d09 86bd
00000030: 88ca 003c 8b6d 963d f239 4a3d 2142 933d
00000040: d1c9 aa3d 8af1 103d 36b2 313d 129a 263d
00000050: f05c 94bc a04c 8b3c f5dc 97bd 54f9 7dbd
00000060: 467c 89bd 6683 adbd 5c94 a7bd 0073 d83c
00000070: 59d1 11bd e2ae 383d f812 97bd 608b f5bb
00000080: 9bfb 86bd c548 5cbd dee5 773d 37a2 52bd
00000090: c6d1 313d a0a2 57bb 32a7 6f3d 40e6 e53a
000000a0: b732 b43d c2b9 393d 71be 903d 5a5b 1c3d
000000b0: 48c9 ad3c 79b5 a73d 60ce 8bbd 4f08 1ebd
000000c0: 61aa a33d 9d14 44bd 1640 183d 707c 40bd
000000d0: f877 75bd 3c57 903c 90e5 753c 0863 473c
000000e0: 9004 93bd 27f0 2cbd 3ee5 afbd c062 49bc
000000f0: 1bfd a93d db5b a83d 3e1f 79bd a258 7ebd
00000100: f817 523c 1e4d 493d 1025 9ebc e215 733d
00000110: 2ca7 9a3c d8df 003c be4d adbd 5082 0cbc
00000120: 165e 523d 938b 16bd 7819 80bd 0cba af3c
00000130: dd33 913d 50a4 ce3b 3c2d 82bc f90b a23d
00000140: e271 343d 2445 943c a648 353d 4644 5d3d
00000150: e046 c3bb dca3 853c 1613 45bd ef70 8b3d
00000160: 3652 2d3d 17c1 a7bd aa21 37bd e42b 4dbd
00000170: 2736 953d 44df ae3c 43f8 a03d 1644 6f3d
00000180: 06ff a4bd e289 84bd 28e6 10bd ab44 22bd
00000190: 2c74 82bc a24c 8abd 78bc 533c 93dc aa3d
000001a0: b22e 7b3d 402c 88bc cc9a 0cbd e082 f1bb
000001b0: d0b6 88bd 00ec 7839 f7e3 50bd 1244 82bd
000001c0: 6a18 403d 4e93 a5bd d05c 14bc 00f6 05bc
000001d0: 5ebc 563d 2cc5 033d 9959 9a3d e4cd cf3c
000001e0: d067 fb3b ca54 3a3d 8004 5ebc 8027 a53c
000001f0: ba5c 93bd ae76 193d 2061 1e3b d76c ad3d
00000200: 99b6 803d 1d4b 9e3d a649 353d f0d3 e33c
00000210: 6f36 12bd 4ae0 ebbc 3657 e0bc 4772 39bd
00000220: 00bb 99bb 1356 32bd 18d7 0fbd 90ad 303c
00000230: 3019 5d3c 70b2 4cbc 4836 38bc 7038 f73b
00000240: a2b8 a7bd 4195 8bbd 439c a5bd e024 53bc
00000250: 8e0b 42bd ac68 bfbc 37ba 8e3d e716 9d3d
00000260: 2cbb c13c 861f 6e3d 2414 94bd 91b6 aa3d
00000270: 16af 5b3d 9e34 1c3d d579 aa3d 3802 7abc
00000280: 60bb b1bb b832 afbc d457 1bbd d6bd 7b3d
00000290: 7baf 8a3d 48ce 7d3c fc40 b1bc dab0 313d
000002a0: f746 a9bd 98d1 adbd e5bc 87bd 189a 0f3d
000002b0: a58a 96bd 6517 803d e780 983d e0ac 40bd
000002c0: a310 87bd c427 83bd 6fa8 803d 792d 903d
000002d0: f2f4 4a3d 4295 45bd 6481 e53c 2be7 39bd
000002e0: 043c 0dbd cf0a 00bd 072f 953d 44f3 e8bc
000002f0: 35e1 6dbd 1569 a03d eee5 7b3d aebb 99bd
00000300: 4485 94bc 63cd 66bd 78e7 f0bc 3a99 38bd
00000310: 48b4 a6bd 5455 90bc 6928 8bbd c2ef 5a3d
00000320: 947f e13c 71be ad3d 387c 11bd ce82 35bd
00000330: 7a65 8bbd 388c 8cbc 14b4 c93c dd4b 983d
00000340: 30b0 b9bc 93cb b1bd 390c a83d b80c 0e3c
00000350: e658 373d ba8f a3bd 102c 62bc e635 7ebd
00000360: 4410 83bc 676a aebd c6a3 8ebd 8056 003b
00000370: 9c30 d0bc a50f 803d d2d2 493d e8bc 943c
00000380: 20f0 8bbd c030 83bd 67d5 953d 757d 20bd
00000390: e0a9 ff3b 994d 87bd 1839 cabc 5646 433d
000003a0: dd8f 8abd 7269 3b3d 4ee0 abbd c74f 2bbd
000003b0: 1742 803d 040c a83c a0aa aebc d0fa fe3b
000003c0: 1f55 a03d 858f a1bd b3ad 34bd 62f3 94bd
000003d0: 0582 63bd d1b6 51bd 43d0 8f3d 48fb 43bd
000003e0: 1648 783d c59f 53bd d908 843d 9ad9 443d
000003f0: 76f5 6d3d ab97 ad3d f753 16bd 708d a9bc
-0.02262099 -0.008183338 -0.038219202 -0.022297509 -0.052137483 0.008132026 -0.04272113 -0.014820643
-0.0015799552 0.013657726 -0.014755778 -0.06544695 0.007860787 0.073451124 0.049371667 0.071903475
0.08339275 0.0353866 0.043382846 0.040674277 -0.018110722 0.017004311 -0.07415191 -0.062005356
-0.067131564 -0.08472328 -0.08182594 0.026422024 -0.03560004 0.045088656 -0.07376665 -0.0074934214
-0.06590959 -0.053780336 0.060521953 -0.05142423 0.043412946 -0.0032903329 0.05850906 0.0017539933
0.087987356 0.045343168 0.07067574 0.038173057 0.021214142 0.0818891 -0.06826472 -0.038582142
0.079914816 -0.04787122 0.037170492 -0.046993673 -0.059928864 0.017619722 0.015008345 0.012169607
-0.071786046 -0.042221215 -0.08588646 -0.01229161 0.08300229 0.08220645 -0.06082081 -0.062096246
0.012823097 0.04914581 -0.019304782 0.05934704 0.018878542 0.0078658685 -0.08462094 -0.008575991
0.05135926 -0.036754202 -0.06254858 0.021451019 0.0708997 0.0063062087 -0.01589071 0.0791244
0.04405392 0.018099375 0.044258736 0.05402019 -0.0059593767 0.016313486 -0.048113905 0.0680865
0.04231473 -0.08191126 -0.04470984 -0.050090685 0.07285719 0.021346696 0.07859852 0.05841454
-0.08056454 -0.064716116 -0.035375744 -0.039616268 -0.015924536 -0.06752898 0.012923352 0.083428524
0.06132383 -0.016622663 -0.034327313 -0.007370338 -0.06675494 0.0002373904 -0.050998654 -0.0636064
0.046898283 -0.08084737 -0.009055331 -0.008176327 0.052425735 0.03217046 0.07536621 0.025366731
0.0076722875 0.045491017 -0.013550878 0.020160437 -0.071954206 0.037466697 0.0024166778 0.08468025
0.06284828 0.077291705 0.04425969 0.02781102 -0.035696443 -0.028793473 -0.027385335 -0.045275
-0.0046914816 -0.043539118 -0.03511724 0.010783568 0.013494775 -0.012493715 -0.01124341 0.0075445697
-0.08189513 -0.06815577 -0.08086445 -0.01288721 -0.0473743 -0.023365341 0.069691114 0.07670384
0.02364882 0.05813553 -0.07230404 0.08335603 0.05363377 0.038136117 0.08324019 -0.015259318
-0.005423948 -0.02138649 -0.037925556 0.06146034 0.067717515 0.015491076 -0.021637432 0.04338155
-0.082654886 -0.084872425 -0.06627826 0.035059065 -0.07350663 0.06254462 0.07446461 -0.047039866
-0.0659497 -0.06404069 0.06282126 0.07039923 0.049550004 -0.048238046 0.0280158 -0.045386475
-0.034481063 -0.031260308 0.072843604 -0.02843631 -0.058076102 0.07832543 0.061498575 -0.075065
-0.018129952 -0.056348216 -0.029407248 -0.045068003 -0.08139855 -0.017618813 -0.06794817 0.053451307
0.027526654 0.084835894 -0.035518855 -0.0443142 -0.068064645 -0.017156705 0.024622 0.07436345
-0.02266702 -0.08681407 0.08205456 0.008670025 0.044762515 -0.07986398 -0.013804451 -0.06206312
-0.015998967 -0.085163884 -0.06964831 0.0019582808 -0.025413804 0.06252984 0.04927332 0.018156484
-0.068329096 -0.06405783 0.07316094 -0.039182145 0.007802233 -0.066065975 -0.024685428 0.0476745
-0.06765721 0.045754857 -0.08392392 -0.04182413 0.06262606 0.020513542 -0.021321595 0.007781364
0.078287356 -0.07888702 -0.044110965 -0.07272984 -0.05554392 -0.051199738 0.07022145 -0.047847062
0.06061562 -0.05166604 0.06447 0.048059084 0.058095418 0.08476194 -0.03670117 -0.020697325

actor.2.bias f4 [128]
00000000: d0e1 a8bb 083c 6b3c 4cf8 93bd e066 d03c
00000010: 7be9 9dbd eeab 743d 60d1 263b a70a 893d
00000020: 5440 bebc 90ef f63c aeea 1c3d 4aa2 673d
00000030: ab49 9f3d 6f6e 8bbd 1551 59bd c4e0 93bc
00000040: f750 9b3d d6fc 213d a05d 563b 5ebb 063d
00000050: a086 fc3b 9871 f23c a0b0 343c 6610 58bd
00000060: 14fa 21bd 830d 863d 2030 e43c d887 cf3c
00000070: d536 ae3d 9ede 63bd 6f50 93bd e4d7 8abc
00000080: 8014 0ebd 80bd 083a fc2e a1bd d0e7 873c
00000090: 3ade 6b3d 801d 15bb 3481 e33c 95b0 a23d
000000a0: b2d0 263d 9f29 8a3d cf32 93bd c94e ae3d
000000b0: e385 a93d 9f10 a03d a00f 58bd 9a6b 8ebd
000000c0: ee27 93bd 002e a7ba 00df 3a3b 00a5 c03b
000000d0: a21d a7bd 1a9f 2e3d 83ca 8f3d 808c 423c
000000e0: 506d e4bb 7ef2 563d 6c22 4dbd 9003 b4bb
000000f0: 1747 47bd 9d43 a33d feab e5bc 6719 b43d
00000100: 2aa3 8fbd d468 babc 8009 623a e0ec 363b
00000110: ac30 1bbd 2b2e 8e3d 112e 953d 3dc3 943d
00000120: 3972 a73d 5738 6dbd c021 7e3c cac7 adbd
00000130: 76f2 233d 94c4 943c 9b43 8dbd f798 933d
00000140: 7ed7 253d cd59 33bd 0a9a 7b3d 6b7b a4bd
00000150: a036 00bb af03 a53d 562d 153d dcb6 79bd
00000160: 213d 8e3d c75d adbd 6257 293d 3957 803d
00000170: 87f7 a4bd 671b 3fbd 2c64 9ebd 9787 873d
00000180: b4e2 a3bd 04ab a43c f3f1 6abd 1430 cc3c
00000190: 6dee a63d 03d5 60bd 0099 2b3a 5ad2 95bd
000001a0: 4193 8d3d 72aa 383d fbe2 b03d a51c 25bd
000001b0: c6e5 113d 4096 493b 6877 36bd 475b 923d
000001c0: 042e c83c 507b 893c 003c c0bc 1095 693c
000001d0: b8e8 523c a8ae b43c f0a7 a1bb dc76 863c
000001e0: ed1d ac3d fa8e 553d d47b 86bc 767a 343d
000001f0: 08d3 c53c e004 81bd 2002 81bc e92e 1ebd
-0.005153872 0.014357574 -0.07225093 0.02543968 -0.077105485 0.059734277 0.0025454387 0.06691485
-0.023224033 0.03014353 0.038309745 0.056551255 0.07777723 -0.06808173 -0.05305584 -0.018051513
0.07583802 0.039547764 0.0032709613 0.03289353 0.0077064782 0.029595181 0.011028439 -0.052750014
-0.039545134 0.06545546 0.027854979 0.02533333 0.08506552 -0.055632226 -0.07193076 -0.016948648
-0.03468752 0.0005216226 -0.0787029 0.016590029 0.05758498 -0.002275318 0.02777157 0.079438366
0.04072637 0.0674622 -0.07187425 0.08511121 0.0827749 0.0781567 -0.052749276 -0.06954117
-0.0718535 -0.0012754798 0.0028514266 0.0058790445 -0.08159949 0.0426322 0.07021048 0.011874318
-0.006971039 0.052477352 -0.050081655 -0.0054935887 -0.04865178 0.079718806 -0.028036114 0.087939076
-0.07013543 -0.022755064 0.00086226314 0.0027912185 -0.037888214 0.069423996 0.07284177 0.07263801
0.08176083 -0.057915058 0.015510976 -0.08485372 0.04002615 0.018160142 -0.0689766 0.0720691
0.040488712 -0.043786813 0.0614262 -0.080313526 -0.001956381 0.08057343 0.03642019 -0.060965404
0.06945253 -0.08465152 0.0413431 0.062666364 -0.080550246 -0.046656992 -0.0773395 0.066176586
-0.080022246 0.020101078 -0.057359647 0.02492527 0.08150945 -0.054890644 0.0006545931 -0.07315512
0.06912852 0.045084424 0.08637043 -0.04031052 0.03561952 0.0030759722 -0.04454747 0.07146316
0.024436004 0.016782433 -0.02346611 0.014256731 0.012872867 0.022055939 -0.00493335 0.016414098
0.084041454 0.052138306 -0.016416468 0.0440621 0.02414848 -0.06299758 -0.015748084 -0.038618956

mean.weight f4 [6, 64]
00000000: 14d1 f93d 2c05 a33d 0095 a33a 2009 a33b
00000010: 306c 6f3d 00cc f239 60c9 a5bc 4c8f 353d
00000020: 7c0b 8cbd 3a0f d8bd 000e 333b 7ae0 c53d
00000030: c4e8 8bbd 42a5 c3bd c88e 073d dc9d a3bd
00000040: ea04 94bd 2cca 98bd 426c 953d 9858 e3bc
00000050: e0cd 34bc 804e e63b c8e0 a8bd 60dc 713c
00000060: 28a8 13bd ac1e 40bd c05e c63d 80bb 6bbb
00000070: f4a6 163d aab2 be3d 008f e23c 08e4 9ebd
00000080: ca86 df3d e65c a13d d420 2e3d ce64 853d
00000090: 4ced 3c3d 04ea 45bd 1203 b4bd 806f 08bb
000000a0: fae2 8e3d cad9 a7bd 8090 503d b077 32bd
000000b0: 2ce5 203d 202b cebb e865 0e3d 06cf dcbd
000000c0: f250 e93d 2c86 203d 306f 27bd a8a6 203d
000000d0: b269 e2bd ce16 cbbd d078 51bd 68af bfbd
000000e0: 0e56 e0bd d00d b2bc a487 393d c6b5 c03d
000000f0: 843a 4f3d cc43 6dbd 6085 7a3d 7869 063d
00000100: b8d4 693d 1089 1fbd 3890 2f3d 788f e53d
00000110: 349a 7cbd 6a3d c6bd 52ce 8cbd bc47 46bd
00000120: bc81 bf3d 30b8 923c 5669 ee3d a020 2dbc
00000130: f850 acbc 008b 593a da2e bcbd 6457 87bd
00000140: 5c8d 073d 0628 b4bd e0c0 b3bb fe47 c2bd
00000150: f047 773d 088d fe3c 305d f73d f4bb fd3d
00000160: 003a e3bd 0604 92bd 3055 dcbc 3c41 6c3d
00000170: c007 663d 2080 11bc e260 e23d aa1d cf3d
00000180: 8013 913c 005d 9d3a b8aa 9e3c a02e febd
00000190: 80b7 ae3d 0200 febd 1e6b f3bd 267f 99bd
000001a0: e678 fdbd 749a 833d 4234 e7bd 14f4 95bd
000001b0: 8031 003c dc4d 45bd 7044 803d 7211 d23d
000001c0: 6c2a 77bd e08a a9bb 1806 293d 441c 353d
000001d0: 0060 d538 48ca c43d f860 c73c e233 cbbd
000001e0: 8c43 a63d 86bc fcbd 8648 8c3d 20e8 95bc
000001f0: b271 b43d b679 edbd 3852 c43d 8483 e8bd
00000200: b8f9 77bd 4ac3 d63d c4ca 173d c06e 22bc
00000210: 0697 be3d f0bf 48bd fa79 b9bd 0cbb fbbd
00000220: a05a 9b3c 104d d83d 34f3 753d 8c46 ebbd
00000230: b8ba fabc 6c25 153d 1e06 dbbd 329a 8f3d
00000240: ae52 e4bd 1c36 c7bd 30e4 a0bd 12a8 d93d
00000250: 16fc a0bd 3858 423d 747b 003d a8db 67bd
00000260: 087d 553d e265 e43d 4442 cb3d 9871 95bd
00000270: 88d9 d6bd 6e42 9bbd 2c6b bfbd 325d 82bd
00000280: bcf3 32bd 1c42 a6bd e21f 8cbd c675 e3bd
00000290: d00c dc3c e214 903d eccc e3bd a8ef f1bc
000002a0: ee64 acbd 483b e3bd 803d 1bbd e8c4 883d
000002b0: d077 173c 0020 39bc a03f 4f3d 2222 873d
000002c0: 30e6 94bd 6c03 5a3d 5c0e d73d 5e83 d83d
000002d0: ca22 de3d b4ba b23d 283e 26bd d050 89bc
000002e0: 0066 8abc 683a 713d b681 d43d 628e e5bd
000002f0: b86a e03d f2e4 99bd 4097 c0bb c84b b23c
00000300: d2d2 dabd 38d4 6e3d 40bb 7c3c f0dd e83d
00000310: d823 81bc 50d0 493d c29a 963d c026 ef3d
00000320: 0087 463a ac86 4ebd 183c 05bd 1889 0bbd
00000330: 36b1 de3d f056 013d 40c4 843d 264a f3bd
00000340: 1836 3bbd 2cbf 473d 2c23 9a3d 3015 88bc
00000350: e8e7 b13c 561b d73d 509d acbd cc3d 883d
00000360: a0f3 ebbc e89d bb3d 50b1 1abc eaa9 bebd
00000370: 14a8 05bd 9c42 7f3d a478 a23d bc22 373d
00000380: ccc6 12bd 50f0 663c 00fb debd 0024 2dbd
00000390: 245c 9dbd 4cf6 79bd ac7c c73d 3c6d 55bd
000003a0: 72c1 cc3d fc90 513d bc4d 5bbd b0cf 4dbc
000003b0: 54ec 483d 6841 00bd bcc9 933d 0cba 29bd
000003c0: b056 27bc 2852 dc3c 5cf3 b1bd 6005 37bc
000003d0: 3c23 debd 4e7b fc3d ecb1 fd3d e8e9 4cbd
000003e0: 6cc5 d6bd 10a0 80bd 7a9e ccbd dcfd 453d
000003f0: da67 8d3d b80a df3d e846 01bd 10fa 01bd
0.121980816 0.07959971 0.0012480319 0.004975453 0.058452785 0.0004630983 -0.020237625 0.04432611
-0.06838128 -0.10549779 0.0027321577 0.09661956 -0.06831506 -0.09553005 0.03309515 -0.07989094
-0.072275 -0.07460436 0.07296039 -0.027752206 -0.011035413 0.007028401 -0.082459986 0.014762014
-0.03604904 -0.04690425 0.09686041 -0.0035969913 0.036780313 0.09311421 0.027656078 -0.07758337
0.10914381 0.07879047 0.042511776 0.065133676 0.04612474 -0.048318878 -0.08789648 -0.0020818412
0.06976886 -0.08195837 0.050919056 -0.043571174 0.039281055 -0.006291762 0.034765154 -0.10781674
0.11392392 0.039190456 -0.04087752 0.039221436 -0.11055316 -0.09916459 -0.051140606 -0.09359628
-0.10953914 -0.021735102 0.045295373 0.094096705 0.050592914 -0.057925984 0.061162353 0.032815427
0.05708763 -0.038949072 0.042862147 0.11209005 -0.061670497 -0.096796826 -0.0687529 -0.048408255
0.09350917 0.017910093 0.11641185 -0.01056686 -0.021034703 0.00082986057 -0.09188624 -0.06608465
0.033093795 -0.08796696 -0.005485639 -0.09486388 0.06037134 0.031073108 0.12078321 0.12389365
-0.11095047 -0.07129674 -0.02689609 0.0576794 0.056159735 -0.008880645 0.11053635 0.1011308
0.017709494 0.0012005866 0.019368514 -0.12411237 0.085310936 -0.12402345 -0.11885665 -0.07494955
-0.12376575 0.06425944 -0.11289264 -0.07321945 0.007824302 -0.048169956 0.062630534 0.10257234
-0.06034319 -0.005174026 0.041265577 0.04421641 0.00010174513 0.096088946 0.02433823 -0.09922005
0.08118352 -0.123406455 0.0684977 -0.018299162 0.08810748 -0.1159548 0.095859945 -0.113532096
-0.060540885 0.10486467 0.037058607 -0.0099141 0.09306149 -0.04901117 -0.09056468 -0.12291536
0.018964112 0.105615735 0.06004639 -0.11488065 -0.030606613 0.03641264 -0.10694526 0.07011832
-0.111485824 -0.097271174 -0.07856023 0.1062776 -0.078605816 0.047447413 0.031367734 -0.056605965
0.052121192 0.11152245 0.099247485 -0.07297057 -0.104907095 -0.0758103 -0.09346613 -0.06365432
-0.043689474 -0.08118078 -0.06842019 -0.11106448 0.026861578 0.07035233 -0.1112307 -0.029533222
-0.08417688 -0.110952914 -0.037900448 0.06678182 0.009244874 -0.011299133 0.050597787 0.06598307
-0.07270467 0.05322592 0.10500786 0.10571931 0.10846479 0.08727017 -0.04058662 -0.016762167
-0.01689434 0.05889359 0.10376303 -0.11208798 0.10957855 -0.07514371 -0.0058774054 0.021764651
-0.10684742 0.058307856 0.015425503 0.11370456 -0.015764162 0.049270928 0.073537365 0.11677313
0.0007573217 -0.0504214 -0.032528013 -0.03406629 0.10873644 0.03157705 0.06482744 -0.11879377
-0.045705885 0.0487663 0.0752624 -0.016611665 0.021717027 0.10503261 -0.084284425 0.06652412
-0.028802693 0.091609776 -0.009441689 -0.09309752 -0.032630995 0.062319383 0.079331666 0.04471086
-0.03583412 0.014095381 -0.10887718 -0.04227066 -0.0768359 -0.061025903 0.09740576 -0.052106127
0.09997834 0.05116366 -0.05354093 -0.012561724 0.049053505 -0.031312376 0.07216212 -0.041437194
-0.010213539 0.026894644 -0.08688995 -0.011170715 -0.10846564 0.12328206 0.123874515 -0.050027758
-0.10486874 -0.062805295 -0.099911645 0.048337802 0.06904574 0.10890716 -0.031561762 -0.03173262

mean.bias f4 [6]
00000000: 86ca dfbd b836 9b3c e837 67bd 84f8 ddbd
00000010: c0a8 4b3d 5e2e ab3d
-0.109273 0.01894699 -0.0564498 -0.10838416 0.04972148 0.08358453
