walker_small_saved_models/initial_critic_20241125_211837.pth (torch, 24494 bytes, 5 tensors)

critic.0.weight f4 [64, 17]
0	0xbddb0c2e	-0.106956825
1	0x3e29bf32	0.16576841
2	0x3e4431a8	0.19159567
3	0x3e1baabc	0.15201849
4	0x3df04e2c	0.1173366
5	0x3d635968	0.055505186
6	0xbdbe71c0	-0.0929904
7	0x39405400	0.0001834184
8	0x3dbe7594	0.0929977
9	0x3dbfa70c	0.093580335
10	0xbe0f9f88	-0.140257
11	0xbd98303a	-0.074310735
12	0x3d5c2e40	0.053755045
13	0x3d7fb250	0.06242591
14	0xbe260435	-0.16212542
15	0xbdddd0a8	-0.10830814
16	0x3e169972	0.14706972
17	0xbe471805	-0.19442756
18	0xbca0c688	-0.019625917
19	0x3d8df830	0.06932104
20	0x3bbbac60	0.005727336
21	0xbd14a080	-0.036285877
22	0x3e422e4a	0.1896297
23	0x3e013a16	0.12619814
24	0xbe6d9f2c	-0.2320525
25	0xbd8faa64	-0.07014921
26	0xbd2adca8	-0.04171434
27	0x3cc63250	0.024193913
28	0xbe41a25b	-0.1890959
29	0x3dbf0574	0.09327212
30	0x3dbfbd28	0.093622506
31	0x3e38f430	0.180619
32	0x3cfe6bc0	0.031057239
33	0x3e30e634	0.17275316
34	0xbd7bae40	-0.061445475
35	0xbd8217a4	-0.06352165
36	0x3e74a29e	0.23890159
37	0x3d8171ac	0.06320509
38	0xbd40f3b8	-0.04710743
39	0xbd86018a	-0.06543262
40	0xbc570580	-0.01312387
41	0xbb118080	-0.0022201836
42	0xbd226028	-0.039642483
43	0xbdb4615c	-0.08807632
44	0xbdf8fb8b	-0.12157353
45	0x3e1bd25e	0.15216967
46	0xbe07ec04	-0.13273627
47	0x3e12f956	0.14352927
48	0x3e772f86	0.24139223
49	0x3e22a536	0.15883335
50	0x3d5a8b90	0.053355753
51	0xbd9f780a	-0.077865675
52	0xbc6dfbc0	-0.014525354
53	0xbddb1c0c	-0.10698709
54	0x3e1ba1b6	0.15198407
55	0xbe5dfd55	-0.2167867
56	0xbe25919c	-0.16168827
57	0xbe4b1b3a	-0.19834605
58	0x3e1ab1a6	0.1510683
59	0x3cb19a30	0.021679968
60	0x3d7c4310	0.061587393
61	0xbe76399f	-0.24045418
62	0x3d6accb0	0.05732411
63	0x3e6b94a4	0.2300592
64	0xbd21885c	-0.039436683
65	0x3dc76b7c	0.09737298
66	0x3db5e390	0.08881295
67	0xbcfdf4c0	-0.031000495
68	0xbd8f78da	-0.070054725
69	0x3d687630	0.056753337
70	0x3dd5099c	0.104022235
71	0x3e26fad6	0.16306624
72	0x3d9d5250	0.076817155
73	0x3dfdfe78	0.12402052
74	0x3e556b70	0.20841765
75	0xbe237262	-0.15961602
76	0xbcf68d78	-0.030096754
77	0x3e4d1d82	0.20030788
78	0xbe018253	-0.12647371
79	0x3e6251a2	0.22101453
80	0xbcc99988	-0.024609342
81	0xbe6275cc	-0.22115248
82	0x3e3d3dec	0.18480653
83	0xbe335072	-0.17511156
84	0x3e145d38	0.14488685
85	0xbe11757e	-0.14204976
86	0x3e5edc38	0.21763694
87	0x3d8e5800	0.069503784
88	0xbdb0fe20	-0.086422205
89	0xbe09cb6f	-0.1345651
90	0xbde98ad2	-0.11403431
91	0x3e7435f4	0.23848706
92	0x3d5f0970	0.05445236
93	0xbe4b6150	-0.1986134
94	0xbb58eb00	-0.0033099055
95	0xbe234972	-0.15945986
96	0xbe2abadc	-0.16672844
97	0xbe77fb9e	-0.24217078
98	0x3de84fd4	0.11343351
99	0x3e239eb4	0.15978509
100	0xbe1ad63c	-0.15120786
101	0xbd4f0ad4	-0.050547436
102	0xbbc0edc0	-0.005887717
103	0x3d3eff30	0.046630085
104	0x3e373cb6	0.17894253
105	0xbde79158	-0.11307019
106	0xba7c5000	-0.0009624958
107	0xbe4d4548	-0.2004596
108	0x3cbc1e40	0.022963643
109	0x3e616e30	0.2201469
110	0x3ddb4c90	0.107079625
111	0xbbe4e460	-0.0069852322
112	0xbe64d282	-0.22345927
113	0xbe418136	-0.18896946
114	0x3e5c3a98	0.21506727
115	0xbdfdffe8	-0.12402326
116	0x3e174fea	0.14776579
117	0xbe144066	-0.14477691
118	0xbe2bb9dd	-0.1677012
119	0xbe518e97	-0.2046455
120	0xbba51f40	-0.0050391257
121	0xbe4ee9a3	-0.20206313
122	0xbd8a35d6	-0.0674855
123	0x3e2ea768	0.17056048
124	0xbe2ad1c8	-0.16681588
125	0xbe61deb4	-0.22057611
126	0x3db2530c	0.08707246
127	0x3d313970	0.043267667
128	0x3dd9a9a8	0.106280625
129	0x3e24bf1a	0.16088524
130	0xbe000d0a	-0.12504974
131	0x3d347390	0.04405552
132	0x3e01d484	0.12678725
133	0x3dd45544	0.103678256
134	0xbe3803ce	-0.17970201
135	0xbcfc7f20	-0.030822337
136	0x3dde7b14	0.10863319
137	0xbce47490	-0.027887613
138	0x3ce00e60	0.027350605
139	0x3e4d854e	0.20070383
140	0xbe2b6230	-0.16736674
141	0x3e284b4a	0.1643497
142	0xbd36918c	-0.044572398
143	0x3da95480	0.0826807
144	0x3e19b612	0.1501086
145	0xbe57aade	-0.21061274
146	0xbe5af736	-0.21383366
147	0xbd9d083c	-0.07667586
148	0xbe021e40	-0.12706852
149	0x3e16938c	0.14704722
150	0x3ca2a790	0.01985529
151	0x3e178632	0.14797285
152	0x3d3e5bb8	0.04647419
153	0xbe5572d0	-0.20844579
154	0xbde91658	-0.11381215
155	0xbdaf7cd4	-0.08568731
156	0x3cf4a7a0	0.029865086
157	0x3db54684	0.088513404
158	0x3b9ac5a0	0.0047232658
159	0xbe2a016f	-0.1660211
160	0x3c7665e0	0.015038937
161	0xbd0ed3f0	-0.034870088
162	0xbddfaa0e	-0.10921107
163	0x3d59f718	0.053214163
164	0xbe180da4	-0.14848953
165	0x3d3968b0	0.045265853
166	0x3e3b9dc8	0.18321908
167	0x3c5d4b80	0.01350677
168	0x3e1719a0	0.14755869
169	0x3e077922	0.13229802
170	0xbe1d51ce	-0.15363237
171	0xbe6bf1a0	-0.23041391
172	0x3b1db300	0.002406299
173	0xbd32cc44	-0.043651834
174	0x3da1395c	0.078722686
175	0xbe73b7f8	-0.23800647
176	0x3e58dac0	0.21177197
177	0x3e4887a8	0.19582999
178	0x3cb3bea0	0.021941483
179	0x3e31aef8	0.17351902
180	0xbd99097e	-0.074725136
181	0xbe3c70f5	-0.18402465
182	0xbe6813ec	-0.2266385
183	0x3da9aa84	0.082844764
184	0xbe35bd6d	-0.17748041
185	0xb99d2e00	-0.00029979646
186	0xbe5c41e9	-0.21509518
187	0xbd98c108	-0.07458693
188	0x3e400662	0.18752435
189	0xbd10ac70	-0.0353207
190	0xbdcda440	-0.10041094
191	0x3d351d90	0.044217646
192	0x3b50f3c0	0.0031883568
193	0xbd1c2588	-0.03812173
194	0xbdc28bb8	-0.094993055
195	0x3e46055a	0.19337979
196	0x3e3e11a4	0.18561417
197	0xbcba5a58	-0.022748157
198	0xbd30f098	-0.043198198
199	0x3df85d24	0.1212714
200	0x3e4ccdfc	0.20000452
201	0xbdea526e	-0.114415035
202	0x3e6558ce	0.22397158
203	0xbcacfed0	-0.021117598
204	0x3cfb4270	0.030671328
205	0xbdeda67c	-0.1160402
206	0xbc8cfcc0	-0.017210364
207	0x3e660382	0.22462276
208	0xbe0e1e8c	-0.1387884
209	0x3cdc1d50	0.026869446
210	0xbd691a50	-0.05690986
211	0xbd9a54a4	-0.07535675
212	0xbe61067a	-0.21975127
213	0x3e01f968	0.12692797
214	0x3e232332	0.15931395
215	0xbd1a2ee8	-0.03764239
216	0xbc96a0a0	-0.018387139
217	0xbe13818a	-0.14404884
218	0xbe2f407c	-0.17114443
219	0x3dddc5e0	0.10828757
220	0xbe33faf4	-0.175762
221	0xbe06ef84	-0.13177305
222	0x3dc48378	0.09595388
223	0xbe660c9d	-0.22465749
224	0x3e3bf57a	0.1835536
225	0x3e42f488	0.19038594
226	0x3d7eba50	0.0621894
227	0x3e589896	0.21151957
228	0x3d6078c0	0.054802656
229	0x3e07ecd6	0.1327394
230	0x3dff4764	0.124647886
231	0xbe1ca4f4	-0.152973
232	0xbe27fcc0	-0.1640501
233	0xbd048dc4	-0.03236176
234	0x3e4d6dee	0.20061466
235	0xbd308718	-0.043097585
236	0xbdfacdb2	-0.122462645
237	0x3de1c008	0.11022955
238	0x3e3430ea	0.17596784
239	0xbe07c716	-0.13259539
240	0xbe120317	-0.14258991
241	0x3e1b9464	0.15193325
242	0x3dff9f70	0.12481582
243	0xbe6f3a85	-0.23362167
244	0x3d130758	0.035895675
245	0x3e5fbad8	0.21848619
246	0xbdcd4012	-0.10021986
247	0xbd84391a	-0.06456204
248	0xbdf630da	-0.120210364
249	0x3e381c62	0.17979577
250	0x3e0c0106	0.13672265
251	0xbd9582a0	-0.07300305
252	0xbe2e147b	-0.17
253	0xbd81de32	-0.063412085
254	0xbe4dad17	-0.2008556
255	0x3e4d2a46	0.20035657

critic.0.bias f4 [64]
0	0xbde8227c	-0.113347024
1	0x3d04d4b0	0.032429397
2	0xbe6690ba	-0.22516146
3	0xbe29649c	-0.16542286
4	0xbe530764	-0.20608288
5	0xbe49507c	-0.19659609
6	0xbde045a4	-0.10950783
7	0x3dfd3120	0.123628855
8	0x3ddd9b48	0.10820633
9	0x3d94b15c	0.07260391
10	0xbe54ef92	-0.20794514
11	0xbdc3a9f6	-0.09553902
12	0x3d9eb510	0.07749379
13	0xbe387ea5	-0.18017061
14	0xbda0ff80	-0.07861233
15	0x3e0b5716	0.1360744
16	0x3d5a0860	0.053230643
17	0x3d2c5290	0.042070925
18	0xbdd66d16	-0.10470025
19	0x3d81a7cc	0.06330833
20	0x3e6c58a2	0.23080686
21	0xbe4348d0	-0.19070745
22	0xbd17e3ec	-0.037082598
23	0xbe0b1114	-0.13580734
24	0x3e533016	0.20623812
25	0xbe583232	-0.21112898
26	0x3d7c4870	0.06159252
27	0xbe39efe6	-0.1815792
28	0xbd390304	-0.04516889
29	0xbd81a684	-0.063305885
30	0xbd880b82	-0.0664282
31	0x3e27d204	0.16388708
32	0xbc166d90	-0.009181395
33	0x3e30bb76	0.1725901
34	0x3e0c44fa	0.13698187
35	0xbe145852	-0.14486817
36	0xbdff6331	-0.12470091
37	0x3e31a8ee	0.17349598
38	0x3dc4f90c	0.096178144
39	0xbe1b9273	-0.15192585
40	0xbe4d3d38	-0.20042884
41	0xbe5aa7cc	-0.21353072
42	0xbc87eb80	-0.016591787
43	0xbe473b8b	-0.19456308
44	0x3dae465c	0.08509514
45	0x3e32a92a	0.17447343
46	0xbe223e5c	-0.158441
47	0x3e3abda0	0.18236399
48	0xbe22fa3e	-0.15915772
49	0xbe628382	-0.22120479
50	0xbd64b118	-0.055832952
51	0xbe320476	-0.17384514
52	0xbe70a304	-0.23499686
53	0xbe493774	-0.1965006
54	0x3ddc568c	0.10758695
55	0x3e3ab26c	0.18232125
56	0x3c32a340	0.01090318
57	0xbd9392ba	-0.0720572
58	0x3e06213c	0.13098615
59	0xbe478e36	-0.19487843
60	0x3e70a678	0.23501003
61	0xbe474dd9	-0.1946329
62	0x3dcbe41c	0.09955618
63	0xbe4b7420	-0.19868517

critic.2.weight f4 [64, 64]
0	0xbdfad5fe	-0.12247847
1	0xbd327558	-0.04356894
2	0x3d4c6440	0.049900293
3	0xbc3013c0	-0.010746896
4	0x3cb3f8b8	0.021969184
5	0xbcdf9d88	-0.027296796
6	0xbda172b2	-0.078832045
7	0x3d7b20e0	0.06131065
8	0x3dd4b74e	0.10386525
9	0xbcc17970	-0.023617476
10	0xbc8b9918	-0.017040774
11	0x3dd723aa	0.10504849
12	0xbda91b10	-0.08257115
13	0xbce99228	-0.028512076
14	0xbd46fbe4	-0.048580065
15	0x3da49df0	0.08037937
16	0xbd857f80	-0.06518459
17	0x3d2afc04	0.041744247
18	0xbd1b4818	-0.03791055
19	0x3c8f80e8	0.017517522
20	0x3dab0aa2	0.083516374
21	0x3d64e868	0.055885702
22	0x3d801684	0.062542945
23	0xb884d000	-6.3329935e-05
24	0xbd66b7f4	-0.056327775
25	0x3ce856a0	0.028361619
26	0xbde0821e	-0.10962318
27	0xbd7cf794	-0.061759546
28	0x3d4fa8ec	0.050698206
29	0xbd7a1e2c	-0.06106393
30	0xbd8f468a	-0.06995876
31	0x3c437910	0.011930719
32	0x3dc536ec	0.09629616
33	0xbc0c3d30	-0.00855951
34	0xbde7821a	-0.11304112
35	0xbccdef28	-0.025138453
36	0x3c4651c0	0.012104452
37	0xbdebaa76	-0.11507122
38	0x3d6f7de4	0.058469668
39	0xbd73bb54	-0.059504822
40	0xbd8b78c4	-0.068101436
41	0xbd91a14e	-0.071108446
42	0x3dc80720	0.09766984
43	0xbda45886	-0.08024697
44	0x3d5abc48	0.053402215
45	0xbda51ffa	-0.0806274
46	0x3dfe04ea	0.12403281
47	0xbdded8e6	-0.10881214
48	0x3df75b26	0.12077932
49	0x3dcebaac	0.100941986
50	0x3d40e7a4	0.04709591
51	0xbd52ab54	-0.051432922
52	0x3d02a084	0.03189136
53	0xbd806a7a	-0.06270309
54	0x3d6397e4	0.055564776
55	0xbb0e6780	-0.0021729171
56	0xbc888e48	-0.016669407
57	0xbc1efa20	-0.009703189
58	0x3d800a4e	0.062519655
59	0xbbe57d60	-0.0070034713
60	0x3dac6d96	0.08419339
61	0xbcda9e60	-0.026686847
62	0xbd0bc7a8	-0.034125954
63	0xbb9bcac0	-0.0047543943
64	0x3d9b1b20	0.07573533
65	0xbd91c4d8	-0.07117623
66	0xbd0a9968	-0.033837706
67	0x3de0cb98	0.109763324
68	0xbdc1c836	-0.09462015
69	0x3d9d4088	0.07678324
70	0xbc5fa8f0	-0.013651118
71	0x3de8d354	0.11368433
72	0x3df9812e	0.12182842
73	0xbd389ae8	-0.045069605
74	0x3d73e36c	0.05954306
75	0x3d22718c	0.039659068
76	0x3d04e340	0.032443285
77	0x3dadec70	0.084923625
78	0x3bf9b2c0	0.0076201856
79	0xbdf612b4	-0.12015286
80	0x3da991fa	0.08279796
81	0x3dfa9948	0.12236267
82	0x3d856684	0.06513694
83	0xbd390458	-0.04517016
84	0xbda2e97c	-0.0795469
85	0x3d7c7ae8	0.06164065
86	0x3c8304b8	0.015993461
87	0x3c96fab0	0.018430084
88	0xbda44fdc	-0.080230445
89	0x3dd05476	0.1017236
90	0xbdf2534a	-0.118322924
91	0xbd3a7ec4	-0.04553105
92	0xbcc7cd68	-0.024389938
93	0xbda2359a	-0.0792038
94	0x3b8e3740	0.0043400824
95	0x3d966068	0.07342607
96	0x3deeceaa	0.11660512
97	0x3db46484	0.08808234
98	0xbdd0cea0	-0.101956606
99	0x3dec1ba4	0.115287095
100	0x3dfe949a	0.12430687
101	0xbd9e9ec2	-0.077451244
102	0xbc5ecf60	-0.013599247
103	0xbdd0b700	-0.101911545
104	0xbdafd848	-0.08586174
105	0xbd42dfe0	-0.047576785
106	0x3d2a58e4	0.04158868
107	0x3d40d998	0.047082514
108	0x3d1836c8	0.03716162
109	0x3dffee46	0.12496619
110	0x3dc52f1e	0.096281275
111	0x3d61c574	0.055119947
112	0x3d3441d4	0.04400809
113	0xbde761fe	-0.112979874
114	0x3dca7fda	0.09887667
115	0x3ca7df30	0.020492166
116	0xbdf91c38	-0.121635854
117	0xbcd923d0	-0.026506335
118	0x3ceca3a8	0.028886631
119	0xbbcbcea0	-0.0062197
120	0xbdb02e4c	-0.086025804
121	0xbd5a3720	-0.053275228
122	0x3dc197b4	0.09452763
123	0x3ddbf434	0.107399374
124	0x3d5d06b4	0.05396147
125	0x3d7d49b4	0.061837867
126	0xbde63836	-0.1124119
127	0x3d9e20a2	0.07721068
128	0xbca282f8	-0.019837841
129	0x3dffc84c	0.124893755
130	0x3d0947e0	0.03351581
131	0xbcc85a80	-0.024457216
132	0xbd312390	-0.043246806
133	0x3de68abe	0.11256932
134	0xbdff2396	-0.12457959
135	0x3b9b9be0	0.0047488064
136	0xbd5f6f3c	-0.05454944
137	0x3df8f1c4	0.12155488
138	0x3c8e33e8	0.017358735
139	0xbd9a1d4a	-0.07525118
140	0x3d9cb734	0.07652131
141	0xbdb9447a	-0.09046264
142	0xb9bb8000	-0.00035762787
143	0x3d957916	0.07298486
144	0xbde9fb4c	-0.11424884
145	0xbcc92ce8	-0.024557546
146	0x3d838d5c	0.064234465
147	0x3b59ac00	0.0033214092
148	0x3ae2fd00	0.0017317832
149	0x3d9581a2	0.07300116
150	0x3d6049a4	0.05475773
151	0xbcf4d248	-0.029885426
152	0x3c501ba0	0.012701899
153	0xbdcd91be	-0.10037564
154	0xbc901670	-0.017588824
155	0xbddf33d0	-0.10898554
156	0xbc688d90	-0.014193907
157	0x3a992b00	0.0011685789
158	0x3d517fe8	0.05114737
159	0xbda0f03c	-0.07858321
160	0x3defec40	0.11714983
161	0xbd26237c	-0.040561184
162	0x3dea4146	0.11438231
163	0xbc6d1c00	-0.014472008
164	0x3d9b1612	0.07572569
165	0x3d2de38c	0.042453334
166	0x3c8e5840	0.017376065
167	0xbca7c090	-0.020477563
168	0xbcc848a0	-0.024448693
169	0xbd7b9b04	-0.06142713
170	0xbd89273e	-0.06696938
171	0xbd323440	-0.04350686
172	0x3db6c6fa	0.089246705
173	0x3c2ac130	0.010422036
174	0xbdc83498	-0.097756565
175	0x3d8b24f0	0.06794155
176	0x3c9e2e40	0.019309163
177	0x3df017cc	0.11723289
178	0xbdf97006	-0.1217957
179	0xbdc0fa3c	-0.094227284
180	0x3b404280	0.0029336512
181	0x3c96fb88	0.018430486
182	0xbc1272f0	-0.008938536
183	0xbda5099a	-0.08058472
184	0xbdcee4ce	-0.10102235
185	0xbd496dec	-0.049177095
186	0x3c1311c0	0.0089764
187	0xbddc0dd2	-0.107448235
188	0x3d845b82	0.06462766
189	0xbdd048ee	-0.1017016
190	0xbde89d12	-0.11358084
191	0x3c7960e0	0.015220851
192	0xbd193bdc	-0.037410602
193	0xbdef3768	-0.1168049
194	0xbae6ee80	-0.0017618686
195	0xbce5c0e8	-0.028046086
196	0x3dddcc40	0.10829973
197	0x3cac7e48	0.02105631
198	0xbdb395ba	-0.087687925
199	0xbd8dbe6e	-0.06921087
200	0x3d8c7782	0.06858732
201	0xbd79d640	-0.06099534
202	0x3d448388	0.047977
203	0xbdacfdca	-0.08446844
204	0xbd087850	-0.033317864
205	0x3df1c2e0	0.118047476
206	0xbdc52826	-0.09626798
207	0xbdfef488	-0.124489844
208	0xbde6c1c2	-0.11267425
209	0xbde6a656	-0.11262195
210	0x3d696e80	0.056990147
211	0xbd93438a	-0.071906164
212	0x3d4db044	0.050216928
213	0xbdd4f068	-0.10397416
214	0xbd8466f2	-0.06464948
215	0xbd954710	-0.07288945
216	0x3dfaba5e	0.12242578
217	0x3db5d8ee	0.08879267
218	0x3daacdbc	0.08340022
219	0x3cee2670	0.029071063
220	0x3d8128ee	0.06306635
221	0xbd31a6ec	-0.04337208
222	0x3dcc69d2	0.09981121
223	0xbc8a7318	-0.016900584
224	0xbd956d16	-0.07296197
225	0x3de627e0	0.11238074
226	0x3dbaf504	0.09128764
227	0x3dc903a0	0.098151445
228	0x3d301994	0.042993143
229	0xbd34fbe0	-0.04418552
230	0x3d23687c	0.039894566
231	0x3d430398	0.04761085
232	0xbd95a06e	-0.0730599
233	0x3dfdafec	0.1238707
234	0x3d9cb90c	0.076524824
235	0x3cfca6e0	0.030841291
236	0x3cba25b0	0.022723049
237	0xbdcf5474	-0.1012353
238	0xbde5f9c0	-0.11229277
239	0x3dae0722	0.08497454
240	0x3d24cf2c	0.040236637
241	0xbd4dd624	-0.05025305
242	0xbdb334d8	-0.087503135
243	0x3daaf93c	0.08348319
244	0xbd679294	-0.056536272
245	0x3d93da3c	0.07219359
246	0x3ca5ead8	0.020253584
247	0x3dca37ac	0.098739
248	0x3de382cc	0.11108932
249	0xbd516f7c	-0.05113171
250	0xbd52f3ec	-0.051502153
251	0xbb22bcc0	-0.0024831742
252	0xbca5ab28	-0.020223215
253	0xbd458904	-0.04822637
254	0xbc8f6050	-0.01750198
255	0x3d7b318c	0.06132655

critic.2.bias f4 [64]
0	0x3daa30e4	0.083101064
1	0x3cde4050	0.027130276
2	0xbdece448	-0.11566979
3	0x3d48c66c	0.049017355
4	0xbd541204	-0.051774994
5	0x3dc7b324	0.09750965
6	0x3de2c54e	0.11072789
7	0x3d9f1bd2	0.07768978
8	0x3cb50c30	0.022100538
9	0xbda6aff8	-0.08139032
10	0xbd906d64	-0.070521146
11	0xbcdbe370	-0.02684185
12	0xbdba2c4a	-0.09090479
13	0xbd9788f6	-0.0739917
14	0x3dc18bfa	0.094505265
15	0xbcde3d80	-0.027128935
16	0xbcf5aae8	-0.029988721
17	0xbdaae474	-0.08344355
18	0x3bee2220	0.0072672516
19	0xbd8f6e32	-0.0700344
20	0x3db6c5a6	0.08924417
21	0x3dd8f3f2	0.10593404
22	0x3c2dc340	0.010605633
23	0x3dbba4ce	0.091622934
24	0x3c95d6b0	0.018290848
25	0x3da01d50	0.07818091
26	0x3dc7ad46	0.09749846
27	0xbda6a832	-0.081375495
28	0x3d040f30	0.032241046
29	0x3d754808	0.059883147
30	0xbd0fa20c	-0.03506665
31	0x3d08c1b4	0.033387855
32	0xbd8eee6c	-0.06979069
33	0xbd8bc0ec	-0.06823906
34	0x3d5bd260	0.053667426
35	0x3c4904a0	0.012269169
36	0xbdb4caa6	-0.088277146
37	0x3ccf8588	0.025332227
38	0x3dae2d46	0.08504729
39	0x3de4de6a	0.111752346
40	0x3c2fe3b0	0.010735437
41	0xbab47200	-0.0013766885
42	0x3dd7c8d2	0.1053635
43	0x3c78f230	0.015194461
44	0xbde9d33a	-0.114172414
45	0x3d0bdef8	0.034148186
46	0xbd2a7708	-0.041617423
47	0xbb5e2240	-0.0033894926
48	0xbda03544	-0.078226596
49	0xbdaeaabc	-0.08528659
50	0xbd746f4c	-0.059676453
51	0x3da2a0a8	0.07940799
52	0x3dae3824	0.08506802
53	0xbc208b20	-0.009798795
54	0xbda1d7e4	-0.07902506
55	0xbd95b32e	-0.073095664
56	0xbdd3f732	-0.10349883
57	0x3d580b28	0.052745014
58	0x3d57ec90	0.052715838
59	0xbc9dff18	-0.019286677
60	0x3d400cbc	0.046887144
61	0x3dd10264	0.10205534
62	0xbd0aec94	-0.033917025
63	0x3d215bf4	0.039394334

critic.4.weight f4 [1, 64]
0	0x3d60df68	0.054900557
1	0x3dd764fc	0.10517308
2	0xbd0377c0	-0.032096624
3	0xbde6ed8c	-0.11275777
4	0x3de4f85c	0.11180183
5	0x3d9da542	0.07697536
6	0x3c9cb140	0.019127488
7	0xbcb2c6d8	-0.021823332
8	0xbda0f196	-0.07858579
9	0xbdd3e26e	-0.103459224
10	0xbdefd5c4	-0.117106944
11	0xbc62d300	-0.013844252
12	0x3d063b18	0.0327712
13	0x3d527864	0.051384345
14	0x3c3d7760	0.011564106
15	0xbd87fcca	-0.066400126
16	0xbd590604	-0.052984253
17	0xbd705624	-0.0586759
18	0x3d3239e0	0.043512225
19	0xbd602a08	-0.054727584
20	0x3dce03b6	0.100593016
21	0x3d0657f0	0.032798707
22	0xbda01270	-0.07816017
23	0xbdb23dea	-0.087032154
24	0x3dc72d4c	0.097254366
25	0xbce3ae40	-0.02779305
26	0x3acc2d80	0.0015577525
27	0xbd4463c0	-0.04794669
28	0x3da816cc	0.08207473
29	0xbba54180	-0.0050432086
30	0xbdd5b9b8	-0.10435814
31	0x3db1622a	0.086613014
32	0xbdf0470a	-0.117322996
33	0xbddecd08	-0.1087895
34	0x3d738f44	0.0594628
35	0xbde6bde6	-0.11266689
36	0xbd8c7482	-0.068581596
37	0x3b63a400	0.0034735203
38	0x3d80dbf8	0.06291956
39	0x3dd02fe4	0.101653844
40	0xbcd46708	-0.025928035
41	0xbd81eb80	-0.06343746
42	0xbc6c65c0	-0.014428556
43	0x3cddeb10	0.027089626
44	0xbd203418	-0.03911218
45	0x3d9b49b6	0.075824186
46	0x3c850f20	0.016242564
47	0x3dead81c	0.11467001
48	0x3dda5dfc	0.10662457
49	0x3c7c0110	0.015381113
50	0x3dce31b6	0.10068075
51	0x3daa57bc	0.08317515
52	0x3da13742	0.07871868
53	0x3c844998	0.016148373
54	0x3d1971e8	0.037462145
55	0xbd003978	-0.031304806
56	0x3d92c738	0.07166904
57	0xbc8b7f90	-0.0170286
58	0xbd44f76c	-0.048087522
59	0xbd9af5ee	-0.075664386
60	0xbdee4e38	-0.11636013
61	0x3dc2b00e	0.09506236
62	0xbd63a1f8	-0.055574387
63	0xbd751928	-0.059838444
