walker_small_saved_models/initial_actor_20241125_211837.pth (torch, 26038 bytes, 7 tensors)

log_std f4 [6]
0	0x00000000	0.0
1	0x00000000	0.0
2	0x00000000	0.0
3	0x00000000	0.0
4	0x00000000	0.0
5	0x00000000	0.0

actor.0.weight f4 [64, 17]
0	0xbe07e17c	-0.13269609
1	0xbe18378a	-0.14864936
2	0x3e4189f8	0.18900287
3	0xbe6100f2	-0.21973017
4	0x3e1607ae	0.14651367
5	0x3d838550	0.06421912
6	0xbe54066b	-0.20705573
7	0xbd9bc3b0	-0.07605684
8	0x3e32ca42	0.17459968
9	0x3e2dbcb2	0.16966513
10	0x3d333738	0.043753833
11	0x3e12f14a	0.14349857
12	0x3e59e130	0.21277308
13	0xbe76ed8b	-0.24114053
14	0x3e74d086	0.2390767
15	0xbdf59bb1	-0.119925864
16	0xbd421454	-0.047382668
17	0xbd4f5558	-0.0506185
18	0x3e62446a	0.2209641
19	0x3e231dd4	0.15929347
20	0xbe626c0b	-0.22111528
21	0x3e45f1a2	0.19330457
22	0x3e2e6240	0.17029667
23	0xbe4d32ed	-0.20038958
24	0xbe23781c	-0.15963787
25	0xbce6da18	-0.028180167
26	0xbe65afaf	-0.22430299
27	0x3cd4fd90	0.025999814
28	0x3e45c0dc	0.19311851
29	0x3e35e43a	0.17762843
30	0x3da5133c	0.08060309
31	0x3e657a24	0.22409874
32	0xbdb23f78	-0.08703512
33	0x3e74feae	0.23925278
34	0xbe169f39	-0.14709176
35	0x3dee2084	0.116272956
36	0x3cbb2ea0	0.022849381
37	0x3d6a5ce8	0.05721751
38	0xbbdeb1c0	-0.006796092
39	0xbc531410	-0.012883201
40	0x3e257bd4	0.16160518
41	0xbd1414c4	-0.036152616
42	0xbdb11eb8	-0.08648437
43	0x3d147058	0.03623995
44	0x3d89b738	0.06724399
45	0x3e4344de	0.1906924
46	0xbe0a23cb	-0.13490216
47	0xbde3f1c4	-0.111300975
48	0xbe46856c	-0.19386834
49	0xbe241966	-0.16025314
50	0x3d580868	0.05274239
51	0x3e5e6d7e	0.21721455
52	0xbe005758	-0.12533319
53	0x3e76d3bc	0.24104208
54	0x3bf25d80	0.0073964
55	0xbe5d10ee	-0.2158849
56	0xbd1ccd20	-0.03828156
57	0xbe39ba61	-0.18137504
58	0x3e59300c	0.21209735
59	0x3e5e5c48	0.2171489
60	0xbd9ce802	-0.076614395
61	0x3dd9fac8	0.10643536
62	0xbe1b5364	-0.1516853
63	0xbcef25b0	-0.029192775
64	0xbe3ae939	-0.1825303
65	0x3dff80c8	0.12475735
66	0xbe53c265	-0.20679624
67	0xbd489930	-0.048974216
68	0x3e45c524	0.19313484
69	0x3e0556fc	0.13021463
70	0x3dd9e690	0.106396794
71	0x3e4c107c	0.19928163
72	0x3cafd5b0	0.021464199
73	0x3dc3e218	0.09564608
74	0x3d8cf708	0.06883055
75	0xbe6817e6	-0.22665367
76	0x3e43e1be	0.19129083
77	0xbd4af740	-0.049552202
78	0x3d1adfd0	0.0378111
79	0xbe6e7346	-0.23286161
80	0x3e1cc39c	0.15308994
81	0x3d86b280	0.06577015
82	0x3e55d9dc	0.20883888
83	0xbd7f3e7c	-0.06231545
84	0x3de30458	0.11084813
85	0xbe382b54	-0.17985278
86	0xbe126ac2	-0.14298537
87	0x3e74d14a	0.23907962
88	0xba9dab80	-0.001202926
89	0xbe2b98d0	-0.16757512
90	0xbda9d6d4	-0.08292928
91	0x3dfdd69c	0.12394449
92	0xbe3cbc34	-0.18431169
93	0xbd149278	-0.036272496
94	0xbd200d10	-0.039074957
95	0xbd5aae78	-0.053389043
96	0x3e12c652	0.14333466
97	0xbe665159	-0.22491969
98	0xbd9acc4a	-0.07558496
99	0x3d3b47b0	0.045722663
100	0x3d881340	0.06644297
101	0x3b59c240	0.0033227354
102	0xbe019dbb	-0.12657826
103	0xbe6cef8f	-0.2313826
104	0x3d8435d0	0.064555764
105	0xbb879680	-0.004137814
106	0x3df93e8c	0.12170133
107	0x3e3b55e0	0.18294477
108	0xba640000	-0.000869751
109	0x3e18f784	0.1493817
110	0x3e3ad480	0.18245125
111	0x3db0102c	0.085968345
112	0x3e2abd9c	0.16673893
113	0xbdfbf3e1	-0.123023756
114	0xbe6161ac	-0.22009915
115	0x3e2911ee	0.16510746
116	0xbcc5d0c8	-0.024147406
117	0x3e31355a	0.17305508
118	0x3e454382	0.19264033
119	0xbe323db0	-0.17406344
120	0xbd4b5574	-0.04964204
121	0xbe407f33	-0.18798523
122	0xbde92e0c	-0.11385736
123	0x3dd19168	0.10232812
124	0x3dd1f230	0.10251272
125	0xbe393b14	-0.18088943
126	0xbe3b984a	-0.18319812
127	0x3e1d5f4e	0.15368387
128	0x3e044206	0.12915811
129	0xbe64ff7d	-0.22363086
130	0xbd5cbab4	-0.05388899
131	0x3e75a1b0	0.2398746
132	0x3e755d88	0.2396146
133	0x3e19df60	0.15026617
134	0xbe1f92c0	-0.15583324
135	0xbe60e457	-0.21962105
136	0xbe02fa1a	-0.12790719
137	0xbe21ac19	-0.15788306
138	0x3e49423c	0.19654173
139	0xbd88c872	-0.06678857
140	0x3e1c8e6e	0.15288708
141	0xbc887140	-0.016655564
142	0x3df16d1c	0.11788389
143	0x3c117a80	0.008879304
144	0xbe46e335	-0.1942261
145	0x3dfca348	0.12335831
146	0xbdc2fa54	-0.095204026
147	0xbe5998c5	-0.21249683
148	0xbbed4940	-0.007241398
149	0xbcc8e980	-0.024525404
150	0x3d13ae90	0.036055148
151	0x3e5a3fb8	0.2131337
152	0x3e220824	0.15823418
153	0x3df9cb38	0.12196964
154	0xbe0e76e0	-0.13912535
155	0x3e3ba3da	0.18324223
156	0xbe681d7e	-0.226675
157	0xbe435d7a	-0.19078627
158	0x3db866d4	0.09003988
159	0xbe1fa1a5	-0.15589006
160	0xbcb8f8c8	-0.022579566
161	0xbd57d648	-0.05269459
162	0xbd3edfec	-0.046600267
163	0xbe38c62a	-0.18044344
164	0x3d8ca820	0.06868005
165	0x3e6d2286	0.23157701
166	0x3e4bdd96	0.19908747
167	0xbda3d624	-0.079998285
168	0x3e3ba0e6	0.18323097
169	0xbd8921e4	-0.06695917
170	0xbdb98c48	-0.0905996
171	0x3e1b5324	0.15168434
172	0x3e369988	0.17832005
173	0x3d435b38	0.047694415
174	0x3e6f26ac	0.23354596
175	0x3be3db40	0.006953627
176	0xbe4a510d	-0.19757481
177	0xbc36e620	-0.0111632645
178	0xbdf57cf0	-0.119867206
179	0x3de200ec	0.11035332
180	0x3d45b4a8	0.04826799
181	0xbe6b88d2	-0.23001412
182	0x3e3f7588	0.18697178
183	0xbe56f44d	-0.20991631
184	0x3e462e5c	0.19353622
185	0xbe21f436	-0.15815815
186	0x3d8df06c	0.069306225
187	0x3dcbff94	0.09960857
188	0x3b9f80c0	0.004867643
189	0xbdc8fcc8	-0.09813839
190	0xbc96e340	-0.018418908
191	0x3e63b420	0.22236681
192	0x3e0686c4	0.13137347
193	0xbbd0eac0	-0.0063756406
194	0xbc9daad8	-0.019246504
195	0x3be29460	0.0069146603
196	0x3db6bb54	0.08922449
197	0x3e3a2778	0.18179119
198	0xbe108955	-0.14114888
199	0xbdbf0270	-0.09326637
200	0x3dbd52d8	0.09244317
201	0xbcc00f70	-0.023444861
202	0x3e3b2282	0.18274882
203	0xbe4ecd12	-0.20195416
204	0xbc8df8d0	-0.017330557
205	0x3e340d66	0.17583236
206	0x3c994e00	0.018713951
207	0x3d857820	0.06517053
208	0x3e20a998	0.15689695
209	0xbe6e8439	-0.23292626
210	0xbe173991	-0.14768054
211	0x3dd961d8	0.10614365
212	0x3dcd4df4	0.10024634
213	0x3e6afa02	0.22946933
214	0x3d9bbe8c	0.07604703
215	0xbd109f5c	-0.035308227
216	0xbe65ad14	-0.22429305
217	0xbcb46c70	-0.022024363
218	0xbda89c88	-0.08232981
219	0x3e1e67d8	0.15469301
220	0xbdf8ac0d	-0.12142191
221	0xbc7d6ec0	-0.015468299
222	0x3e6ec1b4	0.2331608
223	0xbd0d4dbc	-0.03449796
224	0x3e160556	0.14650473
225	0xbe06b060	-0.13153219
226	0xbb9cbf00	-0.004783511
227	0xbe48305a	-0.19549695
228	0xbe5394bd	-0.20662208
229	0xbde6a40a	-0.11261757
230	0x3c990a20	0.018681586
231	0xbd9fbe38	-0.07799953
232	0xbe1b9440	-0.15193272
233	0x3c9615c0	0.018320918
234	0x3d99cdf0	0.075099826
235	0x3e3649b8	0.17801559
236	0x3c134000	0.008987427
237	0x3d09d810	0.03365332
238	0xbdfd4f15	-0.12368599
239	0xbe5096d9	-0.20370044
240	0x3e08e9ce	0.1337044
241	0xbe5c24a1	-0.21498348
242	0xbd173014	-0.036911085
243	0xbe19ffd9	-0.15039004
244	0xbe384c88	-0.17997944
245	0xbe3c1738	-0.18368232
246	0x3e384f9e	0.17999122
247	0xbdca8100	-0.09887886
248	0x3c9b9170	0.018990248
249	0x3e0617cc	0.13095015
250	0xbe6c4c0f	-0.23075889
251	0x3e26475e	0.16238162
252	0xbe68ba62	-0.2272735
253	0x3e11339a	0.1417984
254	0x3dff5e28	0.12469131
255	0xbdcee8d6	-0.10103004

actor.0.bias f4 [64]
0	0x3cc70440	0.024294019
1	0xbda85290	-0.082188725
2	0x3e005ee8	0.12536204
3	0xbe451e93	-0.19249944
4	0x3d8b6e74	0.06808177
5	0xbc9533a8	-0.018213108
6	0x3d07a0d0	0.033112347
7	0xbd9cd726	-0.07658224
8	0xba32db00	-0.00068227947
9	0xbe29dfeb	-0.16589324
10	0xbe2412a5	-0.16022737
11	0x3e2d8676	0.16945824
12	0x3dc80874	0.09767237
13	0xbc5afd40	-0.013366044
14	0x3db543d8	0.08850831
15	0x3d7206a0	0.05908835
16	0x3d4bf750	0.049796402
17	0xbe441600	-0.19149017
18	0xbd69611c	-0.056977376
19	0xbe3c0eb5	-0.18364985
20	0xbc2e1c80	-0.010626912
21	0x3e2578c0	0.16159344
22	0xbdac25aa	-0.08405621
23	0x3e690a50	0.2275784
24	0x3c08c100	0.008346796
25	0xbd8644f8	-0.065561235
26	0xbda0093e	-0.07814263
27	0x3e012b5e	0.126142
28	0x3c803350	0.015649468
29	0xbdb3d13e	-0.08780144
30	0xbe0e171f	-0.13876007
31	0xbe6ae510	-0.22938943
32	0xbdb3a316	-0.087713405
33	0xbe10970d	-0.14120121
34	0xbe5bdddb	-0.2147135
35	0x3dbc6c00	0.09200287
36	0xbdaa5906	-0.08317761
37	0x3e48e7c0	0.19619656
38	0xbe17ac13	-0.14811735
39	0xbd33fbf4	-0.043941453
40	0x3c31ad40	0.010844529
41	0x3cefc020	0.029266417
42	0xbe2f62bc	-0.17127508
43	0xbd8efd96	-0.069819614
44	0x3e47d98e	0.19516584
45	0xbe2e24c2	-0.1700621
46	0x3ddfb3ac	0.109229416
47	0x3d4e3778	0.050345868
48	0xbd0487b4	-0.03235598
49	0x3de81d10	0.11333668
50	0xbe755106	-0.23956689
51	0xbbfcb1a0	-0.0077116042
52	0x3ded91f0	0.11600101
53	0x3d189288	0.037249118
54	0xbe67d2a8	-0.22638953
55	0x3e037576	0.12837777
56	0x3c7028e0	0.014658183
57	0x3cacf9d0	0.021115214
58	0xbddae91a	-0.10688992
59	0x3e34ce3e	0.176568
60	0xbe117132	-0.14203337
61	0xbdc723be	-0.09723614
62	0xbe0c2f52	-0.13689926
63	0xbc9c9a00	-0.019116402

actor.2.weight f4 [64, 64]
0	0x3d2efb60	0.0427202
1	0x3aa8b200	0.0012870431
2	0xbd9e7730	-0.07737577
3	0x3d454e1c	0.048170194
4	0x3db3c62e	0.08778034
5	0xbdb1356c	-0.086527675
6	0xbde8b4c4	-0.11362603
7	0xbd89c0f6	-0.067262575
8	0xbd7e156c	-0.06203215
9	0x3de96e4e	0.11397992
10	0x3dcfcae0	0.10146117
11	0xbdaa1f0c	-0.08306703
12	0x3dd9a0a8	0.10626346
13	0x3d817eb0	0.06322992
14	0xbc5a2120	-0.013313562
15	0x3c8b5458	0.017007992
16	0xbdbe2554	-0.092844635
17	0x3c999c00	0.018751144
18	0x3c661a70	0.014044389
19	0xbd9ed660	-0.077557325
20	0xbcf82b98	-0.030294225
21	0x3d59f828	0.053215176
22	0x3d5d3d98	0.05401382
23	0xbd44d1b0	-0.048051536
24	0xbd712240	-0.058870554
25	0xbda5b9a0	-0.08092046
26	0xbd4ac8cc	-0.0495079
27	0xbda60568	-0.081065
28	0x3db4d93a	0.08830495
29	0xbda21330	-0.07913816
30	0xbc0fab40	-0.0087688565
31	0x3df87620	0.121319056
32	0xbc9a3780	-0.018825293
33	0xbdd9c78e	-0.10633765
34	0xbd848ef2	-0.06472577
35	0xbdb74240	-0.08948183
36	0xbd839240	-0.06424379
37	0xbd2728dc	-0.04081045
38	0xbda8d7c2	-0.082442775
39	0xbdfebbec	-0.12438187
40	0xbc970790	-0.018436223
41	0x3d377ca0	0.044796586
42	0x3da06212	0.078312054
43	0xbd3f07c4	-0.046638265
44	0xbdfce4cc	-0.12348327
45	0xbd5890d8	-0.05287251
46	0xbddbf3b2	-0.107398406
47	0x3dfd9cca	0.12383421
48	0x3d9db1a4	0.07699898
49	0xbd4fe0e0	-0.050751567
50	0xba8a1500	-0.0010534823
51	0xbcd4d4b0	-0.025980324
52	0xbdfbf38e	-0.12302314
53	0xbc0f0de0	-0.008731335
54	0x3dc7f5f8	0.09763712
55	0xbdf707d8	-0.12062043
56	0xbd78959c	-0.060689554
57	0xbd6e5d48	-0.05819443
58	0xbde44ffa	-0.11148067
59	0x3d281278	0.04103324
60	0x3cf10e78	0.029425845
61	0xbd968d00	-0.07351112
62	0x3d6584d0	0.056034863
63	0x3b0964c0	0.0020964593
64	0x3dc667b0	0.096877456
65	0xbde9766e	-0.11399542
66	0xbdb82018	-0.089904964
67	0x3d923934	0.07139817
68	0xbdce2a3c	-0.10066649
69	0xbdcf979e	-0.101363406
70	0x3dd24978	0.10267919
71	0xbda89600	-0.08231735
72	0x3db1c7c2	0.08680679
73	0x3d2e4064	0.042541876
74	0xbd9b4434	-0.07581368
75	0xbd3946b4	-0.045233443
76	0xbddd88d2	-0.10817112
77	0xbd3e5490	-0.046467364
78	0xbd83475c	-0.06410095
79	0x3d60d098	0.05488643
80	0x3d23d1d0	0.039995015
81	0xbd857490	-0.06516373
82	0x3c26c560	0.010178894
83	0x3db6dd0a	0.089288786
84	0x3c208090	0.009796277
85	0xbdf7dcaa	-0.12102635
86	0x3dc313f6	0.095252916
87	0xbddab74e	-0.10679494
88	0xbded15a6	-0.11576395
89	0xbcf36ba0	-0.029714406
90	0x3adc3900	0.0016801655
91	0xbce55d10	-0.027998477
92	0xbd03b158	-0.03215155
93	0x3cd04328	0.025422648
94	0x3cd0fb90	0.02551058
95	0xbc9660d0	-0.01835671
96	0xbdc90a74	-0.09816447
97	0xbdb246b2	-0.0870489
98	0x3deaab32	0.11458434
99	0xbd94b93a	-0.07261892
100	0x3c9f5b48	0.019452706
101	0xbcde70f0	-0.027153462
102	0xbd81aca2	-0.06331755
103	0xbc68b4f0	-0.014203295
104	0xbd2c5c08	-0.042079955
105	0x3d458f5c	0.04823242
106	0x3df28336	0.11841433
107	0xbd2aa774	-0.041663602
108	0x3de3e012	0.111267224
109	0x3d7fd5d0	0.062459767
110	0xbc7973c0	-0.015225351
111	0x3d4d5c70	0.050136983
112	0x3d6e2fc8	0.058151037
113	0x3c979f68	0.018508628
114	0x3d0786f8	0.0330877
115	0x3d01d29c	0.031694993
116	0x3dc280a8	0.094971955
117	0x3dda35f0	0.10654819
118	0x3d224970	0.039620817
119	0x3d34034c	0.043948457
120	0xbda3ca72	-0.07997598
121	0x3b2cfa80	0.0026394427
122	0xbc290300	-0.010315657
123	0xbcc8e7c8	-0.024524584
124	0xbd5ce100	-0.053925514
125	0xbdac8c6e	-0.08425222
126	0xbdabd408	-0.08390051
127	0xbd329fdc	-0.043609485
128	0xbd8fb85c	-0.07017586
129	0xbca85ca8	-0.020551994
130	0xbb37c940	-0.0028043538
131	0xbcba6670	-0.022753924
132	0xbcfdf760	-0.031001747
133	0xbddfd6bc	-0.10929629
134	0x3dba8466	0.09107284
135	0xbd2b1fdc	-0.04177843
136	0xbd9bc4d4	-0.07605901
137	0x3de5c93c	0.11220023
138	0x3b46ea40	0.0030352026
139	0xbdb1ae20	-0.0867579
140	0x3dcdc19c	0.10046694
141	0xbdf1e39a	-0.1181099
142	0xbde71f04	-0.11285213
143	0xbc87b7a8	-0.016567066
144	0x3cf36ed8	0.02971594
145	0x3d3dcc38	0.046337336
146	0xb956f000	-0.00020498037
147	0x3c206c70	0.0097914785
148	0x3d4c18fc	0.049828514
149	0xbd1bdcf4	-0.038052514
150	0xbd9ad970	-0.07561004
151	0xbcba60f0	-0.022751302
152	0x3dcdb58a	0.100443915
153	0xbd1c896c	-0.038216993
154	0x3c922b20	0.01784283
155	0x3d80f2c6	0.06296305
156	0xbd8f59ea	-0.069995716
157	0x3d94a6c8	0.072583735
158	0x3de1eac6	0.110311076
159	0x3df1d0fa	0.11807437
160	0x3d1a90a4	0.037735596
161	0x3db2d8c4	0.08732751
162	0x3d9c4dfa	0.0763206
163	0xbdf8b09c	-0.121430606
164	0xbde48fbc	-0.11160228
165	0xbd9443be	-0.07239483
166	0xbd7ab89c	-0.061211213
167	0x3d973c2c	0.07384524
168	0x3d23b230	0.039964855
169	0x3c7ed110	0.015552774
170	0x3d95fb72	0.0732335
171	0xbd99e916	-0.07515161
172	0xbc5ece30	-0.013598964
173	0xbb64eac0	-0.003492996
174	0xbd32d3a4	-0.043658867
175	0xbd04cd7c	-0.032422528
176	0xbd6676a8	-0.056265503
177	0xbac6bb80	-0.001516208
178	0x3ce6edc8	0.028189555
179	0x3d93bd42	0.072138324
180	0x3d525518	0.051350683
181	0xbde509c0	-0.111835
182	0x3c533510	0.012891069
183	0xbd9d2a30	-0.07674062
184	0x3db49394	0.08817211
185	0x3dc0ea28	0.09419662
186	0xbdedeb64	-0.11617163
187	0xbdc90af2	-0.09816541
188	0x3b9786e0	0.0046242326
189	0x3da19030	0.0788883
190	0xbdeeda36	-0.11662714
191	0xbbc47240	-0.005995065
192	0x3d5f7bd8	0.054561466
193	0x3d96681c	0.07344076
194	0x3d95e28e	0.073186025
195	0x3caf6658	0.021411106
196	0x3d2f45f8	0.042791337
197	0xbcfce610	-0.030871421
198	0xbde7e740	-0.11323404
199	0xbc66f9b0	-0.014097616
200	0xbdd46d90	-0.1037246
201	0xbd0c46e8	-0.03424731
202	0x3d52b854	0.05144532
203	0x3daf9318	0.08572978
204	0xbdfe5350	-0.12418234
205	0xbd4ea1c4	-0.05044724
206	0xbc74fe00	-0.014953136
207	0xbc24ea70	-0.01006566
208	0x3c9670a8	0.018364266
209	0x3dcbc044	0.09948781
210	0x3d1c6478	0.038181752
211	0xbd9b8354	-0.07593408
212	0xbd9176ba	-0.071027234
213	0xbdb3ac88	-0.08773142
214	0xbdb73840	-0.08946276
215	0xbdcb8a46	-0.09938483
216	0xbddc5aa0	-0.10759473
217	0x3d0a0b9c	0.033702478
218	0x3c43ea80	0.011957765
219	0xbda7d1da	-0.08194323
220	0x3dd67fbc	0.10473582
221	0xbb5dc500	-0.0033839345
222	0x3d92839a	0.07154007
223	0x3c06e020	0.0082321465
224	0x3dd0ba4c	0.10191783
225	0x3daa1d6c	0.08306393
226	0x3d935676	0.071942255
227	0xbdc31fb2	-0.0952753
228	0xbd3a7dc8	-0.04553011
229	0xbc9892e0	-0.018624723
230	0x3c9d5af8	0.019208416
231	0xbd768260	-0.06018293
232	0xbd2c1b4c	-0.04201822
233	0x3cacae28	0.021079138
234	0xbcbc3d40	-0.022978425
235	0x3b8bf980	0.004271686
236	0x3d0842a4	0.03326668
237	0xbd5be5e4	-0.053686038
238	0x3d643ec0	0.055723906
239	0x3d26aa90	0.040690005
240	0xbdf598f6	-0.119920656
241	0xbc9eba98	-0.019376084
242	0xbd798738	-0.06091997
243	0x3dce8f92	0.100859776
244	0xbdb72522	-0.089426294
245	0xbda7dd6e	-0.08196531
246	0xbd28fa44	-0.041254297
247	0x3d9ea07c	0.07745454
248	0xbd8c6bae	-0.06856476
249	0xbd4574f8	-0.048207253
250	0xbcb2b378	-0.021814093
251	0x3dca72ae	0.09885155
252	0x3dde8fe8	0.10867292
253	0xbdd07a24	-0.101795465
254	0x3d731290	0.059343874
255	0xbd325680	-0.043539524

actor.2.bias f4 [64]
0	0x3d7854b8	0.06062767
1	0xbc3e9b60	-0.011633724
2	0x3cf411e8	0.029793695
3	0x3de2512e	0.1105064
4	0x3dc7ed76	0.09762089
5	0x3ddda33c	0.1082215
6	0x3d6f8934	0.058480456
7	0xbdf88926	-0.12135534
8	0xbd4da060	-0.050201774
9	0x3d17d78c	0.037070796
10	0xbdd55990	-0.10417473
11	0x3da94d02	0.08266641
12	0x3da37bb4	0.07982579
13	0xbdc1e964	-0.09468344
14	0xbdab8e6a	-0.08376773
15	0xbd346370	-0.044040143
16	0x3dd2d4cc	0.10294494
17	0xbddf4dce	-0.10903512
18	0xbbc8b620	-0.0061252266
19	0xbd81d55a	-0.06339522
20	0xbd38eaf0	-0.04514593
21	0x3c4f7c70	0.012663946
22	0xbd10d70c	-0.035361335
23	0xbcb10bb0	-0.021612018
24	0x3d87c392	0.06629099
25	0xbcfccab0	-0.030858368
26	0x3caa0238	0.020753011
27	0x3d3926c4	0.045202985
28	0xbd90d6be	-0.07072209
29	0xbdefe378	-0.11713308
30	0xbc20a530	-0.009805009
31	0xbd84ed94	-0.06490627
32	0xbd177d24	-0.036984578
33	0xbdf5cea8	-0.12002307
34	0xbd53e7c4	-0.0517347
35	0xbc7ae4c0	-0.015313327
36	0x3db4cc22	0.08827998
37	0xbb9063e0	-0.0044064373
38	0xbdac2a0e	-0.08406459
39	0x3dde0326	0.10840444
40	0x3c7ab3b0	0.01530163
41	0x3d8c6826	0.06855802
42	0xbda180dc	-0.07885906
43	0x3dc95d3e	0.09832238
44	0x3df2c114	0.11853233
45	0xbc865cc8	-0.016401663
46	0xbd1cc590	-0.038274348
47	0xbca2d788	-0.019878164
48	0xbdeb6b36	-0.11495058
49	0x3b199f40	0.0023440868
50	0xbd021b50	-0.03176433
51	0x3dacf582	0.084452644
52	0xbdb42984	-0.08796981
53	0x3d82adea	0.06380828
54	0x3dec43b4	0.11536351
55	0xbd97c090	-0.07409775
56	0x3ddb84c8	0.107186854
57	0x3bd3e780	0.006466806
58	0xbc556300	-0.013024092
59	0x3cb8b468	0.022546962
60	0xbd439708	-0.047751456
61	0x3d58bd48	0.052914888
62	0x3cc61500	0.024179935
63	0x3c045a90	0.008078232

mean.weight f4 [6, 64]
0	0xbdd36f6e	-0.10323988
1	0x3df92c7c	0.12166688
2	0x3d251918	0.040307134
3	0xbd58a268	-0.052889258
4	0xbd95218e	-0.07281791
5	0xbdcc13da	-0.09964724
6	0xbdb0b33e	-0.08627938
7	0xbdb4f826	-0.08836393
8	0xbde4fae6	-0.111806676
9	0x3d650254	0.055910423
10	0xbde5bcc0	-0.11217642
11	0xbcdd54f8	-0.027018055
12	0x3d37d780	0.04488325
13	0x3cdbf730	0.026851267
14	0xbdc6f120	-0.0971396
15	0xbda8f3dc	-0.082496375
16	0xbc856fd0	-0.016288668
17	0x3c843ad0	0.016141325
18	0xbc2f3520	-0.010693818
19	0x3daaa75a	0.08332701
20	0xbd9075fe	-0.07053755
21	0xbc173a30	-0.009230182
22	0x3db5c854	0.088761
23	0xbdc8c548	-0.098032534
24	0xbde03796	-0.10948102
25	0x3d742130	0.059601963
26	0xbdfd1d72	-0.12359132
27	0xb9851400	-0.00025382638
28	0xbd88a5b0	-0.066722274
29	0xbdce5180	-0.10074139
30	0xbd607594	-0.05479963
31	0x3d8d6b3a	0.069052175
32	0x3d29d690	0.04146439
33	0x3da4914e	0.08035527
34	0x3d7c8d90	0.061658442
35	0xbdeac47c	-0.11463258
36	0xbd2673a8	-0.040637642
37	0x3d96355e	0.07334398
38	0x3c69dfe0	0.014274567
39	0xbddc9cb4	-0.10772076
40	0xbdbe92c4	-0.09305337
41	0xbd0646ec	-0.03278248
42	0xbc449140	-0.011997521
43	0x3ccfcf08	0.025367275
44	0xbba1cd80	-0.0049378276
45	0xbdcb6d48	-0.09932953
46	0x3d877f1c	0.06616041
47	0x3cbb5bb0	0.022870868
48	0x3b65acc0	0.0035045594
49	0xbc103370	-0.008801326
50	0x3d893c40	0.06700945
51	0x3dc77ce4	0.09740618
52	0xbdfc0f96	-0.1230766
53	0xbdaa5fc8	-0.0831905
54	0xbdca129a	-0.09866829
55	0xbc9e7030	-0.019340605
56	0xbd1a9aa4	-0.037745133
57	0xbb5d96c0	-0.0033811778
58	0x3d3f1d8c	0.046659037
59	0xbd1b5b44	-0.037928835
60	0xbde37abc	-0.11107394
61	0x3d914b18	0.07094401
62	0x3c7e3f50	0.015518025
63	0x3cfc9680	0.030833483
64	0xbdcddd58	-0.100519836
65	0xbcf660f8	-0.030075535
66	0xba40ef00	-0.00073598325
67	0x3dba0de2	0.09084679
68	0xbcd8e878	-0.026478037
69	0xbdadc5f0	-0.08485019
70	0xbcc16270	-0.023606509
71	0xbcbaeeb8	-0.022818908
72	0xbdbe8c9c	-0.09304163
73	0xbdb2b6d6	-0.087262794
74	0xbd6a4174	-0.057191327
75	0x3de06466	0.109566495
76	0xbc99b2f8	-0.018762097
77	0x3dab96f6	0.08378403
78	0xbb6bc300	-0.0035974383
79	0xbdfe9218	-0.12430209
80	0x3df20d02	0.11818887
81	0x3dd9db76	0.10637562
82	0xbb54f040	-0.0032491833
83	0xbd5322d4	-0.051546887
84	0xbd173ea8	-0.036924988
85	0x3dfaff6a	0.122557476
86	0xba8ebe00	-0.0010890365
87	0xbd7f806c	-0.062378332
88	0xbd6777bc	-0.056510672
89	0xbd437868	-0.04772225
90	0x3c8b1c60	0.016981304
91	0x3d657ba4	0.056026116
92	0x3ce25590	0.02762869
93	0x3d14b240	0.036302805
94	0x3d7022b4	0.058626845
95	0x3cb46720	0.02202183
96	0xbb9681c0	-0.004593104
97	0x3db40bec	0.087913364
98	0xbdc9bb76	-0.098502085
99	0xbcd795a8	-0.026316479
100	0xbd8d78e6	-0.06907825
101	0xbc010a20	-0.007875949
102	0xbdb4015c	-0.08789322
103	0xbbae1e00	-0.005313635
104	0x3daba210	0.0838052
105	0xbcbdb740	-0.02315867
106	0x3d8b2eaa	0.0679601
107	0xbdae8cb0	-0.08522928
108	0xbd38eb30	-0.045146167
109	0x3d2ddbbc	0.042445883
110	0xbc989968	-0.018627837
111	0x3da528e0	0.08064437
112	0x3cb93078	0.02260612
113	0x3d52da80	0.05147791
114	0xbda86bfe	-0.08223723
115	0x3d938f02	0.07205011
116	0x3dcd0a16	0.10011689
117	0x3d0c12e8	0.034197718
118	0x3d947ac6	0.0724998
119	0x3ddf572a	0.10905297
120	0xbbff3740	-0.0077885687
121	0xbb081bc0	-0.0020768493
122	0x3ca57928	0.020199373
123	0xbc870818	-0.016483352
124	0xbb906080	-0.004406035
125	0x3d70e1e8	0.05880919
126	0x3bc04500	0.0058676004
127	0x3b407f00	0.0029372573
128	0xbce88838	-0.028385267
129	0xbdb16c96	-0.08663289
130	0xbcfbe4a8	-0.03074868
131	0xbddc0994	-0.107440144
132	0x3d10d8d4	0.035363033
133	0x3dbf159a	0.09330292
134	0xbd75a8c4	-0.0599754
135	0x3ddc5bd2	0.10759701
136	0xbd517c28	-0.051143795
137	0x3de838f2	0.113389865
138	0x3da8709c	0.082246035
139	0x3da4bee6	0.080442235
140	0x3cb1c768	0.02170153
141	0xbc5ce820	-0.013483077
142	0xbcfb6930	-0.030689806
143	0xbdff35fa	-0.12461467
144	0x3df942ea	0.12170966
145	0xbde7b8bc	-0.11314532
146	0x3d0a6fac	0.033797905
147	0x3d9f2f1e	0.07772659
148	0x3da04c8a	0.07827099
149	0x3daf2c98	0.085534275
150	0xbd8d2fe2	-0.068938985
151	0xbd69cf08	-0.057082206
152	0xbc860e38	-0.016364202
153	0x3d086950	0.03330356
154	0x3defce82	0.1170931
155	0xbd84c09c	-0.0648205
156	0xbd9f6a9a	-0.077840045
157	0x3d5f4cd8	0.054516643
158	0xbcb55240	-0.022133946
159	0xbde23cc0	-0.110467434
160	0x3daee7c4	0.085402995
161	0xbb67e7c0	-0.0035385936
162	0x3d6cb9b4	0.057794288
163	0xbda2e7f4	-0.07954398
164	0x3dde29ba	0.108478025
165	0x3d780e20	0.060560346
166	0xbd850e36	-0.06496851
167	0xbd9128d2	-0.07087864
168	0xbde8e0be	-0.11370991
169	0x3db7ff40	0.08984232
170	0xbd8d1768	-0.0688923
171	0xbd9d2382	-0.07672788
172	0x3df13dda	0.117793754
173	0xbd11b098	-0.035568804
174	0x3d4442c0	0.04791522
175	0xba039600	-0.0005019605
176	0x3deb6ea6	0.11495714
177	0xbdf3ff00	-0.11913872
178	0xbd560bbc	-0.052257285
179	0x3ddda29e	0.108220324
180	0x3d1fc744	0.039008394
181	0x3d1ca70c	0.038245246
182	0x3dc079d8	0.0939824
183	0xbddec894	-0.10878101
184	0x3d8e9d8a	0.06963642
185	0x3d683080	0.05668688
186	0x3d0f96cc	0.03505592
187	0x3d17193c	0.0368893
188	0xbd9cda3e	-0.07658814
189	0xbd5d7be0	-0.054073215
190	0x3d402968	0.046914488
191	0x3dc29628	0.09501296
192	0xbb3cd500	-0.0028813481
193	0xbde77ed2	-0.11303486
194	0xbdeda22e	-0.11603199
195	0xbdde08fe	-0.10841559
196	0x3d4c5198	0.0498825
197	0xbcd86ff8	-0.026420578
198	0xbc744ef0	-0.014911398
199	0xbd62ba38	-0.055353373
200	0xbd08fc20	-0.03344357
201	0x3d760948	0.060067445
202	0x3dda2518	0.10651606
203	0xbd9f902a	-0.07791169
204	0xbd7679b4	-0.06017466
205	0xbd0bdaec	-0.034144327
206	0xbd6f0748	-0.058356553
207	0x3cfb4f30	0.030677408
208	0x3bc0e680	0.0058868527
209	0xbce7b518	-0.028284594
210	0x3bdfa0c0	0.006824583
211	0x3c870d70	0.0164859
212	0x3cee8c98	0.029119775
213	0xbd117270	-0.035509527
214	0xbd46db68	-0.048549086
215	0x3d8bebe2	0.068321005
216	0xbc8fd038	-0.017555341
217	0x3d959b94	0.07305065
218	0xbdbabdea	-0.091182545
219	0xbde767ae	-0.11299072
220	0x3ddc2d42	0.1075082
221	0xbb215a00	-0.0024620295
222	0xbd6d5f8c	-0.05795245
223	0xbd0d8b5c	-0.03455673
224	0x3d7fa138	0.06240961
225	0x3d9e3c2a	0.07726319
226	0x3d4a713c	0.049424395
227	0xbd3203fc	-0.04346083
228	0x3d7390b8	0.059464186
229	0x3c7f5c20	0.015585929
230	0x3d9090e0	0.07058883
231	0x3ddb66b2	0.10712947
232	0x3d25ae60	0.0404495
233	0xbda15cc0	-0.07879019
234	0xbd8124d6	-0.06305854
235	0x3db19ac0	0.08672094
236	0x3d3c7224	0.04600729
237	0x3c3f6ae0	0.011683196
238	0x3dfe23bc	0.124091595
239	0xbd974dd0	-0.073878884
240	0x3d424928	0.04743305
241	0x3de9a9ca	0.11409338
242	0x3d05de18	0.03268251
243	0xbdcbacf2	-0.09945096
244	0x3be93740	0.007117182
245	0x3dd9da82	0.1063738
246	0xbdf17e6c	-0.11791691
247	0xbdb416a6	-0.08793382
248	0x3dbac4f0	0.09119594
249	0x3d081a78	0.033228368
250	0x3d7eef50	0.062239945
251	0x3d8edfb4	0.06976262
252	0xbd1ace20	-0.037794232
253	0xbddfc5dc	-0.109264106
254	0xbdf3080a	-0.11866768
255	0x3df356e0	0.118818045

mean.bias f4 [6]
0	0xbd41d460	-0.047321677
1	0xbb4ef600	-0.0031579733
2	0xbdf61670	-0.12015998
3	0xbd017414	-0.03160484
4	0x3dc41804	0.09574893
5	0xbd2cbd94	-0.042172983
