walker_small_saved_models/initial_critic_20241125_215633.pth (torch, 78766 bytes, 5 tensors)

critic.0.weight f4 [128, 17]
0	0xbcd77358	-0.026300117
1	0xbe12dfe6	-0.14343223
2	0x3d83eb68	0.064413846
3	0x3dda4238	0.106571615
4	0x3d107250	0.035265267
5	0x3d09e1a0	0.03366244
6	0x3d964a64	0.07338408
7	0xbe76281b	-0.24038737
8	0x3e54a190	0.20764756
9	0xbe718024	-0.23584038
10	0xbe74c2ad	-0.23902388
11	0x3e37f572	0.17964724
12	0x3daafdec	0.08349213
13	0xbd724ce0	-0.059155345
14	0x3d241050	0.04005462
15	0x3e03376c	0.1281411
16	0xbe5cca40	-0.21561527
17	0x3dd1ee0c	0.10250482
18	0x3e71f868	0.23629916
19	0xbe514301	-0.20435716
20	0x3e4a32c0	0.19745922
21	0x3e59dfc6	0.21276769
22	0x3ce37b70	0.02776882
23	0xbc665410	-0.014058128
24	0xbe765f7b	-0.2405986
25	0xbcbe87a8	-0.023258045
26	0x3dbc54ec	0.09195885
27	0xbe04a583	-0.12953763
28	0xbe1b4464	-0.15162808
29	0xbdccc116	-0.09997766
30	0xbcf42fd0	-0.029807955
31	0x3e77959a	0.24178162
32	0x3cbfb1d0	0.023400217
33	0xbdebedfa	-0.1152
34	0xbd185e9c	-0.0371996
35	0x3e30bb00	0.17258835
36	0x3d8edf08	0.069761336
37	0xbe16bd04	-0.14720541
38	0x3b899ba0	0.00419946
39	0xbb96d300	-0.00460279
40	0x3e636dc0	0.22209835
41	0xbda017c6	-0.078170344
42	0xbd8a764e	-0.06760846
43	0xbe18cfc4	-0.14923006
44	0x3e4dce6c	0.20098275
45	0x3da8b7bc	0.082381696
46	0x3e463ae8	0.19358408
47	0x3e30093a	0.1719102
48	0x3e3b4766	0.18288955
49	0xbda94a0e	-0.08266078
50	0x3e092f30	0.13396907
51	0xbe68ef91	-0.22747637
52	0x3e7801bc	0.24219412
53	0xbdeae750	-0.114699006
54	0x3e158878	0.1460284
55	0x3e552934	0.20816499
56	0x3d4a8e38	0.049452037
57	0xbe26d9f1	-0.16294076
58	0xbd1c0878	-0.038094014
59	0xbbfc0380	-0.007690847
60	0x3df785c4	0.12086061
61	0x3cd78800	0.026309967
62	0xbd29af68	-0.041427046
63	0xbe40c63d	-0.18825622
64	0x3e45a9d0	0.1930306
65	0x3e3f4d38	0.186818
66	0x3e72b240	0.2370081
67	0xbd2cfed4	-0.04223521
68	0x3d90e8f8	0.07075685
69	0xbca82b28	-0.020528391
70	0xbda10e26	-0.07864027
71	0x3e0df172	0.13861635
72	0x3d816ad4	0.06319204
73	0xbe33ddfc	-0.17565149
74	0x3da143dc	0.07874271
75	0x3d0b54c0	0.03401637
76	0x3e300ef4	0.17193204
77	0x3e56bc8c	0.20970362
78	0xbe623dee	-0.22093937
79	0xbe2b8d16	-0.16753039
80	0x3e716562	0.2357383
81	0x3e114aa8	0.14188635
82	0x3dcf9ef0	0.10137737
83	0xbe046b3a	-0.12931529
84	0x3e6450f8	0.22296512
85	0xbd011414	-0.03151329
86	0x3e027a3a	0.12741938
87	0x3d48eaf8	0.04905221
88	0xbc65e2b0	-0.014031097
89	0xbe5a6cd8	-0.21330583
90	0xbdfa400b	-0.122192465
91	0xbe18cc5c	-0.14921707
92	0x3db73714	0.08946052
93	0x3e4e31da	0.20136204
94	0xbe6ee63d	-0.23330016
95	0xbd9212b0	-0.071324706
96	0xbc68e130	-0.014213845
97	0x3e649e20	0.22325945
98	0x3de2f8d4	0.110826164
99	0x3c984750	0.018588692
100	0xbe3c6f58	-0.1840185
101	0x3e60ec04	0.21965033
102	0xbe63ab55	-0.22233327
103	0x3d3b8480	0.04578066
104	0x3e2ee602	0.17079929
105	0xbdd46bce	-0.103721246
106	0x3e225410	0.1585238
107	0x3e4f0dd0	0.20220113
108	0x3d888d6c	0.06667599
109	0x3e026b96	0.12736353
110	0x3e130212	0.14356259
111	0x3e44e9b6	0.19229779
112	0x3c3634a0	0.011120945
113	0xbe4d26f8	-0.20034397
114	0x3dafb52c	0.08579478
115	0xbda5e43e	-0.08100174
116	0x3e578672	0.2104738
117	0xbd603f3c	-0.054747805
118	0x3dbd0014	0.092285305
119	0x3beec0e0	0.007286176
120	0x3e27165e	0.16317126
121	0x3e45f26c	0.19330758
122	0x3e1b85d8	0.15187776
123	0x3d8db42c	0.06919131
124	0x3e316f20	0.17327547
125	0x3e313592	0.17305592
126	0xbdf86738	-0.121290624
127	0x3e74a3d2	0.23890617
128	0x3e38e180	0.18054771
129	0x3e0dd4c8	0.13850701
130	0x3e314f48	0.173154
131	0x3e32547c	0.1741504
132	0xbde6df98	-0.11273116
133	0xbe1718d5	-0.14755566
134	0xbd736670	-0.059423864
135	0x3db66044	0.0890508
136	0xbe22dc3a	-0.15904322
137	0xbded2dfa	-0.11581035
138	0x3de0562c	0.10953936
139	0xbe611693	-0.21981268
140	0xbbaa3dc0	-0.0051953495
141	0xbe3cf80a	-0.18453994
142	0xbc1379f0	-0.00900124
143	0xbe56081e	-0.20901534
144	0x3dfbcbe8	0.122947514
145	0xbe0b9049	-0.13629259
146	0xbdbcd8fe	-0.092210755
147	0x3dae779c	0.085189074
148	0x3d6839d0	0.05669576
149	0xbe4c23fe	-0.19935605
150	0x3d657ac8	0.056025296
151	0xbc42e4a0	-0.011895329
152	0x3e39dcfc	0.18150705
153	0xbc5829a0	-0.013193518
154	0x3e00e29e	0.12586448
155	0x3db53130	0.088472724
156	0x3e31d758	0.17367303
157	0x3d20d868	0.03926888
158	0x3db9a518	0.09064692
159	0x3cc59bd0	0.024122149
160	0xbe31a260	-0.17347097
161	0xbddb75f4	-0.10715857
162	0x3e75e2e6	0.24012336
163	0xbccc1098	-0.024910256
164	0x3d000788	0.031257182
165	0x3ca73040	0.02040875
166	0xbe42a180	-0.1900692
167	0xbd8c41d6	-0.06848495
168	0xbd9798ca	-0.07402189
169	0x3de667e4	0.11250284
170	0x3e4a3d46	0.19749936
171	0x3e0a9c72	0.13536242
172	0x3e33b8ec	0.17551011
173	0xbceff6c0	-0.029292464
174	0xbe473558	-0.19453943
175	0xbd1ab708	-0.03777221
176	0x3c4e2fe0	0.0125846565
177	0x3c0cbac0	0.008589447
178	0x3d96f480	0.073708534
179	0x3e752d10	0.23942971
180	0xbc5bf710	-0.0134256035
181	0xbe2a43c2	-0.1662741
182	0x3dbb83d0	0.091560006
183	0xbdfec048	-0.124390185
184	0xbde9f362	-0.11423375
185	0xbd7a3f54	-0.06109555
186	0x3d736ce8	0.059430033
187	0xbd754d5c	-0.05988823
188	0xbd0730fc	-0.0330057
189	0x3e316544	0.17323786
190	0xbe07a030	-0.132447
191	0xbd3206d8	-0.043463558
192	0xbd7fcf90	-0.062453806
193	0xbe1573a9	-0.14594902
194	0xbdafb830	-0.08580053
195	0xbe0cb266	-0.13739929
196	0x3c09c600	0.008409023
197	0xbce402f0	-0.027833432
198	0x3db0bdd0	0.08629954
199	0x3e1de11a	0.154179
200	0x3e3a16ba	0.18172732
201	0xbe44c5ea	-0.19216123
202	0xbd7df9ac	-0.062005684
203	0xbe606270	-0.21912551
204	0x3e1edaf0	0.15513206
205	0xbe2a2231	-0.16614605
206	0x3e1b7f26	0.15185222
207	0xbe53a4af	-0.2066829
208	0xbe3d1b3d	-0.18467422
209	0xbe36ce93	-0.1785224
210	0xbe03fa30	-0.12888408
211	0xbcae7bb8	-0.021299228
212	0xbe15a58c	-0.14613932
213	0x3e55da76	0.20884117
214	0x3e4d2eaa	0.20037332
215	0x3e19244e	0.14955255
216	0x3de5b974	0.11217013
217	0x3e013644	0.12618357
218	0xbe5ed336	-0.21760258
219	0xbe0ededf	-0.13952206
220	0xbe261500	-0.16218948
221	0xbddbb91a	-0.10728665
222	0xbd732328	-0.0593597
223	0xbd45699c	-0.04819642
224	0xbdc8ca6c	-0.09804234
225	0x3d482890	0.04886681
226	0xbbd41a20	-0.006472841
227	0x3e065818	0.13119543
228	0xbe012e5c	-0.12615341
229	0xbe67a4d3	-0.22621469
230	0xbdbf8cca	-0.09353025
231	0xbd782124	-0.06057848
232	0xbe6c7a81	-0.23093607
233	0x3e0b640a	0.1361238
234	0x3be65500	0.0070291758
235	0x3e6304b0	0.22169757
236	0x3e0e4d44	0.13896662
237	0x3d6be588	0.057591945
238	0xbb8d6540	-0.0043150485
239	0xbdcf9bf4	-0.101371676
240	0x3df85384	0.12125304
241	0xbe72eb9c	-0.2372269
242	0xbe28b97c	-0.16477007
243	0xbd05cbbc	-0.032665
244	0x3e55a3b4	0.20863229
245	0x3e0ff87e	0.14059636
246	0xbe4b52b3	-0.19855766
247	0xbc8c7b00	-0.017148495
248	0x3e52fd0a	0.20604339
249	0x3e014600	0.12624359
250	0x39588c00	0.0002065152
251	0x3da453ac	0.08023772
252	0x3e161b26	0.14658794
253	0xbd2ab870	-0.0416798
254	0x3dfbca6c	0.12294468
255	0x3e443274	0.19159871

critic.0.bias f4 [128]
0	0xbcc3c8e8	-0.02389951
1	0x3e6c4372	0.23072603
2	0x3e4d87e0	0.20071363
3	0xbe4340fc	-0.19067758
4	0xbdc63670	-0.09678352
5	0x3b8da6c0	0.0043228567
6	0xbe3db6a5	-0.18526705
7	0xbd1c779c	-0.038200006
8	0xbe40ac63	-0.1881576
9	0x3c9f6e20	0.019461691
10	0xbdc87518	-0.09787959
11	0xbe3ccbc2	-0.18437102
12	0x3e2d1876	0.16903862
13	0xbe48b8e2	-0.19601777
14	0x3e6ff966	0.23434982
15	0x3c6eff80	0.014587283
16	0xbe61947b	-0.22029297
17	0xbe31d13b	-0.17364971
18	0xbe6306fe	-0.22170636
19	0x3e5301e6	0.20606193
20	0xbe1064a0	-0.14100885
21	0xbcf64038	-0.030059919
22	0x3c9188b0	0.017765373
23	0x3e4fa2da	0.20276967
24	0x3d24fc78	0.040279835
25	0xbe17a49c	-0.14808887
26	0xbd8d0628	-0.0688594
27	0x3e02e0d8	0.12781084
28	0x3d8f6f7c	0.07003686
29	0x3e4f99f2	0.20273569
30	0xbe46a188	-0.19397557
31	0x3e64aa3e	0.22330567
32	0xbe6a8918	-0.2290386
33	0x3d87b4e4	0.06626299
34	0xbe3f8f98	-0.1870712
35	0xbe1e9dde	-0.15489909
36	0xbe4679c2	-0.19382384
37	0xbca8c2b0	-0.020600647
38	0x3e25fb3c	0.1620912
39	0xbda76202	-0.081729904
40	0x3dcd2cf4	0.1001834
41	0x3c511c60	0.012763113
42	0xbbbf2c00	-0.0058341026
43	0xbe68bdae	-0.22728607
44	0xbe2a8327	-0.16651593
45	0xbe152a1e	-0.14566848
46	0xbe706058	-0.23474252
47	0x3d832328	0.0640319
48	0xbceb4c70	-0.028722972
49	0x3e5f7c9e	0.21824881
50	0xbc2c3570	-0.010510787
51	0x3e00bb32	0.1257141
52	0x3de84170	0.11340606
53	0x3dd98dc0	0.1062274
54	0xbd976474	-0.07392207
55	0xbe348f9d	-0.17632909
56	0xbe53b9b6	-0.20676312
57	0x3d75bb10	0.05999285
58	0xbc5eaba0	-0.013590723
59	0x3db9f450	0.09079802
60	0xbc47cdd0	-0.012195066
61	0xbcdbd438	-0.026834592
62	0xbc228970	-0.009920463
63	0x3cd58ef0	0.026069134
64	0x3d0600c0	0.03271556
65	0x3a9eee00	0.0012125373
66	0xbdee1410	-0.1162492
67	0xbc154d90	-0.009112731
68	0xbc825580	-0.01590991
69	0x3dffdc7c	0.12493226
70	0x3d46d950	0.04854709
71	0xbd9dfe58	-0.07714528
72	0x3e46bd5c	0.19408172
73	0x3d99f500	0.07517433
74	0xbe2f0a44	-0.1709376
75	0x3c4748c0	0.012163341
76	0xbc841dd8	-0.016127512
77	0xbddaa622	-0.106762186
78	0xbc2c6f90	-0.010524645
79	0xbd8cc2e2	-0.068731084
80	0x3dd43388	0.10361391
81	0x3e4d367a	0.20040312
82	0x3dbdc56c	0.09266171
83	0xbe045c72	-0.1292589
84	0x3da71a3c	0.08159301
85	0xbe6532cf	-0.22382663
86	0xbd9b96b4	-0.07597104
87	0xbd12c530	-0.035832584
88	0x3e5c72a4	0.21528107
89	0xbe1a746e	-0.15083477
90	0x3e09a986	0.13443574
91	0x3e016db2	0.12639502
92	0x3d0bb1e0	0.03410518
93	0x3daa3a30	0.0831188
94	0x3d95691c	0.07295439
95	0xbe502fb2	-0.20330694
96	0x3d8e0e60	0.069363356
97	0xbd93b016	-0.0721132
98	0x3cf55ef0	0.029952496
99	0x3d13b090	0.036057055
100	0xbe06184a	-0.13095203
101	0xbe21fefe	-0.15819928
102	0xbc763130	-0.015026376
103	0xbe37c3f4	-0.17945844
104	0x3d85c560	0.06531787
105	0xbd73c8a8	-0.059517533
106	0x3e4b0e60	0.19829702
107	0xbcf03a60	-0.02932471
108	0xbe099286	-0.134348
109	0x3d960dec	0.07326874
110	0x3e61d3a0	0.22053385
111	0x3d0090c8	0.031388074
112	0xbd193668	-0.0374054
113	0x3dd6c544	0.10486844
114	0x3e57e1fe	0.21082303
115	0xbdb9b914	-0.09068504
116	0xbc904c20	-0.017614424
117	0xbdfdbf8b	-0.123900495
118	0xbe3c6def	-0.18401311
119	0x3d0b55a8	0.034017235
120	0xbe38cb41	-0.18046285
121	0x3d9be28c	0.0761157
122	0x3db248d8	0.087053
123	0xbe64e9a7	-0.22354756
124	0x3e144640	0.14479923
125	0x3d95ee20	0.07320809
126	0x3d02f598	0.031972498
127	0x3e4dcd18	0.20097768

critic.2.weight f4 [128, 128]
0	0x3c5a7060	0.013332456
1	0xbd21e9a3	-0.039529454
2	0xbcc83d94	-0.024443425
3	0xbd8e23e1	-0.06940437
4	0xbd3cb0ac	-0.046066925
5	0x3d3c702a	0.046005405
6	0x3d34c836	0.04413625
7	0x3cb19c7c	0.021681063
8	0x3d1967b2	0.037452407
9	0xbd2c77ae	-0.042106323
10	0xbd5dc718	-0.05414495
11	0xbbc5db30	-0.006038092
12	0x3c963dd0	0.018340021
13	0x3d91f257	0.07126301
14	0x3d433ab2	0.047663398
15	0xbba20900	-0.0049449205
16	0xbc6ec8f8	-0.014574282
17	0xbda91f38	-0.08257908
18	0x3be929d0	0.00711558
19	0xbd8b304a	-0.0679632
20	0x3d69a99a	0.05704651
21	0x3ca17044	0.019706853
22	0x3c460298	0.012085579
23	0x3d467886	0.048454784
24	0x3dab5a75	0.08366863
25	0xbd0a8df5	-0.033826787
26	0xbd4fdaab	-0.050745647
27	0xbbc5e3e0	-0.0060391277
28	0xbbc20a50	-0.0059216395
29	0x3b9c36c0	0.004767269
30	0xbd2df66a	-0.042471327
31	0x3d5b1232	0.05348415
32	0x3d24702a	0.04014603
33	0xbdada502	-0.08478738
34	0x3c968000	0.018371582
35	0x3d075d78	0.033048123
36	0xbd660db5	-0.056165416
37	0xbd40cdd5	-0.047071297
38	0x3d0815e4	0.033224
39	0xbd1e7fb3	-0.038696002
40	0x3d7885a2	0.060674317
41	0x3d355d32	0.04427833
42	0xbd3987c4	-0.04529549
43	0x3d8eb555	0.0696818
44	0xbd25d760	-0.0404886
45	0xbd84f0e4	-0.06491259
46	0xbc7e4a60	-0.015520662
47	0xbd336022	-0.04379285
48	0x3b0b3be0	0.0021245405
49	0xbd6d9fa2	-0.058013566
50	0x3d83d6cd	0.064374544
51	0x3c1ab0f8	0.009441607
52	0x3d1dd016	0.038528524
53	0xbce1631e	-0.027513083
54	0x3a9b31c0	0.0011840388
55	0xbcdabac4	-0.026700385
56	0xbd81bf19	-0.06335277
57	0x3d31a2da	0.043368198
58	0x3da7ad7d	0.08187387
59	0x3b212980	0.0024591386
60	0xbcdda40a	-0.027055759
61	0xbd9d526d	-0.07681737
62	0xbccad8d8	-0.024761602
63	0xba035e80	-0.0005011335
64	0xbd47e32a	-0.048800625
65	0x3d204ede	0.039137714
66	0xbbe0ad20	-0.0068565756
67	0xbd75d402	-0.06001664
68	0xbd36a9d5	-0.04459556
69	0x3da2e875	0.07954494
70	0xbda06d31	-0.078333266
71	0xbd513b37	-0.051081862
72	0xbd060765	-0.032721896
73	0x3d0b7bbc	0.03405355
74	0xbcbc8610	-0.023013145
75	0xbcb6ea34	-0.022328474
76	0x3d98164f	0.0742613
77	0x3d2d466e	0.042303495
78	0x3d638b7e	0.055552952
79	0x3c6c4650	0.014421061
80	0x3b095440	0.0020954758
81	0xbd2b030c	-0.041750953
82	0xbd2efd56	-0.04272207
83	0xbd96560e	-0.073406324
84	0xbc045ad8	-0.008078299
85	0xbc8f71d4	-0.017510332
86	0xbd893e46	-0.06701331
87	0xbc8ae388	-0.016954198
88	0x3d5b75e6	0.053579234
89	0x3d0f4aae	0.03498333
90	0xbd8ee548	-0.06977326
91	0xbd9ed079	-0.07754607
92	0xbd2c576e	-0.042075567
93	0x3cf1be0c	0.029509567
94	0xbd095595	-0.033528883
95	0x3b113500	0.0022156835
96	0x3ce3e924	0.027821131
97	0xbd89cb86	-0.06728272
98	0xbbf86fd0	-0.0075816885
99	0x3d809567	0.06278496
100	0xbd73caab	-0.05951945
101	0xbd62f992	-0.05541379
102	0xbd8098dc	-0.062791556
103	0x3d0b1d5e	0.033963554
104	0xbdaf7bab	-0.0856851
105	0x3da38f9b	0.07986375
106	0xbd199394	-0.037494257
107	0xbd90d47b	-0.070717774
108	0x3da67eb3	0.08129635
109	0x3d52e362	0.05148638
110	0xbd829cd6	-0.0637757
111	0xbcfd1354	-0.030893005
112	0xbd7becb0	-0.06150502
113	0x3c643dd0	0.013930753
114	0xbc7cf6f8	-0.015439741
115	0xbd1fab39	-0.03898165
116	0xbd98fcdc	-0.07470104
117	0x3cabbd4c	0.020964287
118	0x3d59ad0a	0.05314354
119	0xbc68a8d8	-0.014200412
120	0xbd61f046	-0.055160783
121	0x3d224322	0.039614804
122	0x3d4e9c3a	0.050441958
123	0xbd033b32	-0.032038875
124	0x3d4df396	0.05028113
125	0x3d8e12dd	0.06937192
126	0x3d88cfbd	0.06680248
127	0x3d366f02	0.04453946
128	0xbca1d294	-0.019753732
129	0xbd2cc6cd	-0.04218178
130	0xbcb14c58	-0.021642849
131	0xbd3cfcd5	-0.046139557
132	0x3c482a00	0.012217045
133	0x3d2c41ba	0.04205487
134	0x3b47b7c0	0.0030474514
135	0x3b34bd20	0.0027578548
136	0x3c737010	0.014858261
137	0x3cf21910	0.029552966
138	0x3d307eee	0.0430898
139	0xbcfc74ac	-0.030817352
140	0x3cbcc8b0	0.023044914
141	0xbd91d0de	-0.071199164
142	0x3bec0250	0.007202424
143	0x3d1e5642	0.03865648
144	0xbd4bf422	-0.04979337
145	0xbc4cdb68	-0.012503482
146	0x3d92e0b3	0.07171764
147	0xbd0fef09	-0.03514007
148	0xbd370991	-0.044686858
149	0xbd2c415e	-0.042054527
150	0xbc9980f4	-0.018738247
151	0xbb122f80	-0.0022306144
152	0x3db467d3	0.088088654
153	0x3db4be99	0.08825416
154	0x3d8d20fd	0.06891058
155	0x3da20bed	0.07912431
156	0x3d1bd70e	0.03804689
157	0xbcf3c83a	-0.029758561
158	0x3d19fa86	0.037592433
159	0x3d037208	0.03209117
160	0xbda9b045	-0.08285574
161	0xbd1cfa29	-0.03832451
162	0xbd8e35eb	-0.06943878
163	0xbd8b76a5	-0.06809739
164	0x3ca5bb40	0.02023089
165	0x3c9277dc	0.017879419
166	0x3d96c6bf	0.073621266
167	0xbd731204	-0.059343353
168	0xbccee598	-0.025255963
169	0x3d9aff81	0.07568265
170	0xbc1b3928	-0.009474076
171	0x3d9ed991	0.07756341
172	0x3c2af268	0.010433771
173	0xbda104f7	-0.07862275
174	0x3d4bf226	0.049791478
175	0x3d444f76	0.047927342
176	0xbd4b3ea1	-0.049620274
177	0xbd3a6582	-0.04550696
178	0xbd56ce04	-0.052442566
179	0xbd526822	-0.05136884
180	0xbaf34680	-0.0018560439
181	0xbd4c0eb5	-0.049818713
182	0xbd14a6d4	-0.036291912
183	0x3cdbb04c	0.026817463
184	0xbcd25074	-0.025673129
185	0x3cff7f38	0.031188592
186	0x3b94a330	0.004536055
187	0x3cc3ca0c	0.023900054
188	0x3d8ca9e1	0.06868339
189	0x3d6deb7a	0.058085896
190	0xbdb02c8a	-0.08602245
191	0x3d906f77	0.0705251
192	0x3d9d5a3f	0.07683229
193	0x3d101b0e	0.03518205
194	0xbd2023f1	-0.039096776
195	0xbd1df21a	-0.038560964
196	0xbd2fb2ff	-0.042895313
197	0x3d2a2756	0.04154142
198	0x3cb29f68	0.021804526
199	0x3d154ac2	0.036448248
200	0x3c402180	0.011726737
201	0x3d6600d6	0.05615314
202	0x3daa840f	0.083259694
203	0xbcbca918	-0.023029849
204	0xbc0c9030	-0.008579299
205	0xbd014dc2	-0.031568296
206	0x3be9b630	0.007132314
207	0xbd8a60b6	-0.067567274
208	0x3d32e4a6	0.043675087
209	0x3c3b7ef0	0.0114438385
210	0x3c81fc00	0.015867233
211	0xbd8d67e6	-0.06904583
212	0xbd754f88	-0.0598903
213	0x3ca09f14	0.019607104
214	0xbd8f6e0b	-0.07003411
215	0x3cae847c	0.021303408
216	0xbdae3b39	-0.085073896
217	0xbd259488	-0.040424854
218	0x3c1148e0	0.008867472
219	0x3db498ad	0.08818183
220	0xbd1a35dc	-0.03764902
221	0x3d1ad7aa	0.03780333
222	0x3d65b416	0.056079946
223	0x3ce31fac	0.027725063
224	0xbd48cd67	-0.049024012
225	0xbc46a058	-0.01212319
226	0xbcdec6f8	-0.027194485
227	0x3c8c21c4	0.017105944
228	0xbcc70ffc	-0.024299614
229	0xbcb147c0	-0.021640658
230	0xbcab9b48	-0.020948067
231	0xbd047ab8	-0.032343596
232	0x3d5dd672	0.05415959
233	0xbcf50574	-0.029909827
234	0x3c0d3c30	0.008620307
235	0xbbdc9b60	-0.0067323893
236	0xbd5ffe04	-0.054685608
237	0xbdb34c96	-0.08754842
238	0xbd4c3c97	-0.04986247
239	0x3d9afc5f	0.07567667
240	0x3d6219fa	0.055200554
241	0x3d30e9e2	0.043191798
242	0xbd224313	-0.03961475
243	0xbc16c2f0	-0.00920175
244	0x3ba35c90	0.0049853995
245	0x3d332942	0.04374052
246	0xbcff6580	-0.031176329
247	0xbd48ef4a	-0.04905633
248	0x3d5ebbc2	0.05437828
249	0x3ce76820	0.028247893
250	0x3d2558aa	0.04036776
251	0xbce41c8c	-0.027845643
252	0x3d5a0756	0.053229652
253	0x3d2a7ef6	0.041624986
254	0x3d17205e	0.036896102
255	0x3d90f2ff	0.07077598

critic.2.bias f4 [128]
0	0xbd866cc8	-0.06563717
1	0xbc494f30	-0.012286946
2	0xbc8f2700	-0.017474651
3	0xbda36b7b	-0.07979485
4	0x3d95a893	0.073075436
5	0xbd49d2e9	-0.049273405
6	0xbdaab0ca	-0.08334501
7	0x3d1c4e86	0.038160823
8	0x3d8e1e8b	0.06939419
9	0x3d4b48c2	0.049629934
10	0xbdae73ce	-0.08518182
11	0x3cefbd6c	0.029265128
12	0xbda1b602	-0.07896043
13	0xbce3f47c	-0.02782654
14	0x3d9b69d3	0.07588544
15	0xbca72868	-0.02040501
16	0x3c9ea738	0.019366845
17	0xbcf4c2ec	-0.029878102
18	0x3d3ffeaa	0.046873726
19	0x3d784b3a	0.060618617
20	0xbd29e431	-0.041477386
21	0x3cb022e0	0.021501005
22	0xbd897afa	-0.06712909
23	0x3d544316	0.05182179
24	0x3d06a922	0.03287614
25	0x3cd20a54	0.02563969
26	0xbd4b2fec	-0.04960625
27	0xbc960e58	-0.018317387
28	0xbd9ce38a	-0.07660587
29	0xbcbba360	-0.022905052
30	0x3da34cb3	0.079736136
31	0x3d50eeee	0.05100911
32	0x3d286aaa	0.041117348
33	0x39f99800	0.0004760623
34	0xbdacab7e	-0.08431147
35	0xbd917e75	-0.07104198
36	0xbdb4db34	-0.08830872
37	0xbd85f637	-0.065411024
38	0x3c22be98	0.009933136
39	0xbd50a226	-0.050935887
40	0xbd8e315a	-0.06943007
41	0xbcf4c3f4	-0.029878594
42	0xbd9184a9	-0.07105381
43	0x3b3a8e00	0.0028465986
44	0x3c202478	0.00977432
45	0x3d0c317e	0.034226887
46	0xbc54ffe8	-0.013000466
47	0xbc5bdd38	-0.013419442
48	0xbd9eb239	-0.07748837
49	0x3d4c035a	0.049807884
50	0x3d32b53a	0.043629862
51	0x3d9d5e61	0.07684017
52	0x3d478f1e	0.04872047
53	0xbc448a50	-0.011995867
54	0xbda58362	-0.080817
55	0x3d362f1a	0.044478513
56	0xbbea7120	-0.007154599
57	0xbd025fba	-0.031829573
58	0xbc0b8890	-0.008516446
59	0x3d9bd5fd	0.076091744
60	0x3d899031	0.067169555
61	0x3d8af30f	0.06784641
62	0xbcca9b94	-0.024732389
63	0x3cf482d8	0.029847547
64	0xbb77cb20	-0.003781028
65	0x3daa4ec7	0.08315807
66	0xbd838a89	-0.06422908
67	0x3daf7cab	0.085687004
68	0xbda9cf8e	-0.08291541
69	0x3d5c0772	0.053718038
70	0x3cd9e2e0	0.02659744
71	0xbcbe2c4c	-0.023214482
72	0xbd24b340	-0.04021001
73	0x3cb5f190	0.022209913
74	0xbc8e87e8	-0.01739879
75	0x3d25b2a2	0.04045356
76	0xbd91ea10	-0.07124722
77	0x3c7bc8a0	0.015367657
78	0x3d013dba	0.031553008
79	0x3d0946bc	0.033514723
80	0x3da1985f	0.078903906
81	0x3d82334d	0.06357441
82	0x3c822cf4	0.015890576
83	0xbd7bdb00	-0.06148815
84	0x3d726f9e	0.059188478
85	0xbccefa40	-0.025265813
86	0x3b5cfb40	0.0033719093
87	0xbd39532d	-0.04524534
88	0xbc907b50	-0.017636925
89	0x3d13bf14	0.0360709
90	0xbd25f461	-0.04051626
91	0xbc4daae8	-0.012552954
92	0x3d9b78ad	0.075913765
93	0xbd4d2b62	-0.0500902
94	0xbdb35ee1	-0.08758331
95	0x3d632e36	0.055463992
96	0x3da52577	0.080637865
97	0xbd600e48	-0.05470112
98	0xbd97d31a	-0.07413311
99	0x3c5aef18	0.013362668
100	0xbd9bb54a	-0.076029375
101	0x3ac85780	0.0015284866
102	0xbc10ea70	-0.008844957
103	0xbbdb09c0	-0.006684512
104	0x3d734aca	0.059397496
105	0xbda98eb6	-0.08279173
106	0xbda9df81	-0.08294583
107	0xbd97cca8	-0.07412082
108	0x3d0560b2	0.03256292
109	0xbd9ea10e	-0.077455625
110	0x3d422356	0.04739698
111	0x3ab9b1c0	0.0014167354
112	0xbdae202c	-0.0850223
113	0x3cd1e988	0.025624052
114	0x3d9c7c1f	0.07640862
115	0xbd006883	-0.03134967
116	0x3da6a3b3	0.08136692
117	0xbd7b52c3	-0.061358225
118	0x3ca7b74c	0.020473145
119	0xbd404973	-0.046945047
120	0x3d50d0c2	0.050980337
121	0xbc4d40a8	-0.012527622
122	0x3d22e162	0.039765723
123	0x3da36b37	0.07979434
124	0xbd5e2776	-0.05423685
125	0xbce7dac4	-0.028302558
126	0x3db3ee67	0.08785706
127	0xbb9f8940	-0.0048686564

critic.4.weight f4 [1, 128]
0	0xbd8e10de	-0.06936811
1	0x3d891129	0.06692726
2	0x3d1900ce	0.037354283
3	0xbdb02b42	-0.08602001
4	0xbd12638e	-0.035739474
5	0x3da356db	0.07975551
6	0xbd9e14a7	-0.07718783
7	0x3c8e78b4	0.01739154
8	0xbc947de8	-0.018126443
9	0xbd8755bc	-0.066081494
10	0x3d0dead8	0.034647793
11	0xbd5284a7	-0.05139604
12	0xba87f640	-0.0010373071
13	0xbdb145e3	-0.08655908
14	0xbd9848b9	-0.07435746
15	0xbd98c03e	-0.07458542
16	0xbb57c6e0	-0.0032924935
17	0x3cb19800	0.021678925
18	0xbd9554d0	-0.07291567
19	0x3d4fa89a	0.0506979
20	0xbc9f26fc	-0.019427769
21	0xbd4ee3d2	-0.050510235
22	0x3da06655	0.07832018
23	0xbb1cef20	-0.002394624
24	0x3d8e8623	0.06959178
25	0xbcc34354	-0.023835815
26	0xbd8c9532	-0.06864394
27	0x3d97844f	0.07398283
28	0x3d0a1a94	0.033716753
29	0x3da70ef5	0.0815715
30	0xbc33d950	-0.010977104
31	0xbd062dc7	-0.0327585
32	0x3d4a573e	0.049399607
33	0xbc9bed88	-0.019034162
34	0x3bf7cfe0	0.0075626224
35	0xbd996ba3	-0.07491233
36	0xbd7fe65f	-0.06247556
37	0xbda3e50b	-0.08002671
38	0x3ce31ac8	0.027722731
39	0xbdb14416	-0.086555645
40	0xbcebd7ac	-0.028789364
41	0xbc290c40	-0.010317862
42	0x3d1c9f8e	0.0382381
43	0x3b1494a0	0.0022671595
44	0x3d0f3bee	0.034969263
45	0x3daba095	0.08380238
46	0xbae29500	-0.0017286837
47	0x3da2de53	0.07952561
48	0xbc9a6f2c	-0.018851839
49	0x3d603e4e	0.05474692
50	0xbd9fcd0e	-0.07802783
51	0xbd25c8f5	-0.04047485
52	0xbd761f00	-0.060088158
53	0xbd6c6670	-0.05771488
54	0xbc5e5510	-0.013570085
55	0xbcb46d4c	-0.022024773
56	0x3d9af259	0.075657554
57	0xbc1e3268	-0.0096555725
58	0xbd8d82df	-0.06909727
59	0xbbf5fd10	-0.007506974
60	0x3cf25f90	0.029586583
61	0xbd859d1c	-0.06524107
62	0xbda02a9d	-0.07820628
63	0x3da5ec11	0.08101667
64	0xbd7dd3b8	-0.06196949
65	0x3d466026	0.048431538
66	0xbd9cfc1b	-0.07665273
67	0x3991ba00	0.00027795136
68	0x3d849339	0.06473393
69	0xbda1ad40	-0.07894373
70	0x3d9d2bab	0.07674345
71	0xbd6aa46f	-0.057285722
72	0x3d48db2e	0.04903715
73	0x3d855a2f	0.06511342
74	0xbd3e0df1	-0.046400014
75	0x3d8aa561	0.06769825
76	0x3d1e6e26	0.038679264
77	0xbc95b454	-0.018274464
78	0xbc3eb800	-0.011640549
79	0x3d7a00ce	0.061035924
80	0xbd98e080	-0.07464695
81	0xbb826ed0	-0.003980495
82	0x3d39853e	0.045293085
83	0xbb6d8520	-0.0036242679
84	0xbd9c6012	-0.076355115
85	0x3c834bf8	0.016027436
86	0xbdacdfb2	-0.08441104
87	0xbd40d0bd	-0.04707407
88	0x3d3f9466	0.046772383
89	0xbda77021	-0.08175684
90	0x3c62f0d0	0.0138513595
91	0xbc5b5aa8	-0.013388313
92	0x3bb59ca0	0.005542353
93	0x3d5ad13a	0.05342219
94	0xbd2edded	-0.042692114
95	0xbd84fc2b	-0.0649341
96	0xbd4daa71	-0.050211374
97	0xba913a00	-0.0011079907
98	0xbc8fd878	-0.017559275
99	0x3d93de51	0.07220138
100	0x3c7f37e0	0.0155772865
101	0xbd8323ed	-0.06403337
102	0xbd4df592	-0.050283022
103	0xbd6bb88f	-0.057549056
104	0xbdabc50b	-0.08387192
105	0x3d4304ea	0.04761211
106	0x3d7691d2	0.06019766
107	0x3d6d5596	0.05794295
108	0xbd87fc86	-0.06639962
109	0xbd89add5	-0.06722609
110	0xbc701440	-0.0146532655
111	0xbd19974a	-0.037497796
112	0x3d8ff463	0.07029035
113	0x3cd688b8	0.02618824
114	0xbd9da2d4	-0.076970726
115	0xbc5ea920	-0.013590127
116	0x3d538702	0.051642425
117	0xbd904857	-0.07045048
118	0xbc8d27c8	-0.017230883
119	0x3b9bf130	0.0047589764
120	0xbd9f5ae1	-0.07781006
121	0xbc8e1e7c	-0.01734852
122	0xbd701e46	-0.05862262
123	0x3d352752	0.044226952
124	0xbd2fa67d	-0.042883385
125	0x3cf7c1f4	0.030243851
126	0xbda592ed	-0.080846645
127	0xbd2adbd9	-0.04171357
