walker_small_saved_models/initial_critic_20241125_215645.pth (torch, 78766 bytes, 5 tensors)

critic.0.weight f4 [128, 17]
000000 70 b3 91 3d 2a 17 72 be fc 0d 9d 3d 60 64 3d 3c
       0.07114303 -0.23641649 0.07668683 0.011559576
000010 c0 77 06 3d 80 e6 3b bb c0 01 1a 3c 24 f0 d4 bd
       0.032829046 -0.0028671324 0.009399831 -0.10397366
000020 9c c6 08 3e 58 b8 b6 bd 6c 05 4f 3e e8 85 23 3d
       0.13357013 -0.089218795 0.20216912 0.039922625
000030 73 7f 25 be 90 ea 1e bc fb 87 6a be 80 d3 17 be
       -0.161619 -0.009699479 -0.22903435 -0.14826775
000040 44 10 5a be 0c df f2 3d 20 8c b5 3c a8 4d 61 3d
       -0.21295267 0.11858949 0.022161543 0.0550057
000050 64 8e da bd 4c 87 03 3e ba 8c 46 3e 50 fc d4 3d
       -0.1067169 0.1284458 0.1938962 0.10399687
000060 90 5d f9 bc 90 22 c1 3d 58 ec de bc c0 2c 9e bb
       -0.030440122 0.094304204 -0.027212307 -0.004827112
000070 4c 69 33 bd e4 29 a7 3d 7c 09 46 3e 22 a5 f2 bd
       -0.04380159 0.08162287 0.19339556 -0.11847903
000080 ee d6 5d 3e b0 a0 b2 3c f4 f7 88 3d 00 40 20 be
       0.2166402 0.021805137 0.06687918 -0.15649414
000090 34 1d a4 3d 93 d6 65 be 80 60 2e 3e 14 db 62 3e
       0.080133826 -0.22445135 0.17029 0.22153884
0000a0 90 c9 67 3e 6c 73 0a 3e 04 97 41 be 44 38 ef 3d
       0.22635484 0.13520592 -0.18905264 0.11680654
0000b0 a0 d8 1b 3e 1c f4 58 be 0a 0b 25 be a8 bf cd 3d
       0.15219355 -0.2118687 -0.16117492 0.10046321
0000c0 20 bc 29 3c d0 3f 45 be 90 24 bc 3c a4 25 68 3e
       0.010359794 -0.19262624 0.022966653 0.22670609
0000d0 d8 b1 9d 3d ac dc 50 3e cc 57 f4 3d d9 9e 6e be
       0.07699937 0.2039668 0.119308084 -0.23302783
0000e0 10 2f c3 bc 34 d2 af bd 1f 07 4c be 0b c3 07 be
       -0.023826152 -0.08585015 -0.19924591 -0.13257997
0000f0 64 4c 72 3e c2 97 88 bd ba 94 16 3e 01 4c 0b be
       0.23661953 -0.066695705 0.14705172 -0.13603212
000100 86 90 51 3e fa 3f 93 bd 14 af f3 3d dc 12 ab 3d
       0.20465288 -0.07189937 0.11898628 0.083532065
000110 c2 f1 26 3e 0c 65 22 3e 58 ac cf bc 84 62 5f 3e
       0.16303161 0.15858859 -0.025350735 0.21814924
000120 40 ea de 3c 51 d0 49 be e0 24 ff 3d d0 27 a0 3c
       0.027211308 -0.19708373 0.12458205 0.019550234
000130 9a 3e 02 3e 10 5e 94 bc b0 3b 19 3d 5c a1 3c be
       0.12719193 -0.018111259 0.037410438 -0.18420929
000140 b0 93 da 3c 20 a0 e0 3c b8 29 4a 3d f2 2c 1f be
       0.026681751 0.027420104 0.049356192 -0.15544489
000150 7a 31 2e 3e c4 28 bd bd 30 1b 68 bc 64 7f 12 3e
       0.17011061 -0.09236291 -0.014166638 0.14306408
000160 c4 c9 d9 3d f4 ac ec 3d a8 fa 18 3d 18 9b df 3d
       0.10634187 0.11556426 0.03734842 0.10918254
000170 54 a2 fd 3d 5c 37 e0 3d 48 76 09 bd 74 69 12 bd
       0.12384477 0.10948059 -0.033560067 -0.0357451
000180 f2 96 6d 3e 06 63 3e 3e 70 1f 5c 3e 70 91 74 3e
       0.23202112 0.18592462 0.21496367 0.23883605
000190 0a 72 85 bd 50 51 a7 bc 74 ab a3 bd 16 45 12 3e
       -0.06515892 -0.020424515 -0.079916865 0.14284167
0001a0 6e 4d 3f be c0 ef d6 3c 14 a3 23 3e d8 b9 6c be
       -0.18681881 0.026237369 0.15980178 -0.23117769
0001b0 20 47 f4 3d c0 54 ee 3b 81 5e 3b be c6 18 e7 bd
       0.119276285 0.0072732866 -0.18297769 -0.11284022
0001c0 11 9a fa bd bc e0 6d 3e 0f b0 73 be da a5 5f be
       -0.12236417 0.2323026 -0.2379763 -0.21840611
0001d0 20 f4 e0 bd ec 6d 3f 3e 24 46 36 be 68 0c 1f 3d
       -0.10984063 0.18694276 -0.17800194 0.03883019
0001e0 90 27 c8 3d cc bf 7f bd 5c 83 a4 3d 5c a9 dd 3d
       0.09773171 -0.06243877 0.08032867 0.10823318
0001f0 10 0f b2 bc c0 cc 50 3d 90 b9 20 bd 40 11 85 3d
       -0.021735698 0.050976515 -0.039239466 0.06497431
000200 aa e8 e5 bd f4 51 a4 3d 60 a2 ec bb 73 a0 5b be
       -0.11226018 0.08023444 -0.007221505 -0.21447925
000210 1c 4d d1 3d 6e c2 3a 3e ac 4b 3f bd d6 e6 1d 3e
       0.102197856 0.18238232 -0.046703026 0.15420088
000220 53 ac 42 be 2e 94 41 3e f0 06 ea 3c 10 18 20 3e
       -0.19011049 0.18904182 0.028567761 0.15634179
000230 07 15 5f be a4 2d a8 3d 36 57 18 be dc 62 33 be
       -0.21785365 0.0821183 -0.14877018 -0.1751818
000240 cd 55 59 be 44 01 62 3e e5 3e 3c be a2 e9 51 be
       -0.21224137 0.22070795 -0.18383367 -0.2049928
000250 66 d5 bb bd 30 33 e4 bd 18 07 41 be 04 1a 3e be
       -0.09171562 -0.11142576 -0.18850362 -0.18564612
000260 ef ac 1e be 8e 88 60 3e 78 38 6a 3e b0 7a 52 3e
       -0.15495656 0.21927091 0.22873104 0.20554614
000270 80 d0 cd 3c 98 f5 18 be 40 70 53 3c 00 b9 a8 3d
       0.025123835 -0.14937437 0.01290518 0.08238411
000280 c3 d0 07 be fa 39 c9 bd 42 61 fd bd a8 0b 4d 3e
       -0.1326323 -0.09825511 -0.12372066 0.20023978
000290 cc 81 56 bd 50 14 8a 3d d2 f2 4c 3e c8 00 d7 3d
       -0.052369878 0.067421556 0.20014504 0.10498196
0002a0 60 35 bb bd e0 ff ae 3c 99 15 5d be d8 31 d7 3d
       -0.0914104 0.021362245 -0.2159027 0.10507554
0002b0 22 0c 63 3e 0c 0a 53 3e c0 3f 06 bd ee cd fd bd
       0.22172597 0.20609301 -0.03277564 -0.123927936
0002c0 88 d9 63 3e 3c 3e 28 be 4e ce b3 bd dc 36 2b bd
       0.2225095 -0.1642999 -0.08779584 -0.041800365
0002d0 84 7b 80 3d c3 94 3e be fa 6d 3a be 14 88 73 be
       0.06273559 -0.18611436 -0.18206015 -0.23782378
0002e0 7c 7e 60 be 20 e8 37 3e be e9 4b 3e 84 23 53 3e
       -0.2192325 0.17959642 0.19913384 0.20619017
0002f0 f6 33 0a 3e 14 6a cb bd 40 c3 1c 3c f8 ac 9f bc
       0.13496384 -0.09932342 0.009568036 -0.019491658
000300 90 b3 04 be 50 23 0d bd 6c 3e 4c 3e b8 6b 72 3d
       -0.12959123 -0.034457505 0.19945687 0.05918476
000310 e0 e9 82 3b c0 e4 8e bc ac 6e f7 3d a9 41 6a be
       0.003995165 -0.01744306 0.12081656 -0.2287661
000320 80 21 ad 3d 3a 4b fa bd 3e 9a da bd 80 cc 12 3b
       0.08453655 -0.122213796 -0.106739506 0.0022399724
000330 1e 5d 0f be 7c a7 5e bd c0 76 b7 3b cb 14 23 be
       -0.14000365 -0.054358944 0.005598873 -0.159259
000340 71 92 02 be 9c 12 37 3e 5a e7 21 3e f5 cd 77 be
       -0.12751175 0.17878193 0.1581091 -0.2419966
000350 d2 44 0b be a2 4e 52 3e 00 02 2e 3c 1e 18 6b 3e
       -0.13600472 0.20537809 0.010620594 0.22958419
000360 98 b0 87 3d f0 08 93 3c c8 09 1a 3d 08 22 31 3e
       0.066254795 0.017948598 0.037606984 0.17298138
000370 98 01 ae bc 4a 86 70 3e 32 8f 61 3e e4 63 af 3d
       -0.021240994 0.23488727 0.22027281 0.085639745
000380 f8 5a 8a 3d 2c c1 93 3d b0 26 1d bc f6 60 72 3e
       0.06755632 0.07214579 -0.009591743 0.236698
000390 e1 41 6f be 3c f9 71 bd 90 58 9a 3c be 75 56 3e
       -0.23364975 -0.05907558 0.018841058 0.20943353
0003a0 46 e1 6e 3e c4 e9 2a be 9d 23 35 be 22 19 07 be
       0.23328122 -0.16690737 -0.17689367 -0.13193181
0003b0 38 f5 aa bd 6a ce 2a 3e 62 80 ad bd 8e d3 61 3e
       -0.08347553 0.16680303 -0.08471753 0.22053358
0003c0 fc af be 3d c0 a4 93 3b 50 6e 16 3e e8 46 96 3d
       0.0931091 0.0045057237 0.14690518 0.07337743
0003d0 5d 60 51 be d2 b1 1d 3e 80 b4 cd ba 8d da 48 be
       -0.20446916 0.15399864 -0.0015694052 -0.1961462
0003e0 0c 30 41 3e 03 af 28 be 7a 77 16 be 00 8e 2c 3d
       0.18865985 -0.16473012 -0.14694014 0.04212761
0003f0 86 15 e9 bd f0 45 76 3e 26 f4 01 3e 6c 38 70 be
       -0.113810584 0.24050117 0.12690791 -0.23459023

critic.0.bias f4 [128]
000000 80 19 4e 3c 6c 9d 74 bd 94 a0 14 3e c0 a3 d1 bc
       0.012579322 -0.05972044 0.1451438 -0.025590777
000010 7e 2b 9e bd 40 86 02 3e 00 59 3f 3d 80 14 ec bb
       -0.07723139 0.12746525 0.046715736 -0.007204592
000020 88 83 d7 bd aa 12 04 3e c0 81 58 3e bf 23 1d be
       -0.105231345 0.12897745 0.21143246 -0.15345667
000030 be 50 15 3e 80 f2 dd 3d aa f9 30 3e 3c ae 2a be
       0.14581582 0.10837269 0.1728274 -0.16668028
000040 b8 c2 59 bd e2 1d 06 be fa ee ce bd 64 88 63 3e
       -0.053164214 -0.13097337 -0.10104175 0.22219998
000050 58 76 3a 3e 0c a8 2d bd ae 49 ce bd 16 f9 32 be
       0.18209207 -0.04239659 -0.10072647 -0.17477831
000060 f4 3c 3b 3e 5b cd 0c be ea 5c f7 bd 80 1f 2a 3e
       0.1828497 -0.13750212 -0.12078269 0.16613579
000070 67 b5 77 be 42 f4 08 3e 04 13 21 3e be 08 6d 3e
       -0.24190293 0.13374427 0.1572991 0.23147866
000080 10 dd 4a bc 6c d2 32 be 7c 84 2f bd 70 61 c6 3c
       -0.012381807 -0.17463082 -0.042850956 0.024216384
000090 80 03 3a 3b 88 47 1b 3e 64 56 54 3e b6 96 13 3e
       0.0028383434 0.15164006 0.2073608 0.1441296
0000a0 e0 0c d0 3d 68 8f 1c be 18 9a 41 3d a8 64 8f 3d
       0.10158706 -0.1528908 0.047266096 0.070016205
0000b0 04 ea 10 be 00 eb f0 3c 6c 05 4a 3e 14 83 63 be
       -0.1415177 0.029408932 0.19728631 -0.22217971
0000c0 66 dc c8 bd 58 48 6f 3e d0 79 e2 3c bc 03 e2 bd
       -0.09807663 0.2336744 0.027645975 -0.110358685
0000d0 80 0b 89 3b 54 04 51 be ee d5 08 be e4 2f 81 3d
       0.004182279 -0.20411807 -0.13362858 0.063079625
0000e0 d6 d3 04 3e 8a aa 37 be fc 80 c3 3d ac c5 57 be
       0.12971434 -0.17936149 0.09546086 -0.210715
0000f0 86 e8 9c bd 98 b6 b7 3d 84 eb 5c bd 3c f3 5b 3e
       -0.07661538 0.08970374 -0.053935543 0.21479505
000100 f0 d0 2c be 9c 85 32 be a0 e7 08 3e ee e5 58 3e
       -0.16876578 -0.1743378 0.13369608 0.21181461
000110 60 55 1e bc bc a1 3d be fe ba 3d 3e bc cd 50 3e
       -0.00966391 -0.18518728 0.18528363 0.20390981
000120 54 01 1b be ea aa 08 3e 1a 96 49 3e 28 7e c4 3d
       -0.15137225 0.13346449 0.19686165 0.09594375
000130 c4 4f 27 bd 0e 7a 5c 3e 2c ba 39 bd 1c 16 64 be
       -0.040847555 0.21530935 -0.045343563 -0.22274059
000140 0c 7d b3 3d e4 9b 5f bd b8 82 a9 bc c4 41 cf 3d
       0.08764085 -0.05459203 -0.020692214 0.10119966
000150 6e 4d 45 3e 38 cb 42 3d d0 fc b3 3c b8 b0 6c 3d
       0.19267818 0.047557086 0.021971136 0.05778572
000160 20 ad 34 3c 28 4e 70 3d 80 78 21 be 14 ef 4e 3e
       0.011027604 0.058668286 -0.15768623 0.20208389
000170 44 d8 53 3e d4 90 e8 3d 7c 38 da 3d 28 65 15 be
       0.20687968 0.11355749 0.10655305 -0.1458937
000180 18 75 51 be 12 fb 71 be d4 79 3a bd 00 e7 3c 3c
       -0.20454824 -0.23630932 -0.04552634 0.011529684
000190 4b 0f 63 be 56 e5 49 3e 70 8f 7c 3d 7b ac f3 bd
       -0.22173803 0.19716391 0.06166023 -0.118981324
0001a0 0a f3 49 be b8 07 00 3e 20 b9 15 3e 00 ee 37 3e
       -0.19721618 0.12502944 0.14621401 0.17961884
0001b0 ad 3f 32 be e4 f6 cc 3d f8 3c 0c be 00 30 1c 3b
       -0.17407103 0.10008028 -0.13695133 0.0023832321
0001c0 da 5a 0e be 94 7f 80 bd f2 ba b0 bd 3c 39 92 3d
       -0.13901845 -0.062743336 -0.08629407 0.07139823
0001d0 e2 3b 46 be b4 a9 b6 bd 30 66 74 bd 34 85 20 be
       -0.19358781 -0.08919087 -0.059667766 -0.15675813
0001e0 48 b9 81 3d 00 28 9d 3c c6 06 55 be e2 93 21 be
       0.06334168 0.019184113 -0.20803365 -0.15779069
0001f0 8c 90 6e be 0c c1 04 3e 08 1d 6d 3e 40 6e 88 3d
       -0.23297328 0.12964267 0.23155606 0.066616535

critic.2.weight f4 [128, 128]
000000 02 f6 38 3d c0 5e 66 bc 50 2d 15 bd 7d 43 80 3d
       0.045156486 -0.014060676 -0.036420166 0.06262872
000010 34 76 c6 3c 16 d0 46 bd 60 1a d1 3b 30 f0 e8 3b
       0.024226286 -0.04853829 0.006381318 0.0071087107
000020 be 14 71 bd e0 e0 f5 3b 00 7d 36 ba f0 65 81 bb
       -0.058857672 0.007503614 -0.00069613755 -0.0039489195
000030 bd a4 8f bd db 95 8d 3d df f3 91 bd b6 b2 0b 3d
       -0.07013843 0.06913348 -0.07126593 0.03410598
000040 f3 96 af 3d b0 0c 58 3c 9a 12 07 3d a7 17 9f 3d
       0.08573713 0.013186619 0.032976724 0.07768183
000050 30 d1 85 3b 20 4e bf bc da e8 2a 3d ea e0 40 bd
       0.004083775 -0.023352683 0.04172597 -0.047089495
000060 00 11 fb b9 35 70 97 bd 27 6c b0 3d eb 8a 9a bd
       -0.00047887117 -0.07394449 0.086143784 -0.07546028
000070 67 6b af bd d4 89 a1 bd 89 c9 8d 3d 58 c8 53 3c
       -0.08565407 -0.07887617 0.069232054 0.012926184
000080 de e4 58 3d 0e 78 5e 3d c0 be 50 bb 06 da 6b 3d
       0.05295264 0.05431371 -0.0031851977 0.05758097
000090 3c 62 be 3c 23 03 42 bd 16 98 89 bd 08 76 3f bc
       0.023240201 -0.047366273 -0.06718461 -0.011685856
0000a0 0a 3d 2b 3d 98 38 09 bc cc a1 06 bd 84 d4 68 bd
       0.04180626 -0.008375309 -0.032869145 -0.056843296
0000b0 02 f3 67 3d 8b 12 8a 3d 53 87 61 bd 35 40 5a bd
       0.056628235 0.06741818 -0.055060696 -0.05328389
0000c0 cf 28 79 bd bd 55 ab bd b6 a3 3d 3d 64 86 f9 bc
       -0.060829934 -0.08365963 0.046298705 -0.03045959
0000d0 b8 b4 d8 3c 82 6d 23 3d 5e 40 b4 bd f0 19 d0 3c
       0.02645336 0.039899357 -0.088013396 0.025402993
0000e0 a2 67 a1 bd 92 1e 6a bd 80 6c 8c 3a 45 79 b2 3d
       -0.078810945 -0.05715806 0.0010713488 0.087145366
0000f0 b8 c6 0d bc 73 eb 85 3d 62 5b 69 3d 50 03 87 3b
       -0.008653335 0.06539049 0.056971915 0.004120268
000100 0e 5d 90 bd 12 04 73 bd 2c 88 9f 3c 56 7e 5a 3d
       -0.07048999 -0.059330054 0.019474111 0.05334314
000110 3d 6e a7 bd 0f 8f 65 bd 5c 33 8b bc 70 d0 f4 3c
       -0.08175323 -0.056044634 -0.016992263 0.029884547
000120 3a 68 87 bd e0 07 c0 3c f4 ad a2 bc b0 d8 3e 3c
       -0.066116765 0.023441255 -0.019858338 0.011648342
000130 30 36 47 bd f1 86 82 3d c0 e2 84 3b ad cb 92 bd
       -0.04863566 0.06373394 0.004055351 -0.07167754
000140 ef 7b af bd b2 27 57 3d a4 75 c3 3c f9 14 8e 3d
       -0.0856856 0.05252809 0.023859806 0.06937594
000150 87 d2 33 bd 67 14 95 3d 90 78 4c 3c 88 3f 29 3c
       -0.043901946 0.07279282 0.012479916 0.010330088
000160 9e 8e 5d 3d f0 40 bb 3c 9e 89 3b 3d 00 93 b8 3a
       0.05409109 0.022858113 0.04578554 0.0014081895
000170 01 e4 4b bd 4c 59 99 bd 55 45 86 bd aa c7 5c bd
       -0.04977799 -0.07487735 -0.06556193 -0.053901352
000180 36 81 4d 3d c2 f4 1c 3d 10 d8 ce 3b bb 54 ab 3d
       0.050172053 0.038319357 0.0063123778 0.083657704
000190 b0 f4 0c bd b2 2b 35 bd e8 8b d6 3c 6e 1d 1b 3d
       -0.03441304 -0.044231124 0.02618976 0.037869863
0001a0 30 b7 69 bc d4 8b 95 bc 94 24 14 3d 06 30 52 3d
       -0.014264867 -0.018255152 0.036167696 0.05131533
0001b0 04 61 85 bc 39 7a 0a bd 20 1b 20 bb bf 14 25 bd
       -0.016281612 -0.033807967 -0.002443023 -0.04030299
0001c0 dd bd 98 3d d4 ed b9 3c f4 2c 73 bd 50 5c ce 3b
       0.074580885 0.022696413 -0.059369043 0.0062976256
0001d0 aa 91 3b 3d ee dd 51 3d 5e d0 54 bd aa 33 70 bd
       0.045793213 0.05123704 -0.051956527 -0.05864302
0001e0 27 88 67 bd 7a 7d 0d 3d d2 e0 57 3d 02 ed 9e bd
       -0.05652633 0.034543492 0.05270464 -0.077600494
0001f0 18 b0 9e 3c 6d 9d 92 bd d2 0f 2c 3d 6a 16 75 3d
       0.019371077 -0.07158933 0.042007275 0.05983583
000200 1b 34 a0 bd 92 28 5a 3d 2f 71 04 bd 4b 1a 94 3d
       -0.07822438 0.053261347 -0.032334503 0.072315775
000210 a0 03 87 3b 93 c3 82 3d 2d 06 8f 3d cb 86 2c bd
       0.004120305 0.06384959 0.069836 -0.042120736
000220 7e 37 4a 3d 2c 48 fd 3c 57 8a 5f bd e0 e3 b6 3c
       0.049369328 0.030918203 -0.05457529 0.022325456
000230 29 c0 98 3d 48 43 02 3c aa 0c 76 3d 60 0e 1b 3b
       0.07458527 0.007950611 0.06007067 0.0023659691
000240 b8 de 3b 3c a8 54 1c 3c 18 31 42 bc 5e 86 17 3d
       0.0114666745 0.009541668 -0.011852525 0.036993377
000250 d4 c9 2c bd 78 31 6f bc eb cb 99 3d 4d 80 87 3d
       -0.042184666 -0.014599197 0.075095974 0.06616268
000260 ed 32 a7 3d 78 60 17 3c df c4 a6 3d db 01 b4 3d
       0.0816401 0.009239309 0.08143019 0.087894164
000270 50 b1 b9 3b f0 b8 fc bb d0 3f 05 3c c0 39 f2 ba
       0.0056668893 -0.007712476 0.00813289 -0.0018480346
000280 12 06 4f bd 6d 73 84 3d 58 fd 4b bc 94 49 f8 3c
       -0.0505429 0.06467328 -0.012450539 0.030308522
000290 27 93 b2 bd 70 f5 9e bd 6d 6d 52 bd 76 02 2b 3d
       -0.08719473 -0.07761657 -0.051373888 0.041750394
0002a0 75 3c 26 bd 5c ac 92 bc 58 81 aa bc 30 81 b3 3b
       -0.040585 -0.017904453 -0.020813629 0.005478047
0002b0 e5 42 88 3d 47 07 ab bd af 80 a6 3d 19 a9 9e 3d
       0.06653384 -0.083509974 0.08130013 0.077470966
0002c0 2e 33 4f 3d 88 48 b0 3c d8 e9 63 bd c4 8c 60 bd
       0.050585918 0.02151896 -0.055642933 -0.054821745
0002d0 f0 f8 32 bc b7 53 87 3d e8 43 fb 3c 80 8a 61 bc
       -0.010923609 0.06607764 0.030672029 -0.013765931
0002e0 88 7a d3 bc 33 d4 74 bd a5 7e 80 bd 00 85 de b9
       -0.025815263 -0.05977268 -0.062741555 -0.00042442232
0002f0 70 6d c5 bb 8e 81 1f 3d 26 22 6c bd c6 78 57 3d
       -0.006025009 0.038941912 -0.057649754 0.052605413
000300 08 96 8e bd 68 91 0e 3c 2e 9e 72 3d 40 7e 02 bb
       -0.0696221 0.00870166 0.059232883 -0.0019911677
000310 70 18 80 3b c3 43 2a bd 0f 47 96 3d bd 6a 99 bd
       0.003909163 -0.04156853 0.07337772 -0.07491062
000320 98 16 d6 3c 20 4c 9a 3b 66 e2 7f 3d 48 f5 b4 3c
       0.02613382 0.004708782 0.06247177 0.022089615
000330 90 28 8b 3c 8e fe 42 3d 00 d8 cd b9 2e 3c 1a bd
       0.016987115 0.047606044 -0.0003926158 -0.037655048
000340 06 e2 36 bd 4e 6c 99 bd 33 f5 a5 3d ac d0 42 bd
       -0.044649146 -0.074913606 0.08103409 -0.047562286
000350 f0 b7 da bc 9b 17 90 bd 9c cd 83 bd 81 ef 80 3d
       -0.026699036 -0.070357524 -0.06435701 0.06295682
000360 97 50 97 3d 42 2a 6d 3d 55 25 8f 3d 48 28 db bc
       0.07388418 0.05790163 0.069895424 -0.026752606
000370 44 5a 9c 3c 3d 7d ad 3d 29 da af 3d da c8 68 3d
       0.01908601 0.08471153 0.085865326 0.056832172
000380 57 c6 b3 3d be f4 6d 3d 21 71 ad bd 61 9f a4 3d
       0.08778065 0.058094732 -0.08468843 0.080382116
000390 c3 1b 44 bd 47 e4 92 3d a0 e2 cc 3b e3 7c a5 bd
       -0.04787804 0.07172447 0.0062526017 -0.08080461
0003a0 67 65 92 3d e8 06 a7 bd 90 30 80 bc 3f d3 94 3d
       0.07148247 -0.08155614 -0.015648156 0.072668545
0003b0 f6 62 20 3d 2e 09 71 3d 58 ce 5d 3c 00 41 05 3b
       0.039156877 0.058846645 0.013537966 0.0020332932
0003c0 56 bd 85 bd d1 3b 1e bd 68 16 8e bd de 01 aa bd
       -0.065302536 -0.038631264 -0.069378674 -0.083011374
0003d0 c8 97 05 3d 3c cd f0 bc be 47 3f bd b7 bb 94 bd
       0.032615453 -0.029394738 -0.046699278 -0.07262366
0003e0 20 39 b0 3c 17 1e af bd 3a c9 09 bd 06 75 f1 bc
       0.021511614 -0.08550661 -0.03363917 -0.029474746
0003f0 a4 5f ab bc 88 1d 33 bc 58 06 a0 3c 37 ec 14 bd
       -0.020919628 -0.010932334 0.019534275 -0.036358085

critic.2.bias f4 [128]
000000 8c 5a fa 3c 88 d1 99 bc 70 d5 c3 3b 5d 2f 53 bd
       0.030560754 -0.01877667 0.0059763715 -0.05155884
000010 00 f8 bf ba 8c 92 a7 bc 48 41 33 3c de b7 e4 bc
       -0.0014646053 -0.020455621 0.010940857 -0.027919706
000020 40 88 22 bc e2 52 7c 3d dd 3e 9e 3d f6 e6 68 3d
       -0.00992018 0.06160248 0.07726834 0.056860887
000030 34 98 84 bc 3a 13 39 3d 85 d6 20 bd ba 5e 88 bd
       -0.016185857 0.04518435 -0.03926708 -0.06658693
000040 6c 30 79 bd 8f 72 62 bd 9d 4a a2 3d b4 30 52 bd
       -0.060837194 -0.055285033 0.079243876 -0.05131598
000050 2f 17 6f bd a8 6c cc bc 85 b0 a6 3d 4c 74 fc 3c
       -0.05837172 -0.024954155 0.08139137 0.030817173
000060 a1 5d 9e 3d 6f 90 a8 3d 7d 89 00 bd ca 49 33 3d
       0.07732702 0.082306735 -0.03138112 0.043771543
000070 40 58 f9 3c b2 d7 76 3d 0a 3e a1 bd ca 99 17 3d
       0.030437589 0.060264297 -0.07873161 0.0370119
000080 a6 7b 72 3d 19 f5 81 bd e7 aa 83 bd ce 49 45 3d
       0.05919995 -0.06345577 -0.064290814 0.04816609
000090 a6 fc e9 bc e0 a9 37 3b 80 e7 c7 3c 94 64 a0 3c
       -0.028562855 0.0028024837 0.02440238 0.01957921
0000a0 4a 4f 1c 3d 55 d8 96 bd 29 06 14 bd 1f eb 8b 3d
       0.038161553 -0.07365481 -0.036138687 0.06831955
0000b0 24 83 82 3c c8 8a 74 bc f2 7d 79 3d 77 d1 b4 3d
       0.015931673 -0.014925666 0.060911126 0.08829015
0000c0 9c 31 a9 3c 9d 74 23 bd d9 08 55 bd ae 4f 79 bd
       0.020653538 -0.039906133 -0.05201039 -0.060867004
0000d0 10 80 f9 bb 53 2f 9c bd 74 c3 b3 3c 80 46 bd bb
       -0.007614143 -0.07626214 0.021943785 -0.0057762265
0000e0 02 3a 21 3d 7b 4c 87 3d 21 83 b2 bd 4f 3f 8f 3d
       0.03936196 0.06606384 -0.08716417 0.06994497
0000f0 0f c4 af bd aa c7 4e 3d 3a 99 2f 3d 1e 2e 76 3d
       -0.08582317 0.050483383 0.042870738 0.060102575
000100 9e 46 39 3d 2a c3 58 3d d0 26 d1 bb ca ae 82 bd
       0.04523336 0.052920498 -0.0063828006 -0.063809946
000110 37 6f b2 3d 40 9f 61 3c a4 7c 99 bc 99 ed 9f 3d
       0.08712619 0.013770878 -0.018736191 0.0780899
000120 98 47 6f 3c d3 6b 80 3d 92 19 b2 bd 44 8d fc 3c
       0.014604472 0.06270566 -0.086962834 0.03082908
000130 50 3a 87 bc e7 ef 99 3d 1a cb d9 bc 69 a9 8b 3d
       -0.016507298 0.07516461 -0.026586104 0.06819422
000140 f0 43 07 bc a8 96 a4 bc 20 6e f5 bc fa 4d 0d 3d
       -0.008255944 -0.02009137 -0.029959738 0.034498192
000150 18 c2 49 bd ed 22 88 3d cd 16 2b bd d6 2a 17 bd
       -0.049257368 0.066472866 -0.04176979 -0.036906086
000160 02 4a 5e 3d 12 51 5e 3d 40 5a ce 3c e7 c7 ab bd
       0.054269798 0.054276533 0.025189519 -0.08387738
000170 a8 4f 62 bc 20 9a 80 bb 46 a8 b3 bd f8 07 9a bd
       -0.013812937 -0.003924623 -0.0877233 -0.07521051
000180 4c 4a a4 bd a6 3f 5c 3d 7e 4e 10 3d a0 19 87 3c
       -0.080219835 0.053771637 0.035231106 0.016491711
000190 67 46 94 bd d8 6d 34 3c 24 49 d1 3c 02 4e 28 3d
       -0.07239991 0.011012517 0.025547571 0.04109002
0001a0 d0 83 81 bb ea 55 69 3d 1a d6 16 3d 96 42 53 3d
       -0.003952481 0.0569667 0.036825277 0.051577173
0001b0 a8 fa 10 bc f0 a9 56 bc 58 e7 b3 bc 43 3e a3 3d
       -0.008848824 -0.01310204 -0.0219609 0.0797086
0001c0 f4 8f 87 3c 56 24 fb bc b3 53 9a 3d 94 9d 0a 3d
       0.016548134 -0.030656975 0.075354956 0.033841684
0001d0 aa 54 2d 3d 92 63 6d 3d 2e 9e 5f 3d da 1c 89 bd
       0.04231707 0.057956286 0.05459421 -0.06694956
0001e0 50 3e cb 3b 7f 1c 86 bd 9e d2 50 3d 66 eb 9c bd
       0.0062024966 -0.06548404 0.05098211 -0.07662086
0001f0 a2 36 b2 bd 70 51 57 3c c6 e1 9d bd 70 30 2f bc
       -0.08701827 0.013141975 -0.077090785 -0.010692701

critic.4.weight f4 [1, 128]
000000 3e 9b 62 3d a0 2a e1 bb c0 93 b9 3b 32 12 65 3d
       0.05532383 -0.0068715364 0.005663365 0.055925556
000010 a8 90 70 bd 83 b4 9d 3d 78 47 1b 3c 6e a7 a5 bd
       -0.058731705 0.077004455 0.009477489 -0.08088575
000020 d0 9e 00 3d 40 ea 81 bb 88 0a 5a 3c f5 85 9c 3d
       0.031401455 -0.0039646924 0.013308175 0.07642738
000030 58 ef 2c bc c0 f8 9e bc c2 06 0e bd 54 6c 88 bc
       -0.010555111 -0.019405723 -0.034674414 -0.016653217
000040 34 99 b9 3c 9c cf b8 bc 5a 23 26 3d 7e 6e 67 3d
       0.02265606 -0.022559933 0.040561058 0.056501858
000050 4b ea a6 3d 80 28 4e 3c f3 a7 37 bd 80 93 57 ba
       0.081501566 0.012582898 -0.044837903 -0.00082235783
000060 9f 13 5f bd 16 1c a2 bd 92 5c 30 3d 9e b9 72 3d
       -0.05446207 -0.07915513 0.043057032 0.05925905
000070 a4 81 d8 3c e5 ae 84 bd 70 47 a1 3b b8 27 14 bc
       0.026429005 -0.06478671 0.004921846 -0.009042673
000080 ef 23 5e bd fb de 72 bd f3 fd b1 3d 44 6f 8f bc
       -0.054233488 -0.059294682 0.08691015 -0.01750911
000090 bd 52 3c bd 9d 43 18 bd d9 f7 a9 bd b0 a7 fc 3b
       -0.045977343 -0.037173856 -0.08299226 0.0077104196
0000a0 48 bc 81 bd 6f 13 a0 bd 8f c8 25 bd 50 bd 2f 3c
       -0.0633474 -0.07816207 -0.04047447 0.010726288
0000b0 12 6f 7f bd 68 43 6c bc 5a 01 a2 bd ed 7e 20 bd
       -0.062361784 -0.014420368 -0.07910414 -0.039183546
0000c0 af eb ae 3d e0 f0 13 bc 72 fa 26 3d 1a 37 e0 bc
       0.08541047 -0.009029597 0.040766187 -0.027370024
0000d0 e7 0a a9 bd 78 3f a0 3c e2 d5 73 3d 4c 92 c0 bc
       -0.082540326 0.019561514 0.059530146 -0.02350726
0000e0 8e 5f 39 3d 1c 50 b3 bc 37 8f 21 bd ba 1c 41 3d
       0.045257144 -0.021888785 -0.03944322 0.047146536
0000f0 2e 1b ec bc 2a 41 a2 bd 4e d5 04 bd e0 b0 f5 bb
       -0.028821554 -0.07922585 -0.032429986 -0.007497892
000100 9b 87 a7 3d 48 9c 1e bd 15 23 93 3d dd 11 91 3d
       0.081801616 -0.03872326 0.07184426 0.07083485
000110 a0 a5 a3 bd 18 0e 6c 3c c7 34 a1 3d 96 a5 41 3d
       -0.07990575 0.014407657 0.078713946 0.047277056
000120 77 d2 83 bd 13 16 9d bd 10 1b 05 3d 8f b4 a8 3d
       -0.06436627 -0.07670226 0.032496512 0.08237564
000130 f2 93 27 bd 04 a7 25 bd f0 2f de 3b eb 97 48 bd
       -0.040912576 -0.04044248 0.006780617 -0.048973005
000140 da fa 9d bd 26 0b 4e 3d 5c 3e a5 bd 8b 62 39 bd
       -0.07713862 0.0503036 -0.08068535 -0.045259994
000150 ee b2 61 3d 0e c9 fe bc bf a1 a8 3d d2 94 23 3d
       0.05510228 -0.03110173 0.082339756 0.039936848
000160 79 1a 9d 3d 90 16 76 3c 3c 0c e9 bc 34 a2 8c bc
       0.07671065 0.015020028 -0.028448217 -0.017167188
000170 d8 ff 0e bd 42 96 64 3d a2 ff 7c bd 43 2e 28 bd
       -0.03491196 0.05580736 -0.061767228 -0.041059744
000180 c2 c8 74 3d 2e 6f 2d 3d e5 46 9c 3d 98 4c bb bc
       0.05976177 0.042342357 0.076307096 -0.022863671
000190 b1 39 ac 3d 38 32 fd 3c cf 41 80 3d 70 51 3a 3c
       0.08409441 0.030907735 0.06262552 0.011371955
0001a0 06 79 7d 3d 13 2b ad 3d 07 65 4a bd f9 72 9b 3d
       0.061882995 0.084554814 -0.049412753 0.07590289
0001b0 78 71 72 3c 42 c0 65 3d 49 3a 2e bd 5f 94 86 3d
       0.014797561 0.056091554 -0.042536054 0.06571268
0001c0 6c a4 91 3c ce 21 30 3d 24 e2 8a 3c 10 72 9f 3b
       0.017778598 0.04300099 0.016953535 0.004865892
0001d0 48 8f 96 bd 3f 0a 90 3d 00 3b 1c bb 51 1b b0 bd
       -0.073515475 0.07033204 -0.0023838878 -0.0859896
0001e0 bc 77 91 bd e6 1e 79 bd a2 52 66 3d 68 76 6a bd
       -0.07102916 -0.060820483 0.05623115 -0.057241827
0001f0 93 73 aa 3d fd 25 8d 3d 3e 65 6c 3d df 0c ab 3d
       0.08322825 0.06892011 0.05771374 0.08352064
