walker_small_saved_models/initial_actor_20241125_215645.pth (torch, 80054 bytes, 7 tensors)

log_std f4 [6]
0	0x00000000	0.0
1	0x00000000	0.0
2	0x00000000	0.0
3	0x00000000	0.0
4	0x00000000	0.0
5	0x00000000	0.0

actor.0.weight f4 [128, 17]
0	0xbd8ed118	-0.06973475
1	0x3e675bfc	0.22593683
2	0x3d305a00	0.04305458
3	0x3cfab7b0	0.030605167
4	0x3e43c762	0.19119027
5	0xbe5394e4	-0.20662266
6	0x3e135650	0.14388394
7	0xbd846890	-0.06465256
8	0xbe17088f	-0.14749359
9	0xbe16963a	-0.14705744
10	0xbde6ffb0	-0.11279237
11	0x3d859634	0.065227896
12	0xbdbe2754	-0.09284845
13	0xbd11e4f0	-0.035618722
14	0xbe5836c0	-0.21114635
15	0x3d75c850	0.060005486
16	0xbe0c3fda	-0.13696232
17	0xbe75b5c6	-0.23995122
18	0xbd8fe2ac	-0.07025656
19	0xbe2d873a	-0.16946116
20	0x3e439f7a	0.19103804
21	0x3e5d0e4a	0.21587482
22	0x3e736b7a	0.23771468
23	0xbe4bd319	-0.19904746
24	0x3d9b2be4	0.07576731
25	0xbcbc93b0	-0.023019642
26	0xbcc73ea0	-0.024321854
27	0x3c1c0ee0	0.009525031
28	0x3e457bfc	0.19285578
29	0x3d3cf480	0.04613161
30	0xbb04fd40	-0.002029255
31	0xbe5c5490	-0.21516633
32	0x3a746400	0.00093227625
33	0x3e5c3b0e	0.21506903
34	0xbdbe3478	-0.09287351
35	0x3e24fc4c	0.16111869
36	0xbe22f008	-0.15911877
37	0xbe27561c	-0.16341442
38	0x3d1ba9b8	0.038003653
39	0x3e1fee56	0.15618262
40	0x3e340a72	0.1758211
41	0xbe6b17f5	-0.22958358
42	0xbe46259b	-0.19350283
43	0xbbc14c40	-0.0058989823
44	0xbe612260	-0.2198577
45	0xbe3b40c4	-0.18286425
46	0x3db5dbcc	0.088798136
47	0xbe25f643	-0.16207223
48	0xbda963a0	-0.08270955
49	0x3c73d040	0.014881194
50	0xbe37ecb1	-0.17961384
51	0x3ddb645c	0.107125014
52	0x3e66c960	0.22537756
53	0x3d3d4dd8	0.046216816
54	0xbe31e84d	-0.17373772
55	0x3e3a1db8	0.181754
56	0x3e610d34	0.21977693
57	0x3e3188a0	0.17337275
58	0xbc99ea88	-0.018788591
59	0x3e7187f4	0.23587018
60	0xbe684cae	-0.22685501
61	0xbd12d404	-0.035846725
62	0x3e6235ea	0.22090879
63	0x3d9f9158	0.07791394
64	0x3d1d1df0	0.03835863
65	0x3e754fc2	0.23956206
66	0x3e462ccc	0.19353026
67	0x3e3975c6	0.18111333
68	0x3df9ff38	0.12206882
69	0x3c90c370	0.017671317
70	0x3cc108e0	0.023563802
71	0xbe053902	-0.13010028
72	0xbe3721d3	-0.17883997
73	0xbd9005de	-0.07032369
74	0xbe3f4563	-0.18678813
75	0xbae81c80	-0.0017708689
76	0x3e41c5aa	0.18923059
77	0xbe2a9ea2	-0.16662076
78	0xbc8688d8	-0.016422674
79	0xbe5af08b	-0.21380822
80	0xbc964848	-0.018345013
81	0x3e1c52cc	0.1526596
82	0xbe3ea16d	-0.18616267
83	0xbcc7a1f8	-0.024369225
84	0xbd820106	-0.063478515
85	0xba4e1e00	-0.0007862747
86	0xbd5be750	-0.053687394
87	0xbd1dccf0	-0.03852552
88	0xbe73c952	-0.23807266
89	0x3e586328	0.21131575
90	0xbd97a854	-0.07405153
91	0x3e6a25fa	0.2286605
92	0x3db3e954	0.08784738
93	0x3e504fbe	0.20342919
94	0xbc232650	-0.009957865
95	0x3e01b606	0.12667093
96	0xbe337d4c	-0.17528266
97	0x3e00d65a	0.12581769
98	0x3cad3e70	0.021147937
99	0x3df71edc	0.12066433
100	0x3e134ff2	0.14385965
101	0xbd96da30	-0.07365835
102	0x3de8e444	0.11371663
103	0xbe6c9c19	-0.23106422
104	0xbdf6bf48	-0.12048203
105	0xbe235268	-0.15949404
106	0xbdb83e38	-0.08996242
107	0x3dd90d6c	0.10598263
108	0xbd8afe86	-0.06786828
109	0x3de65e40	0.112484455
110	0x3e4a82d4	0.1977647
111	0x3d3499f8	0.04409215
112	0x3d05fc80	0.032711506
113	0xbdc6f78a	-0.09715183
114	0x3dbc8dc8	0.0920673
115	0xbdc8548a	-0.097817495
116	0xbd65e9c8	-0.056131154
117	0x3d71aba8	0.059001595
118	0xbdc51656	-0.09623401
119	0xbdbd9d20	-0.09258485
120	0x3c8f6350	0.01750341
121	0x3e4cc47a	0.19996825
122	0xbdf0f8ef	-0.1176623
123	0x3db5004c	0.08837947
124	0x3dc4d480	0.09610844
125	0x3e06eb16	0.13175616
126	0xbe3d7432	-0.18501356
127	0x3ca783b0	0.020448536
128	0xbdbdaa4c	-0.09260997
129	0xbe5e6d01	-0.21721269
130	0xbdd26628	-0.10273391
131	0x3e22b9a2	0.15891126
132	0xbe07851f	-0.13234375
133	0x3d8e9e64	0.06963804
134	0xbdd2a076	-0.10284512
135	0xbd8a5816	-0.06755082
136	0xbe003784	-0.12521178
137	0xbc951998	-0.01820068
138	0x3c9f5900	0.019451618
139	0x3e65e38e	0.22450086
140	0xbd9a10e6	-0.07522754
141	0x3cac6a30	0.021046728
142	0x3e1b83f6	0.15187058
143	0x3e3af11c	0.18256038
144	0xbd85e4ba	-0.06537767
145	0x3e16a07c	0.14709657
146	0xbc9e83e8	-0.019350007
147	0xbdc3472c	-0.09535059
148	0x3e1cb974	0.1530512
149	0xbe6b5d73	-0.22984867
150	0xbdae5716	-0.08512704
151	0x3d13f668	0.036123663
152	0x3dbcbbb0	0.09215486
153	0xbafc6c00	-0.0019258261
154	0x3db5f784	0.088851005
155	0xbe23591f	-0.15951966
156	0xbce85500	-0.028360844
157	0xbd0dc8e0	-0.034615397
158	0xbd2e3300	-0.042529106
159	0x3e46ef20	0.19427156
160	0xbd846e0e	-0.06466304
161	0xbd98f032	-0.074676886
162	0xbd4ea9a8	-0.050454766
163	0xbe57043a	-0.20997706
164	0xbe2d6d02	-0.16936114
165	0xbe1300ca	-0.1435577
166	0x3d8e4124	0.06946018
167	0x3decf178	0.11569494
168	0xbd995448	-0.074867785
169	0xbe5b16dd	-0.2139544
170	0xbe6199dd	-0.2203135
171	0x3dfbdc68	0.122978985
172	0x3d24f270	0.04027027
173	0x3c9b57f0	0.01896283
174	0x3e512c7a	0.20427123
175	0xbdd4fd6c	-0.10399899
176	0x3e0262f4	0.1273306
177	0xbe1ad41e	-0.15119979
178	0x3e6212ca	0.2207748
179	0x3d8120bc	0.06305072
180	0xbe30d620	-0.17269182
181	0xbcd57b08	-0.026059642
182	0xbe257df8	-0.16161335
183	0x3e6fdf5e	0.23425052
184	0xbd1c9224	-0.038225308
185	0xbd981236	-0.074253485
186	0x3e404562	0.18776467
187	0xbe0d2cb8	-0.1378659
188	0xbe43643e	-0.19081208
189	0xbce17100	-0.027519703
190	0xbd013740	-0.03154683
191	0xbdb2829c	-0.08716318
192	0xbe192919	-0.14957084
193	0x3c19c020	0.009384185
194	0xbc376760	-0.01119408
195	0xbda012f0	-0.07816112
196	0xbdcb009c	-0.099122256
197	0xbdad7a10	-0.08470547
198	0xbe25d598	-0.16194761
199	0x3daf28ec	0.08552727
200	0x3d58b608	0.052907974
201	0x3dc5d1f8	0.09659189
202	0xbe4af986	-0.19821748
203	0xbd9971ee	-0.074924335
204	0x3c3c90a0	0.011509091
205	0xbde66886	-0.11250405
206	0x3d2ce560	0.042210937
207	0xbde8fb12	-0.11376013
208	0xbe6b6632	-0.22988203
209	0xbe5361d6	-0.2064279
210	0x3d7badf8	0.061445206
211	0xbe4e1718	-0.20125997
212	0x3db4e264	0.08832243
213	0xbc861c70	-0.016370982
214	0xbda4504e	-0.080231294
215	0x3e260342	0.1621218
216	0x3dbff458	0.09372777
217	0x3df93b00	0.121694565
218	0xbdea31a8	-0.114352524
219	0x3e528b44	0.20560938
220	0x3dbdf6a8	0.092755616
221	0x3c9e9650	0.019358784
222	0x3e6715c8	0.22566903
223	0x3e5af212	0.21381405
224	0xbd6cdc00	-0.057826996
225	0xbe023ea0	-0.12719202
226	0xbdae8a72	-0.085225
227	0xbd243c48	-0.04009655
228	0xbd8e3ad4	-0.06944814
229	0x3dba00dc	0.09082195
230	0x3de8272c	0.113355964
231	0xbdb059ee	-0.08610903
232	0x3da3dea8	0.08001453
233	0x3e6d6516	0.23183092
234	0x3e510744	0.20412928
235	0x3e59d838	0.21273887
236	0x3c21dbc0	0.009879053
237	0xbdac836e	-0.08423506
238	0x3d83f7f8	0.06443781
239	0x3e2574e0	0.16157866
240	0xbe175914	-0.14780074
241	0x3d4a8ef0	0.049452722
242	0x3dd156e4	0.10221651
243	0xbe22d89d	-0.15902944
244	0xbd4b7d68	-0.049680144
245	0xbe2524f2	-0.16127375
246	0xbde4215a	-0.11139174
247	0xbe4a5196	-0.19757685
248	0xbb968560	-0.0045935363
249	0x3d6f0ce8	0.058361918
250	0xbe074000	-0.13208008
251	0xbd7ecc0c	-0.062206313
252	0x3e71ef0e	0.23626348
253	0x3d84fff8	0.06494135
254	0xbe629ccd	-0.22130127
255	0xbe3a6e1b	-0.18206064

actor.0.bias f4 [128]
0	0x3e3b5a6a	0.18296209
1	0xbd89c6d6	-0.06727378
2	0x3d0f65d0	0.035009205
3	0x3d67f380	0.056628704
4	0x3d6fffc0	0.05859351
5	0x3dac0c14	0.08400741
6	0x3dd9c7c4	0.106338054
7	0x3ce29140	0.027657151
8	0xbdb28e2c	-0.087185234
9	0x3e54105a	0.20709363
10	0xbdf5937e	-0.119910225
11	0x3e39fd2e	0.18162987
12	0x3e5fe39a	0.21864167
13	0x3e3ac4bc	0.1823911
14	0x3e68d8e0	0.22738981
15	0x3e2da76a	0.16958395
16	0x3dc78058	0.097412765
17	0xbe477db4	-0.19481546
18	0xbcf4e6f8	-0.02989529
19	0x3d83973c	0.0642533
20	0x3e61523c	0.22004026
21	0x3e2cceca	0.16875759
22	0xbdc47602	-0.09592821
23	0xbdd5dd44	-0.10442594
24	0xbdd34366	-0.103155896
25	0xbe5059b5	-0.2034672
26	0xbe5b2655	-0.21401341
27	0x3e33fca4	0.17576844
28	0x3e466b1c	0.19376796
29	0xbe76bc30	-0.24095225
30	0x3e0af9ee	0.13571903
31	0x3e0dd5e2	0.13851121
32	0xbe6f0e8d	-0.23345394
33	0x3e2314d2	0.15925911
34	0xbe502da6	-0.20329913
35	0xbd955538	-0.07291645
36	0xbe72c6af	-0.23708604
37	0x3d2e0eb0	0.042494476
38	0x3e72e55e	0.23720309
39	0x3c9c9330	0.019113153
40	0xbe217cd6	-0.15770277
41	0x3d873558	0.066019714
42	0xbdc463a2	-0.09589316
43	0xbe64f892	-0.22360447
44	0x3dcdd524	0.10050419
45	0x3dfcdb70	0.12346542
46	0x3e7305ce	0.23732683
47	0xbe6dace5	-0.23210485
48	0xbe3c702f	-0.1840217
49	0xbe3fc8b8	-0.18728912
50	0x3d55b880	0.052177906
51	0x3cd3a7d0	0.025836855
52	0x3e5dc0c2	0.21655563
53	0x3e06dd74	0.13170415
54	0xbe0484d6	-0.12941298
55	0x3e10c9ba	0.14139453
56	0x3e35ffd0	0.17773366
57	0xbcf29510	-0.029612094
58	0xbe16d7ba	-0.1473073
59	0xbd88ffce	-0.06689416
60	0x3d2ef748	0.042716295
61	0xbd8f67fa	-0.07002254
62	0x3d4fdc58	0.050747246
63	0x3e77999c	0.24179691
64	0xbdea744e	-0.114479646
65	0x3d9ed110	0.07754719
66	0x3dac2390	0.084052205
67	0x3de73acc	0.112905115
68	0xbdf6dc19	-0.12053699
69	0xbe57c39c	-0.21070713
70	0xbe2837f4	-0.16427594
71	0x3dd1cbe8	0.1024397
72	0xbdc5c58e	-0.09656821
73	0x3e521868	0.20517123
74	0xbe229f9a	-0.15881196
75	0xbe04416a	-0.12915578
76	0xbe2e0071	-0.16992356
77	0xbe653a4a	-0.22385517
78	0xba81c580	-0.0009900779
79	0x3d777880	0.060417652
80	0xbe0e44ae	-0.13893387
81	0x3b8333c0	0.004003972
82	0x3d947814	0.072494656
83	0xbe5d3897	-0.21603619
84	0x3e13c384	0.14430052
85	0x3dd99150	0.10623419
86	0x3ceb4110	0.028717548
87	0xbcc6c350	-0.024263054
88	0xbe460ac0	-0.19340038
89	0x3df72d08	0.12069136
90	0x3daacf98	0.083403766
91	0x3e31c966	0.17361984
92	0x3de68af8	0.11256975
93	0xbe4bc3ad	-0.19898863
94	0xbe679921	-0.22617008
95	0x3e6a510e	0.22882482
96	0x3d5092f0	0.05092138
97	0xbdc59d82	-0.09649183
98	0x3c657b60	0.014006466
99	0x3e2b2fcc	0.16717452
100	0x3e31adba	0.17351428
101	0xbe19cfa2	-0.15020612
102	0xbdeaea58	-0.11470479
103	0xbe643cf8	-0.22288883
104	0x3d18bd40	0.037289858
105	0xbc2b8f30	-0.01047115
106	0x3d5f53e0	0.05452335
107	0xbe3fb2c4	-0.18720537
108	0x3ddd62b8	0.10809845
109	0x3e1d6f14	0.15374404
110	0xbe74ed38	-0.23918617
111	0xbe4917c5	-0.19637974
112	0x3d992978	0.07478613
113	0xbd90a2b4	-0.07062283
114	0x3d9b3940	0.07579279
115	0xbe2b0244	-0.16700083
116	0x3e65b3a4	0.22431809
117	0x3e6f93b6	0.23396191
118	0x3da26718	0.0792982
119	0x3dd56494	0.104195744
120	0x3cf2c530	0.029635042
121	0x3d453a98	0.048151582
122	0xbded43c6	-0.115851924
123	0xbe1540be	-0.14575478
124	0xbdf568e2	-0.119828954
125	0xbdeb7054	-0.11496034
126	0x3e2b7ef2	0.16747645
127	0x3e08c758	0.13357294

actor.2.weight f4 [128, 128]
0	0xbd80bef3	-0.06286421
1	0xbd00ee60	-0.031477332
2	0xbcc61d78	-0.024183974
3	0xbda39976	-0.07988255
4	0x3c5a7168	0.013332702
5	0xbd7a346e	-0.061085157
6	0x3cd8bc04	0.02645684
7	0xbd8dbb2c	-0.06920466
8	0x3c8a64b4	0.016893722
9	0xbd9fa2b2	-0.077947035
10	0xbce4600e	-0.027877834
11	0xbd768e16	-0.060194097
12	0x3d981ceb	0.07427391
13	0xbc2e3460	-0.010632604
14	0xbcaaaf00	-0.0208354
15	0x3d02bd22	0.031918652
16	0xb9b32800	-0.00034171343
17	0xbc397d88	-0.011321433
18	0xbd9ace2a	-0.07558854
19	0xbd9cfa45	-0.076649226
20	0xbd4bd93e	-0.049767725
21	0xbc9fd918	-0.019512698
22	0xbcd5bd62	-0.026091281
23	0x3c81256c	0.015764914
24	0xbcfb9114	-0.030708827
25	0x3cdc6a60	0.026906192
26	0x3c9aa060	0.0188753
27	0xbd152c0d	-0.036418963
28	0x3d0d156a	0.03444425
29	0xbd9e9b7c	-0.077445
30	0x3d4d97ca	0.050193585
31	0xbccf6c18	-0.025320098
32	0x3c868f88	0.016425863
33	0x3d8b48dd	0.06801007
34	0xbd8f0a2c	-0.06984362
35	0xbd92fb24	-0.071768075
36	0x3d0f81e8	0.035035998
37	0x3da60ced	0.08107934
38	0x3cc20d10	0.02368787
39	0x3d8ed193	0.06973567
40	0xbdade4e4	-0.08490923
41	0x3d3d44c6	0.046208166
42	0x3d01f5dc	0.03172861
43	0x3c8b3760	0.016994178
44	0x3d1c49d6	0.038156353
45	0xbd97bf2e	-0.074095115
46	0xbd3ce256	-0.04611429
47	0xbd158b34	-0.036509708
48	0x3d04ca1e	0.032419316
49	0xbd45dd3d	-0.048306692
50	0xbd3f0d29	-0.04664341
51	0x3da48f69	0.08035166
52	0x3ce31c18	0.027723357
53	0x3c1f7c18	0.009734176
54	0x3d430bb6	0.04761859
55	0x3d4186be	0.04724764
56	0xbd4673be	-0.048450224
57	0xbd7e1893	-0.062035155
58	0xbcfc0806	-0.030765545
59	0xbcf54a2c	-0.029942594
60	0xbd9ccbd7	-0.07656067
61	0x3d2acc32	0.041698642
62	0x3d5f0522	0.054448254
63	0xbd0ef716	-0.03490361
64	0xbdb25d9d	-0.087092616
65	0x3d7b8382	0.061404712
66	0xbd8c9b2d	-0.06865535
67	0xbd00222d	-0.031282593
68	0xbd420f41	-0.04737783
69	0x3d1c6752	0.03818447
70	0xbcab5c64	-0.020918079
71	0xbdad5270	-0.08462989
72	0x3da5330f	0.08066379
73	0x3d3b6f76	0.045760594
74	0x3c82a988	0.01594998
75	0xbd22de7f	-0.03976297
76	0xbce261ca	-0.02763452
77	0x3c3c2178	0.011482589
78	0xb9ec9f00	-0.00045131892
79	0xbbeefd40	-0.0072933733
80	0xbda48f58	-0.08035153
81	0x39844e00	0.00025235116
82	0x3dabf85d	0.08396981
83	0xbcd36f5c	-0.025809936
84	0x3da1b0b5	0.07895032
85	0xbd81f805	-0.06346134
86	0x3da32037	0.07965129
87	0x3d9510eb	0.072786175
88	0x3d1795aa	0.037007965
89	0xb72c2000	-1.02594495e-05
90	0xbd0f9df9	-0.035062764
91	0xbd514428	-0.05109039
92	0xbd9582c3	-0.073003314
93	0x3d424652	0.047430344
94	0xbdabd48e	-0.08390151
95	0xbc8d7e3c	-0.017272107
96	0x3d8eb567	0.069681935
97	0xbb1b3c20	-0.002368696
98	0x3cfaaea0	0.030600846
99	0xb9b0fe00	-0.0003375858
100	0xbd3b41ac	-0.045716926
101	0xbce25f44	-0.027633317
102	0xbd985b0e	-0.07439242
103	0x3c6069a8	0.013697065
104	0x3d5864ce	0.05283051
105	0xbd101546	-0.035176538
106	0x3db09815	0.08622757
107	0xbd15376c	-0.036429808
108	0x3d0a1060	0.033707023
109	0xbcbf4288	-0.023347154
110	0x3d49be26	0.049253605
111	0xbcfbb32c	-0.030725084
112	0x3db398ed	0.08769403
113	0x3daf2219	0.085514255
114	0xbcdba2b8	-0.026810989
115	0xbd905887	-0.07048135
116	0xbda66655	-0.08124987
117	0x3c988314	0.01861719
118	0x3d55c776	0.052192174
119	0xbd3a86fd	-0.04553889
120	0x3d86ad07	0.06575971
121	0x3c86c368	0.016450599
122	0xbdafa168	-0.08575708
123	0x3ce464c4	0.02788008
124	0xbdae8e41	-0.085232265
125	0xbd6f47a8	-0.058417946
126	0xbce53efe	-0.027984139
127	0xbbf7e050	-0.007564582
128	0xbcbb8bb4	-0.022893764
129	0x3ab38900	0.0013697445
130	0x3d94a31b	0.072576724
131	0xbcb5ec28	-0.022207335
132	0xbcb63b20	-0.02224499
133	0x3cdbe200	0.026841164
134	0x3d0a12c0	0.033709288
135	0x3db1efd9	0.086883254
136	0x3b87f6b0	0.0041492805
137	0x3b8b4960	0.0042506903
138	0x3d9e49a7	0.07728892
139	0xbce64170	-0.028107375
140	0xbaf4cec0	-0.0018677339
141	0xbd2eb7b2	-0.042655654
142	0x3ce674dc	0.028131895
143	0xbb2c9fc0	-0.0026340336
144	0x3d571e0a	0.05251888
145	0xbd841df3	-0.06451025
146	0x3d03edf6	0.03220936
147	0xbc573cd8	-0.013137065
148	0xbc6751f8	-0.014118664
149	0xbd517911	-0.05114085
150	0x3d926643	0.07148411
151	0xbd32d2a8	-0.04365793
152	0x3d8cf687	0.06882959
153	0xbd70fba4	-0.058833733
154	0xbd505494	-0.05086191
155	0xbd3b9acd	-0.045801926
156	0xbd392a92	-0.045206614
157	0xbd134714	-0.035956457
158	0xba361e80	-0.0006947294
159	0x3d9a701f	0.07540917
160	0xbdaee463	-0.08539655
161	0x3d50a762	0.05094088
162	0xbd8d1a51	-0.06889785
163	0xbd0d4916	-0.03449353
164	0x3d8cb373	0.06870165
165	0x3cfd47cc	0.030918024
166	0xbd8b506d	-0.068024494
167	0xbbe25a00	-0.0069077015
168	0x3d33249a	0.043736078
169	0x3c937ca8	0.018003777
170	0x3daf4557	0.085581474
171	0xbd89988d	-0.0671855
172	0xbd1c275d	-0.038123477
173	0x3d92528f	0.07144653
174	0xbcb4ba48	-0.022061482
175	0x3da83d23	0.08214786
176	0xbba666e0	-0.0050781816
177	0x3d69ec0a	0.05710987
178	0xbcb847e8	-0.022495225
179	0xbd64eb19	-0.05588827
180	0x3d568322	0.05237115
181	0x3d09f5a2	0.03368152
182	0x3d7c8e72	0.061659284
183	0x3d88428f	0.0665332
184	0x3d32c7da	0.043647625
185	0xbd9ea252	-0.07745804
186	0x3d8f7a5b	0.07005759
187	0xbd5ec99e	-0.054391496
188	0x3c9934d4	0.018701948
189	0xbdaa2e84	-0.083096534
190	0x3d5a6a3e	0.053323977
191	0x3d12aee4	0.03581132
192	0xbd95ee71	-0.0732087
193	0xbd30ddc2	-0.043180235
194	0xbbc4a0c0	-0.006000608
195	0xbd9b94a8	-0.07596713
196	0xbd1c7449	-0.038196836
197	0x3d3a1b06	0.045435928
198	0xbd2f1610	-0.04274565
199	0xbd2197b1	-0.039451305
200	0x3cb99bc4	0.022657283
201	0x3c99e730	0.018786997
202	0x3d84d517	0.06485956
203	0xbda84bc4	-0.08217576
204	0xbd80a35c	-0.06281158
205	0x3d6f4fea	0.05842582
206	0x3d5034a6	0.05083146
207	0x3adfb200	0.0017066598
208	0x3c3d2590	0.0115446
209	0x3d80bf4d	0.06286488
210	0x3c73d380	0.0148819685
211	0xbd9a8440	-0.07544756
212	0x3d9d4e91	0.07681001
213	0x3d846a59	0.06465597
214	0xbc866e88	-0.016410127
215	0xbb451240	-0.0030070692
216	0x3d45836e	0.048221044
217	0xbd469db7	-0.048490252
218	0x3d375242	0.04475618
219	0x3dab8adb	0.08376094
220	0xbcb3ef18	-0.021964595
221	0xbcc73174	-0.024315573
222	0xbb9aee90	-0.004728146
223	0x3cfc57a4	0.030803509
224	0x3da5cbe3	0.08095529
225	0x3d1b39f2	0.037897058
226	0xbda45444	-0.08023885
227	0xbd8706f2	-0.065931216
228	0xbd302011	-0.04299933
229	0x3d8bb2d1	0.06821216
230	0xbd6e1703	-0.058127414
231	0xbd5c9452	-0.053852387
232	0xbdaf0a9c	-0.085469455
233	0xbd092df6	-0.033491097
234	0xbd1fe5a3	-0.039037358
235	0x3cd00a64	0.02539558
236	0x3d4d1b1e	0.05007469
237	0xbd31cef3	-0.043410253
238	0x3d9664c3	0.073434375
239	0x3bec1d70	0.0072056577
240	0xbc9be23c	-0.019028775
241	0x3d919ad5	0.0710961
242	0x3b277c00	0.0025556087
243	0x3c85e304	0.016343601
244	0xbd867bca	-0.0656658
245	0xbd0f0d89	-0.034925018
246	0xbd59fad5	-0.053217728
247	0xbd8eb39a	-0.0696785
248	0xbd451fd9	-0.048126075
249	0x3c4b6bc0	0.012415826
250	0x3da6b30f	0.081396215
251	0x3d58866a	0.052862562
252	0xbcfa5fea	-0.030563314
253	0x3be2bf00	0.0069197416
254	0x3c94c948	0.018162385
255	0xbd4cb2ad	-0.049975086

actor.2.bias f4 [128]
0	0xbd866397	-0.06561964
1	0xbd9ac000	-0.07556152
2	0xbd4da748	-0.05020836
3	0xbd31f0a8	-0.0434424
4	0x3d4e2922	0.050332196
5	0x3d554776	0.052070104
6	0x3d6a17ee	0.057151727
7	0xbda6e161	-0.08148456
8	0x3d41fde2	0.047361262
9	0x3d990463	0.0747154
10	0xbc4b6010	-0.01241304
11	0x3d33ed8a	0.043927707
12	0xbd921560	-0.07132983
13	0x3c3615f8	0.011113636
14	0xbd7b1303	-0.061297428
15	0xbd99357d	-0.07480905
16	0xbd5039bb	-0.050836306
17	0xbdb2b85e	-0.087265715
18	0x3ca370ac	0.019951187
19	0xbdac2a5d	-0.08406518
20	0x3d27a83e	0.040931933
21	0x3d1d567e	0.038412564
22	0xbc3b2a08	-0.011423595
23	0x3d20be0a	0.039243735
24	0xbd48744f	-0.048939046
25	0x3d881023	0.06643703
26	0xbd338051	-0.043823544
27	0xbcc6e0d0	-0.02427712
28	0x3d43731a	0.04771719
29	0xbd822242	-0.063541904
30	0x3d6034de	0.054737918
31	0xbc95b250	-0.018273503
32	0x38fac800	0.00011958182
33	0x3c93b670	0.018031329
34	0x3d4aa1ba	0.04947064
35	0xbda753b4	-0.08170262
36	0xbd7873fa	-0.06065748
37	0xbcfe2a1c	-0.031025939
38	0x3c93e5a8	0.018053845
39	0xbda142f8	-0.078741014
40	0x3d916b07	0.07100492
41	0xbd2101eb	-0.03930847
42	0x3d8b144d	0.067909814
43	0x3d8d3f41	0.0689683
44	0x3d9dc609	0.07703788
45	0x3b8b23b0	0.0042461976
46	0x3d2db71a	0.042410947
47	0x3cc97024	0.024589606
48	0xbd8d30b5	-0.06894056
49	0x3db1e1f3	0.086856745
50	0x3d10bdf6	0.03533741
51	0x3d484ba6	0.04890027
52	0xbd04816d	-0.032349993
53	0x3d6c339a	0.0576664
54	0x3d3b468a	0.04572157
55	0xbce3ab3c	-0.027791612
56	0x3dad852d	0.08472667
57	0x3d56ff52	0.052489586
58	0xbd926585	-0.071482696
59	0x3da78411	0.081794865
60	0xbda30fc1	-0.07961989
61	0x3d76aac6	0.060221456
62	0x3d008e5a	0.031385757
63	0x3d9fe025	0.07806424
64	0x3a96da40	0.0011509135
65	0xbda5e0ed	-0.08099542
66	0xbd8e1640	-0.069378376
67	0xbd899cda	-0.0671937
68	0x3d9d0c4b	0.0766836
69	0x3c1fa280	0.009743333
70	0x3d956a93	0.07295718
71	0x3daa236f	0.0830754
72	0x3d8f9115	0.07010094
73	0x3c680bb0	0.014162943
74	0x3d0e8198	0.03479156
75	0xbd87c8c7	-0.06630092
76	0x3da053b3	0.07828464
77	0xbd472825	-0.04862227
78	0xbdb0de96	-0.08636205
79	0x3d4da8be	0.050209753
80	0xbd485b07	-0.048914935
81	0x3d8db267	0.06918793
82	0xbd7e9e38	-0.062162608
83	0x3d8ecb27	0.06972342
84	0xbce63ad4	-0.028104223
85	0xbdaad9e8	-0.083423436
86	0x392c2c00	0.0001641959
87	0x3ce5f1c0	0.028069377
88	0x3cfa9148	0.030586854
89	0x3cacd05c	0.021095447
90	0xbc318368	-0.010834552
91	0x3db1876f	0.0866841
92	0xbd581072	-0.05275006
93	0x3c7cd810	0.015432373
94	0x3d52183a	0.051292636
95	0x3c970280	0.01843381
96	0x3d92b451	0.07163299
97	0x3d997f8b	0.0749503
98	0x3d0991b2	0.03358621
99	0x3d269982	0.04067374
100	0xbcac6d00	-0.021048069
101	0x3cb1f67c	0.021723978
102	0x3d95886d	0.07301412
103	0x3dabb579	0.083842225
104	0xbcfff790	-0.031245977
105	0xbbf8f690	-0.007597752
106	0xbcab1e20	-0.020888388
107	0x3d2e3b76	0.042537175
108	0x3c4eb238	0.012615733
109	0xbdad249d	-0.08454249
110	0x3da093f3	0.07840719
111	0x3cc1d6fc	0.023662083
112	0xbd752d04	-0.059857383
113	0xbdb3f2f9	-0.08786578
114	0xbd909b29	-0.070608445
115	0x3d62ffee	0.055419855
116	0x3d43fca2	0.04784835
117	0x3c34ae78	0.011027925
118	0xbd953ea7	-0.072873406
119	0x3c638760	0.013887256
120	0xbd40b28b	-0.04704527
121	0x3d0f0304	0.034914985
122	0xbcefa8ac	-0.029255234
123	0x3d2d61e6	0.04232969
124	0xbbd3baa0	-0.0064614564
125	0xbc34ea90	-0.011042252
126	0xbbf1a730	-0.0073746666
127	0x3d4b4ffe	0.049636833

mean.weight f4 [6, 64]
0	0x3dae38c4	0.08506921
1	0xbd481bcc	-0.048854634
2	0xbd7ab524	-0.061207905
3	0xbddc9e88	-0.10772425
4	0xbd9fd5e0	-0.07804465
5	0xbda9120e	-0.08255397
6	0xbd122fbc	-0.035690054
7	0xbda2aaf8	-0.07942766
8	0xbd31973c	-0.04335712
9	0x3bd66280	0.006542504
10	0xbc2f1fb0	-0.010688707
11	0xbca4a7d0	-0.02009955
12	0x3cc7da50	0.024396092
13	0x3dcc4e28	0.099758446
14	0xbd030cac	-0.031994507
15	0xbdfbc136	-0.122927114
16	0xbd2befa4	-0.041976586
17	0x3de2310c	0.11044511
18	0xbdfc1a34	-0.12309685
19	0x3d466744	0.048438326
20	0x3df2228a	0.11822994
21	0x39c88400	0.0003824532
22	0xbcbc11d8	-0.022957727
23	0xbdf18ee2	-0.11794831
24	0xbdf3944e	-0.11893521
25	0xbbf6e600	-0.0075347424
26	0xbb38cd00	-0.0028198361
27	0x3d8e6ad4	0.069539696
28	0xbdb1ceca	-0.0868202
29	0x3daea690	0.08527863
30	0x3caeeba0	0.02135259
31	0x3d3ec718	0.04657659
32	0xbd119620	-0.03554356
33	0xbd05e75c	-0.032691345
34	0xbd4d764c	-0.050161645
35	0xbdac2958	-0.08406323
36	0x3d444bc0	0.047923803
37	0xbdd48c84	-0.10378364
38	0xbd17e7e0	-0.037086368
39	0xbd303dc8	-0.04302767
40	0x3ded3126	0.1158164
41	0xbd280c98	-0.041027635
42	0xbcc24f88	-0.023719564
43	0x3d80b7b4	0.062850386
44	0x3df9a5de	0.1218984
45	0xbc19bea0	-0.009383827
46	0x3c777070	0.015102491
47	0xbdbf51a8	-0.093417466
48	0x3d786bdc	0.060649738
49	0xbd1a78e0	-0.03771293
50	0x3dbe70f0	0.09298885
51	0xbd98b576	-0.07456486
52	0xbdaa77ce	-0.08323632
53	0xbdf8960e	-0.12137996
54	0x3d69c5c8	0.057073385
55	0xbdeff4e0	-0.11716628
56	0xbde0a43c	-0.10968825
57	0x3d050484	0.03247501
58	0x3c70fa00	0.014708042
59	0x3df5158e	0.11967002
60	0x3dddf3b0	0.10837495
61	0xbd091d1c	-0.033475026
62	0x3d319c44	0.043361917
63	0x3dbd8508	0.09253889
64	0xbdb6acba	-0.08919664
65	0x3c36dfc0	0.011161745
66	0xbd38abdc	-0.045085773
67	0x3caa7600	0.02080822
68	0xbde3d3f4	-0.11124411
69	0x3de899ea	0.11357482
70	0x3da87b26	0.08226614
71	0x3d882926	0.066484734
72	0xbd07ea0c	-0.03318219
73	0x3d75df0c	0.060027167
74	0xbd948328	-0.072515786
75	0x3c0dd680	0.008657098
76	0xbd21c050	-0.039490044
77	0xbd3b06cc	-0.04566078
78	0xbd55c0d8	-0.052185863
79	0xbc2bca10	-0.010485187
80	0x3dcedca2	0.10100676
81	0x3d6948f0	0.056954324
82	0xbcd0c098	-0.02548246
83	0xbd9590f6	-0.0730304
84	0x3dd4d92e	0.10392986
85	0x3d2ed9fc	0.042688355
86	0x3d8eb9d4	0.06969038
87	0xbd06cd60	-0.032910705
88	0x3da9386c	0.08262715
89	0x3dcbb484	0.0994654
90	0xbdcdbf30	-0.10046232
91	0xbdd044fa	-0.10169406
92	0x3d9a6f12	0.07540716
93	0x3d4d53a8	0.05012861
94	0xbd2fc090	-0.04290825
95	0x3cdae598	0.026720807
96	0xbdcfb8b2	-0.1014265
97	0xbc834318	-0.016023204
98	0x3dbec240	0.09314394
99	0xbde81966	-0.11332969
100	0x3d52b510	0.051442206
101	0x3c31dbb0	0.0108556
102	0x3c8f3ec0	0.017485976
103	0xbd397d80	-0.0452857
104	0x3d93aa7e	0.07210253
105	0xbdf32a5a	-0.11873312
106	0x3d929e7c	0.07159135
107	0xbc8fbc28	-0.017545775
108	0xbd3cefc4	-0.046127096
109	0x3dec6ad8	0.11543816
110	0x3dd451fa	0.10367198
111	0x3da222c4	0.07916787
112	0x3c94c008	0.018157974
113	0x3de9a5ae	0.11408554
114	0xbb95d3a0	-0.004572347
115	0x3d3caeb0	0.046065032
116	0xbcd825c8	-0.026385203
117	0x3dabc868	0.08387834
118	0xbd795c20	-0.060878873
119	0xbdbf8508	-0.093515456
120	0xbda123a2	-0.078681245
121	0x3d8651ae	0.06558548
122	0x3d8df1da	0.06930895
123	0xbde01f0c	-0.10943422
124	0x3db4d402	0.088295
125	0xbdf9cb4c	-0.12196979
126	0xbdef9f78	-0.11700338
127	0x3c1840c0	0.009292781
128	0x3d0f1978	0.0349364
129	0xbcfa6618	-0.03056626
130	0x3de19d7c	0.11016366
131	0xbc029a80	-0.007971406
132	0x3c456a30	0.012049243
133	0xbd9a6dbc	-0.075404614
134	0xbcf613d0	-0.030038744
135	0x3da85a1a	0.082203105
136	0xbd97937e	-0.07401179
137	0xbda2c64a	-0.07947977
138	0x3dabbb74	0.08385363
139	0xbd8f7a46	-0.07005744
140	0x3ddd2650	0.10798323
141	0x3ddc29fa	0.10750194
142	0x3d43a880	0.047768116
143	0xbd8f251c	-0.069895
144	0xbdc08902	-0.09401132
145	0x3dba0646	0.09083228
146	0xbb9cb9e0	-0.0047829
147	0x3daa9a3c	0.08330199
148	0xbd5beb9c	-0.05369149
149	0x3d8b349c	0.06797144
150	0x3d1596c0	0.03652072
151	0x3d2fe51c	0.042943105
152	0x3dd7aeae	0.105313644
153	0x3d6b15f8	0.057393998
154	0x3ce6a460	0.028154552
155	0x3b5e9340	0.003396228
156	0x3d586df4	0.052839234
157	0xbc7a2de0	-0.0152697265
158	0x3da28a3a	0.07936521
159	0xbdd7e9e2	-0.105426565
160	0xbbcce6a0	-0.0062530786
161	0x3d8ce198	0.06878966
162	0x3d8b0d9c	0.06789705
163	0xbb9b0660	-0.0047309846
164	0xbd9bd1b6	-0.076083586
165	0xbd2540a4	-0.04034485
166	0xbd1a8a08	-0.037729293
167	0xbd83951c	-0.06424925
168	0x3d085040	0.033279657
169	0xbdfe712c	-0.124239296
170	0x3dda1e84	0.10650352
171	0x3dda6416	0.10663621
172	0xbd9671ea	-0.07345946
173	0x3debd3fa	0.11515041
174	0x3dbfdd72	0.09368409
175	0x3dbdbdda	0.09264727
176	0xbd4d6974	-0.050149396
177	0x3d87cf08	0.06631285
178	0xbd5f64fc	-0.054539666
179	0xbdd09f00	-0.10186577
180	0xbc0a4e40	-0.008441508
181	0xbdcba2fe	-0.09943198
182	0xbd1d43cc	-0.038394734
183	0x3d49e8cc	0.049294278
184	0xbd900ffa	-0.07034297
185	0x3ae7c880	0.0017683655
186	0xbdc9838c	-0.09839544
187	0x3df6ee9a	0.120572284
188	0x3d99869e	0.07496379
189	0xbda353d8	-0.07974976
190	0xbcc6a858	-0.024250194
191	0xbdc91e08	-0.09820181
192	0x3df9e06c	0.12201008
193	0xbdd96f12	-0.10616888
194	0xbdb9261c	-0.09040472
195	0x3cd9db08	0.0265937
196	0xbc35be10	-0.011092678
197	0xbd5241d8	-0.051332325
198	0x3dbebe52	0.093136445
199	0xbc7ecd40	-0.015551865
200	0xba34f000	-0.0006902218
201	0xbd0b3a84	-0.03399135
202	0x3deac4b6	0.11463301
203	0x3dd83a0a	0.10557945
204	0xbdad6906	-0.08467297
205	0x3d188458	0.037235588
206	0xbd88e884	-0.06684974
207	0xbdf38e00	-0.11892319
208	0xbbd404e0	-0.0064703077
209	0x3d95650c	0.07294664
210	0x3dea9d20	0.114557505
211	0xbcd75fd0	-0.026290804
212	0xbdd82e50	-0.105557084
213	0xbde8ad04	-0.11361125
214	0xbdbaf644	-0.09129003
215	0xbd9bef6c	-0.076140255
216	0xbdb85d28	-0.09002143
217	0xbda68eba	-0.08132692
218	0x3df26696	0.11835973
219	0xbdced720	-0.100996256
220	0xbd04a988	-0.03238824
221	0x3d70ab10	0.058756888
222	0xbccb70f8	-0.024834141
223	0x3dc5a44e	0.09650479
224	0x3db160f0	0.086610675
225	0xbd004548	-0.03131607
226	0xbcf9c718	-0.030490443
227	0xbc163cc0	-0.009169757
228	0xbce93780	-0.028468847
229	0x3c002230	0.007820651
230	0x3ddd89a8	0.108172715
231	0xbdc9dd86	-0.09856705
232	0x3d87c4ba	0.066293195
233	0xbde07d62	-0.10961415
234	0x3dc5be94	0.096554905
235	0x3d9ec7c4	0.07752946
236	0x3d3b5b9c	0.045741662
237	0xbdf4203a	-0.11920209
238	0xbdfc054c	-0.12305698
239	0xbd88bbb2	-0.06676425
240	0xbda755a6	-0.08170633
241	0xbc6df1c0	-0.01452297
242	0x3cc8cdf8	0.024512276
243	0x3df776a0	0.12083173
244	0xbdbfeaae	-0.093709335
245	0xbddfdf5a	-0.10931273
246	0x3d2033b4	0.039111808
247	0x3d535de8	0.051603228
248	0xbc123e40	-0.008925974
249	0xbd1a4c4c	-0.03767042
250	0xbdaae304	-0.08344081
251	0x3dc6bdf4	0.097041994
252	0x3d9bf5e6	0.07615261
253	0xbcfe0320	-0.03100735
254	0xbd3a1af0	-0.045435846
255	0xbdbd7f78	-0.09252828

mean.bias f4 [6]
0	0x3c59a5c0	0.013284147
1	0x3c7dc280	0.015488267
2	0x3d3a2b4c	0.045451447
3	0xbd786018	-0.060638517
4	0xbc1da350	-0.009621456
5	0xbc4d9030	-0.012546584
