simple_saved_models/best_critic.pth (torch, 20912 bytes, 5 tensors)

critic.0.weight f4 [64, 4]
00000000: a358 833e b34a 193e b192 0b3f 44e3 e6be
00000010: fd38 cc3e f8a4 bbbc 50d7 1c3f 5403 983e
00000020: 992f d73d 3a0b 6c3e f01e 5f3c 34ed 42be
00000030: 66e5 a0be de1b 14bf 730c 0abf ea54 d4bd
00000040: e8f6 a4be 2c66 8f3e dc18 cbbe 2fda 9fbe
00000050: d24b 863f 2925 823f dc29 043f d0bd 583e
00000060: 292d ee3e ddc3 20bf 1e29 0ebf 2436 8dbe
00000070: 166f 08bf 106e 49bd 4855 c6be 0a20 5a3e
00000080: d595 18be 01a3 8b3e 1b9a f4bd ab7d a03c
00000090: 86fe cd3e 5891 f93d d48b e1bd aa43 1f3e
000000a0: d802 a13e 6f40 50be a4f0 cebe c0b7 583e
000000b0: c221 093f 6927 ed3d 786f aa3e d6ff ad3d
000000c0: faaf b63e f151 2a3f 6517 f83d d435 ebbd
000000d0: 01ef 97be 1ed2 30bf 099e f0be a8a9 5bbe
000000e0: a4b3 b63e e841 16be a08f 32be f02c 713e
000000f0: 26f8 4fbf d4e5 49bf 8dc4 58bd 2b4f fcbe
00000100: e7e5 e8be cf48 833e 3afd cabc a7f9 7b3e
00000110: 98c4 73be 6c52 e13e 2330 193e cc8f 333e
00000120: e10b c03d 9c1e fc3e 064c 4fbe 6ee1 85be
00000130: 19bd 0e3d fec6 21bf 161e 97be b0c2 2abd
00000140: 098f 1e3f 88e2 763e 1ce4 46be 1008 e1be
00000150: 04b1 033e 6a17 6abe c908 92be f2dd a43d
00000160: 0fef 18bf 392d e7be 0d9a 7fbe 1fa2 febd
00000170: 09c2 9b3e 4c71 153f 5420 13be 4906 95bb
00000180: 0854 063e ee91 7e3e 0b56 283e 5674 e93e
00000190: 1182 99be 51db 1d3e 1fda 1b3e fb29 b4be
000001a0: 9c35 5e3e cf16 973e 178c 113e 4a24 d93e
000001b0: 323c 9f3c de38 d63d ceee 08bd da93 703d
000001c0: 154d eb3d 91b5 7bbe b14d c83d bc82 75be
000001d0: fa2a 3e3e 0c88 4d3e 7834 b7be 5294 dd3e
000001e0: ae6a 8d3e 2a6a 98be f8e8 38be b803 b3bd
000001f0: 1ca6 a13e 7da2 91bd 1bb7 c23e fccc a5be
00000200: 6ef9 6dbf 5767 c63e a410 04be 2245 533c
00000210: 8a33 1bbf 5882 78bf 5857 d0be 232c 39be
00000220: 9ffc 47be 4488 95bf 35de d0be 4c37 8bbe
00000230: 14fb 24bf 8979 073e 4e77 4f3c d909 37be
00000240: ecb4 813d 5ab3 52bf 19e7 cfbe 750a 13be
00000250: 479b 163f 5f4c a73f bf5e 143f 63b3 a13e
00000260: 6d4f f4be fba8 0abd c9a2 063e 56df d93e
00000270: b501 96be 3d18 1fbf f554 d13e 8159 6b3e
00000280: 5cf6 9abe 93eb cbbd 3cb3 ec3e 5014 4f3e
00000290: 8d50 a4be a713 6dbe 2f76 3a3e 57e4 a2be
000002a0: ec13 a93e ccf4 103f 1beb 643c 72ae b13e
000002b0: 0859 edbe fa24 463f 53cf 4fbd 2551 b53e
000002c0: 3bea e03e 49de 8d3e 20ba b43e 29d2 873e
000002d0: bb47 1abf 8def fabe bcbb 8a3d cc90 b5be
000002e0: ad2e a53d f47d 66bf acb2 03bf 80cf 31be
000002f0: c2fc 0ebd 20c1 2abd 32da 21be 548d 1b3d
00000300: 98d0 183e ec95 9bbc f15d e1be b76a 55be
00000310: 0a99 223e e6d6 6c3d 2b05 67be 23a6 3ebe
00000320: 31db 7dbe 6c58 92bd 3b65 1dbe 7a8d c73c
00000330: 7b04 0f3e a0aa 56be 4b55 cebe dcd7 8ebe
00000340: 66e1 85bf e628 30bf c9c4 edbe 2e84 50be
00000350: 3bac 983e 8e2b 59be beda 183f fcb6 c43e
00000360: d33b 67bf ecc0 5bbf e0c3 d6be d245 72be
00000370: ef3e a9be 32d9 e3bd a041 bcbd c163 dc3e
00000380: bc0a 383f 8c27 5f3f d450 ec3e 4066 c43e
00000390: 8af9 3f3e 399c c13e 9574 03bf c8d1 bcbe
000003a0: cf60 ac3d f8e6 043f 5cbf a93e f891 763e
000003b0: d523 8dbe 3523 73bf 96b1 d23b bc4e 1f3e
000003c0: 57c0 22bf 66fe 0d3e 909d bfbe 5297 1dbe
000003d0: 8d3d 90bf ff1f 9bbf 88b3 2fbe fdae 85bd
000003e0: 9d8d e73e 88f6 e6be d94e 423e c470 de3d
000003f0: a4b2 90bf d80d aebe 1658 1cbf 28da 8dbe
0.25653562 0.14969902 0.5452071 -0.45095265 0.3988723 -0.022905812 0.6126604 0.2969004
0.105071254 0.23051158 0.013618216 -0.19035798 -0.31425017 -0.5785502 -0.53925246 -0.103677586
-0.32219625 0.28007638 -0.39667404 -0.31221148 1.0491889 1.016759 0.5162637 0.21166158
0.4651883 -0.62798864 -0.5553149 -0.2758037 -0.53294504 -0.04917723 -0.3873694 0.21301284
-0.14900906 0.272728 -0.11943456 0.019591173 0.40233248 0.12185925 -0.11012998 0.15553156
0.31447482 -0.2033708 -0.4041797 0.21163845 0.53567135 0.115797825 0.3328817 0.084960625
0.35681134 0.6653128 0.12113837 -0.11484876 -0.29674533 -0.69070613 -0.4699557 -0.21451437
0.3568393 -0.14673579 -0.17437601 0.23552299 -0.8123802 -0.78866315 -0.05292182 -0.4927915
-0.45487902 0.25641486 -0.024778951 0.24606954 -0.23805463 0.44008195 0.14959769 0.17535323
0.09377266 0.49242103 -0.20243844 -0.26148552 0.034848306 -0.63194263 -0.2951514 -0.041689575
0.61937004 0.24109852 -0.19422954 -0.43951464 0.12860495 -0.22860494 -0.28522328 0.08050145
-0.59739774 -0.4515169 -0.2496111 -0.12433266 0.30421475 0.58376 -0.14367801 -0.0045478684
0.13117993 0.24860355 0.16439073 0.4559657 -0.29982045 0.15415694 0.15219925 -0.3518828
0.21700138 0.2950959 0.14213596 0.424105 0.019437883 0.10460065 -0.033430867 0.058734752
0.114893116 -0.24580981 0.097804435 -0.23975652 0.18571082 0.20071429 -0.35782218 0.43277222
0.27620453 -0.29768497 -0.1805762 -0.08740944 0.31572044 -0.0711107 0.38030323 -0.32382953
-0.92958724 0.38750717 -0.12896973 0.0128949005 -0.6062552 -0.9707389 -0.40691638 -0.18083243
-0.19529961 -1.168221 -0.4079453 -0.27190626 -0.64445615 0.13229956 0.012662722 -0.1787485
0.06333336 -0.8230492 -0.40606 -0.14359458 0.58830684 1.3070182 0.5795707 0.31582174
-0.47716847 -0.03385256 0.13148035 0.42553204 -0.29298177 -0.6214636 0.4088513 0.22983362
-0.30266082 -0.099570416 0.46230495 0.20222592 -0.32092705 -0.23152028 0.18209146 -0.31814834
0.33023012 0.5662353 0.013972069 0.34703404 -0.46356988 0.7740017 -0.05073483 0.3541347
0.43928704 0.27708653 0.35298252 0.26527527 -0.602657 -0.49010888 0.06774089 -0.35462034
0.08065543 -0.9003594 -0.51444507 -0.17364311 -0.034909017 -0.041688085 -0.15805891 0.037976578
0.14923322 -0.018992387 -0.44016984 -0.2084149 0.15878692 0.05782213 -0.22560565 -0.18618064
-0.24790646 -0.071457714 -0.15370648 0.024359453 0.13966553 -0.20963526 -0.40299448 -0.27899063
-1.0459411 -0.68812406 -0.46439198 -0.20362923 0.298189 -0.21208021 0.59708774 0.38420856
-0.9032566 -0.8584125 -0.41946316 -0.23659447 -0.33055827 -0.11125411 -0.091922045 0.43044856
0.7189138 0.8716972 0.46155417 0.3835926 0.18747535 0.378145 -0.51349765 -0.368788
0.08416902 0.5191493 0.33153808 0.2407912 -0.275664 -0.94975597 0.0064298613 0.15557379
-0.6357474 0.13866577 -0.37424898 -0.15389755 -1.1268784 -1.211914 -0.1715833 -0.06527517
0.4522523 -0.45109963 0.1897539 0.10861352 -1.1304517 -0.33994937 -0.6107191 -0.27705503

critic.0.bias f4 [64]
00000000: 0400 1d3f d464 163f 58d7 213f 2bfe 87bd
00000010: c127 363f 5a1e 59be 9b63 7cbe 9754 ed3e
00000020: ffbb 383f 3fa4 3c3f 02b3 bb3e 4301 143f
00000030: 4769 613f 0cc3 0a3f 211a a8be a94c 5b3e
00000040: 9f7a 58be 4b9d 423f 97cd 013f 8f8f 3b3f
00000050: 71a9 35be da08 51be 6296 393f 652c 1c3f
00000060: 81ab 123e 9288 db3e 8477 6cbe 6f23 443f
00000070: 0db5 a8be d275 09bf d46a e0be 1952 ddbd
00000080: c970 a8be 936f 21be 5d7d d6be b42e 6f3f
00000090: 912b 033f e898 9dbe 3b22 473e f1e1 0e3f
000000a0: a41b fe3e 2ac7 c6be a170 b23e c8aa a1be
000000b0: d037 513f 0077 03be 3e95 8e3e 2633 033f
000000c0: 55f5 4d3f 2928 463f a976 233f 5c41 3d3f
000000d0: c524 81be 3e8b 523f 7a29 55be e90a d9be
000000e0: e506 d7bd b92a 443f ce12 5a3f 0f34 1a3f
000000f0: 6e6c 3e3f 4f19 56be 4621 ee3e 0b20 74be
0.6132815 0.587476 0.63219213 -0.066402756 0.7115441 -0.21202984 -0.24647371 0.463536
0.7216186 0.7368812 0.3666001 0.57814425 0.88051265 0.5420387 -0.32832435 0.21415962
-0.21140526 0.7602126 0.5070433 0.7326593 -0.17740418 -0.20413533 0.7249509 0.6100524
0.14323236 0.42877632 -0.23092467 0.7661657 -0.3295063 -0.53695405 -0.43831503 -0.108066745
-0.32898548 -0.15765218 -0.4189252 0.9343064 0.5123835 -0.3078072 0.19446652 0.5581351
0.49630463 -0.38823825 0.34851554 -0.31575608 0.8172579 -0.12838364 0.27848238 0.5124992
0.8045247 0.7740503 0.63852936 0.73927855 -0.25223365 0.82243717 -0.20816603 -0.42391136
-0.10499362 0.7662769 0.85184944 0.60235685 0.743842 -0.20908092 0.4650976 -0.23840348

critic.2.weight f4 [64, 64]
00000000: 76a0 20bd 6bc9 90bd 05c0 cc3b 3ae8 073f
00000010: 39fc 94bd 931b 353f 3f7e d93d 03b4 aa3c
00000020: 1a9a 02be c1e0 ddbd b265 ea3d 46d9 bc3c
00000030: 1ce4 a5bc 9393 39be 63a8 303e 8919 d83c
00000040: e2b8 aa3d 0a6e 7cbd d2a4 873d a1c5 f9bd
00000050: b606 963d 797d 3a3e a2d5 1fbe bee1 773d
00000060: 9e80 00be a1e9 bc3d 1b02 c23d aff3 b3bd
00000070: 4fb8 783c 9a2f 393e 8258 c4bd b638 40bd
00000080: 9231 903e 747b 0e3f 3473 663d 03c2 88bc
00000090: 98fa 78be a707 be3e 62df 223d 503c 5fbe
000000a0: 17af 9abd 200a eebd 499f f43d 909a 3f3e
000000b0: 5689 893c 88e3 733d 0370 83be 33d7 173b
000000c0: 8591 bcbd bec1 ddbb 6bad 1d3d b103 82bd
000000d0: 5685 803e dbc5 abbd 693b e43e 2fe2 353d
000000e0: 6a18 533f 3e13 a8bd af41 81bc 038e e9bd
000000f0: bb3b 00be 9529 223f 0ef3 38bd d67d fb3e
00000100: ae79 263e 8798 703e f12a 913e 2995 4d3d
00000110: da44 bb3e 6304 04bf abd8 b0bd 8aa8 763d
00000120: b31b ac3e 90fa 163e d3a2 823d c20b 8d3e
00000130: c8cc 5e3e 6e90 973e 6305 f3bd 7c8a db3d
00000140: 98e9 923d 47d6 553e 8d06 773e b707 c33e
00000150: 9e9d b1bb a483 bcbd e778 c43e d4ac 413e
00000160: 42cd a73d d608 813e b4e2 4b3d 5549 9f3e
00000170: ef0a 29be 2320 1ebe c876 b23d 5316 e8bc
00000180: df8d edbc 3c73 eabe 38c2 bfbe 13c7 3f3e
00000190: 2e35 d33e 443d 30be 77d0 3c3e d447 ca3e
000001a0: a97d d33e dfeb 383c cbc4 3a3e 6ff8 01bc
000001b0: d24b db3e c3e4 01be 7d08 db3d 5fc9 933e
000001c0: f2c7 be3e 91da ce3e 3357 993e cbb9 923e
000001d0: a17d d4be 59b8 c33e 25d9 adbe 5b8a 2abe
000001e0: 033a 13be 4202 cb3e 60fd 953e 8d5b b13e
000001f0: 8a60 9c3e 14d4 f9be 7957 7b3e 4649 01bf
00000200: a723 343e 0612 f53e c815 4b3e 9f21 9dbd
00000210: bfd3 783e cd33 b9be 5470 98bb bbf9 8e3d
00000220: f8e4 b63e 76e3 b33e 5bb1 b93d 49f4 b03e
00000230: e225 913e 966f 9d3e e466 ebbc 83e1 183d
00000240: 52f3 76b9 0f08 9a3e 939e 873e 6a9d dc3e
00000250: ccc5 a7bc 39c2 23be d820 ca3e 232a ca3e
00000260: 8a3d df3d b126 263e 4f0a 0d3e 29dd ee3e
00000270: 9371 02bd c317 2cbe 5a25 9ebd c41f e1bd
00000280: 395a 70be 7e16 e6be 8652 a3be e25f 9e3e
00000290: eab5 853e bd99 27be d4da 2dbc b792 e53e
000002a0: 4206 ed3e 999e 4dbd 6eec 5f3e 9dd1 65bd
000002b0: 277f 9b3e 5281 9b3d 5e80 033d 5c65 a63e
000002c0: 2090 7f3e 51fb 5e3e 8534 a13e c58a 923e
000002d0: 95a2 a4be 4f88 de3e ab14 c9be 0d9b 45be
000002e0: 4346 85be 5d8b 9b3e ce44 f33e 3c3e 8c3e
000002f0: 67e8 c63e 8ce2 19bf cc43 a43e 2c84 dabe
00000300: c7aa 953d 27b5 4fbd 6774 403d 78cd 3a3e
00000310: ca26 28be a15e 273f a626 a9bd cabb 20be
00000320: 65dd 3f3d c443 9fbd c293 273c 9878 983e
00000330: 0da2 e73d 26ed 07bf d443 c43d 692a 4dbd
00000340: be46 503d 6a1f c93b 253e ce3d 8e45 45be
00000350: 84e2 663b d229 be3d b567 9ebe b2bd 153e
00000360: 4470 933d ca73 b4bd 2b71 0d3e edf3 0abc
00000370: ac64 843c c78b 353e b6b1 8b3d 5ac8 ed3d
00000380: acb5 5b3e 945c 04bc 7843 003d 9eee 1fbe
00000390: bca9 52be 2cef 773e b9fb 2c3d 948c 39be
000003a0: 69fc 013c 1367 8dbd cfa9 1a3e 18ff b53c
000003b0: cc4f 03bc 9133 83be 77b8 53be 6b5e 8e3d
000003c0: a839 48be 606f 22be 58f3 2ebe 0ad3 8dbe
000003d0: cfc7 213e b5a4 123e fc49 f03d cce0 a9bc
000003e0: 6a9e 493f 270a 35be d17a 6bbd 9d0f a1be
000003f0: 7534 82be 74f4 f63d 91a2 0dbd 20ca b13d
-0.039215527 -0.070696674 0.0062484764 0.53088725 -0.0727467 0.707452 0.10619783 0.02083779
-0.12754098 -0.10833884 0.11445178 0.023052823 -0.020250373 -0.18122701 0.17251734 0.026379364
0.08336045 -0.06162838 0.06623234 -0.12195898 0.07325499 0.18211927 -0.15608838 0.06051802
-0.12549064 0.09224249 0.09473058 -0.08786713 0.015180661 0.18084565 -0.09587194 -0.046929084
0.2816282 0.55657125 0.05626221 -0.016694074 -0.24314344 0.37115213 0.039763816 -0.21800351
-0.07552927 -0.11623025 0.11944444 0.18711305 0.01678912 0.059543163 -0.25671396 0.002316904
-0.09207443 -0.0067674806 0.038495462 -0.0634836 0.25101727 -0.08387347 0.44576576 0.04440516
0.8245913 -0.08206795 -0.01577839 -0.1140404 -0.12522785 0.633447 -0.04515367 0.49119443
0.16257355 0.23495685 0.28353074 0.05019108 0.36575967 -0.51569194 -0.08635076 0.060219325
0.33614883 0.1474402 0.063787125 0.27548033 0.21757805 0.2960238 -0.11866262 0.10719773
0.07173461 0.20882522 0.24123593 0.38091823 -0.0054204008 -0.09204796 0.3837349 0.18913585
0.08193447 0.25202054 0.049776748 0.31110635 -0.16508077 -0.15441947 0.08714062 -0.028330958
-0.028998313 -0.45791042 -0.37452865 0.18728285 0.4125151 -0.17210871 0.18438898 0.39507926
0.4130681 0.011286705 0.18239133 -0.007932766 0.42831284 -0.12684922 0.106949784 0.2886457
0.3726192 0.40401128 0.2994934 0.28657374 -0.41502097 0.38226584 -0.3395473 -0.16654341
-0.14377598 0.3965016 0.29294872 0.3464016 0.30542403 -0.48794615 0.24545087 -0.5050243
0.17591725 0.47865313 0.19832528 -0.07672428 0.24299525 -0.36172333 -0.0046520624 0.06981226
0.35721564 0.35134476 0.09067031 0.34561375 0.28349215 0.30749196 -0.028735586 0.03732444
-0.00023551032 0.30084273 0.2648817 0.43088847 -0.02048006 -0.15992059 0.39478183 0.39485273
0.109004095 0.16225697 0.13773464 0.46653107 -0.031846594 -0.1680594 -0.07721968 -0.10992387
-0.23471917 -0.44939035 -0.31898898 0.30932528 0.26115352 -0.1636724 -0.010611255 0.44838497
0.46293837 -0.05020008 0.21867535 -0.056108106 0.30370447 0.07593025 0.032104842 0.32499206
0.24957323 0.21775557 0.31485382 0.28621498 -0.3215529 0.4346337 -0.3927358 -0.19297428
-0.26030168 0.30379763 0.4751343 0.2739123 0.38849184 -0.6011131 0.32082975 -0.42678964
0.07307964 -0.05070987 0.04698601 0.18242443 -0.16421047 0.6537877 -0.08259325 -0.15696636
0.046841998 -0.07776597 0.010228099 0.29779506 0.113102056 -0.53096235 0.0958325 -0.050089274
0.050848715 0.006137778 0.10070447 -0.19264814 0.0035230229 0.0928532 -0.30938497 0.14623144
0.07199147 -0.088111475 0.13812701 -0.008481008 0.016161285 0.17729102 0.06821005 0.1161048
0.21456021 -0.008078713 0.031314343 -0.15618369 -0.20572561 0.2421233 0.04223225 -0.18120033
0.007933714 -0.069044255 0.1510384 0.022216365 -0.0080146305 -0.2562528 -0.20675837 0.069516025
-0.19553244 -0.15862799 -0.17085016 -0.27700073 0.15798877 0.14320643 0.117328614 -0.020737074
0.78757346 -0.17679654 -0.057490174 -0.31457224 -0.25430647 0.120583445 -0.034578864 0.086811304

critic.2.bias f4 [64]
00000000: c2ad 26be 1935 d53e f73d b93e bdfb b6bd
00000010: ea34 72bd 3006 d33d 4d30 2fbe 90ec 24bd
00000020: 7679 d23e 1db2 c1bd 6258 4c3c cf6e 8b3e
00000030: d4ce 3bbe a707 ecbc 195c 11bd 94f7 2f3d
00000040: 80a5 3cbe 6a26 ac3e bef3 bd3e 8441 dabd
00000050: fc00 40be e3c4 933e 5f4f d1bd 6356 9a3d
00000060: d2fc fb3e 12c1 8d3e b71c 8cbd 5de5 b63d
00000070: 7d7c c7bc 26eb 8b3e c644 f9bc 8850 a93d
00000080: 7dce c23e 19f3 5f3e a6bf 9cbd fa83 963d
00000090: 35e3 e33e fcc3 9cbd 74c2 45be 8a9f 733e
000000a0: 9bed 9f3c 4a44 4dbd f9c7 793e 81a8 9d3e
000000b0: b5f7 823e c39c b43e 0096 d93e 2e8a 27be
000000c0: e7aa 8dbd 7e0a f9bd b1d7 f33e fc01 643d
000000d0: 5c29 a33e ca36 62be da50 59be 2020 cc3e
000000e0: 6f96 0a3e 18d1 b63e 1a6c a23d 3313 b33e
000000f0: c3ac 873e f0a7 1bbe 70bc 9abd 6c86 b8bd
-0.16277221 0.41642073 0.36180088 -0.08934734 -0.059132494 0.103039145 -0.17108269 -0.040264666
0.41108292 -0.094578005 0.012472244 0.27232978 -0.18340617 -0.028812243 -0.03548822 0.04296072
-0.18422508 0.33623058 0.37100023 -0.10657027 -0.18750376 0.2886115 -0.10220217 0.07536008
0.49216324 0.27686363 -0.068414144 0.08930466 -0.024351353 0.27327842 -0.030428302 0.08267313
0.38048163 0.21870078 -0.076537415 0.07349391 0.44509283 -0.076545686 -0.19312459 0.23791328
0.019522479 -0.050113954 0.2439269 0.3079262 0.2557961 0.3527585 0.42497253 -0.16361305
-0.06917363 -0.12160204 0.47625497 0.055665955 0.31867492 -0.22091213 -0.21222249 0.3986826
0.13533948 0.357064 0.07930775 0.34975585 0.26498994 -0.15200782 -0.07555473 -0.09010014

critic.4.weight f4 [1, 64]
00000000: 089d 05bf 3663 0a3f 6b2b fc3e 723c 13bf
00000010: 2709 10bf 3f77 c8be ca5f edbe 1e12 0ebf
00000020: 9542 033f 77a9 25bf 4604 e2be 062d f63e
00000030: 2a79 05bf cabd 28bf be73 2b3d 3c7e e1bd
00000040: 838d dfbe 128a 0e3f 86f1 013f 3fb0 12bf
00000050: 1ba3 07bf 6db6 163f 4796 20bf ecd7 be3e
00000060: 6aa3 e83e 861a 143f 5445 f7be 4d01 fcbe
00000070: e1f9 fbbe 9b05 053f dc76 17bf 6b26 67bd
00000080: aecc 053f a733 063f b838 d63d a82c 29bf
00000090: a2bd 0f3f 3ca0 3abd 4daf ffbe 006e 0b3f
000000a0: 8cbb 1abf caa4 9cbb f582 233f e7df c83e
000000b0: 6dce 143f a099 f23e a7b3 033f 17cb 56bf
000000c0: aee4 d53c 200a 8cbc bde2 f53e 72cc f5bd
000000d0: 9375 1f3f c12e edbe e883 f8be d200 053f
000000e0: 7d6c bdbe afbd 0b3f 9d61 0dbd 1ef3 113f
000000f0: 9df6 103f 4af8 4ebf 6e36 82bd 00c8 d3b8
-0.52192736 0.54057634 0.49251875 -0.5751411 -0.56263965 -0.39153478 -0.46362144 -0.55496395
0.5127347 -0.6471171 -0.44143885 0.48081225 -0.52138007 -0.65914595 0.041858427 -0.110104054
-0.43662652 0.5567943 0.5075916 -0.5730018 -0.52983254 0.5887211 -0.62729305 0.3727411
0.45437175 0.5785297 -0.4829508 -0.49219742 -0.4921408 0.5196168 -0.5916574 -0.056433123
0.5226544 0.52422565 0.10460037 -0.66083765 0.5614873 -0.045562968 -0.4993843 0.5446472
-0.60442424 -0.0047803866 0.638717 0.39233324 0.5812748 0.47382832 0.51446 -0.8390364
0.02611002 -0.017094672 0.4802455 -0.120018855 0.6228878 -0.46324733 -0.48538136 0.51954377
-0.36996832 0.5458631 -0.03451692 0.5701159 0.566263 -0.8084761 -0.06358038 -0.00010098517
