simple_saved_models/best_actor.pth (torch, 21157 bytes, 5 tensors)

actor.0.weight f4 [64, 4]
0	0xbe12fb7d	-0.14353748
1	0x3f0fd140	0.56178665
2	0xbea3873d	-0.31939116
3	0xbda806f3	-0.082044505
4	0xbe39981d	-0.18124433
5	0xbef860da	-0.48511392
6	0xbe8e5094	-0.2779585
7	0xbe9cdcc0	-0.3063717
8	0xbe24cb2e	-0.16093132
9	0x3f13214d	0.5747269
10	0x3c3dfca8	0.0115958825
11	0x3eada084	0.33911526
12	0xbd70018f	-0.058595236
13	0xbf386c62	-0.7204038
14	0xbdb9dea5	-0.09075669
15	0xbed3ba09	-0.4135287
16	0xbe297646	-0.16549024
17	0xbcbc2cf3	-0.022970652
18	0xbe03d311	-0.12873484
19	0xbe6abc93	-0.22923498
20	0xbef40aa7	-0.47664377
21	0x3de8cb84	0.113669425
22	0xbec6c979	-0.38825586
23	0xbe7d9890	-0.24765229
24	0x3f0917c4	0.5355189
25	0x3f043beb	0.5165393
26	0x3ea92c79	0.33041742
27	0xbd10ec5f	-0.03538167
28	0x3eed786a	0.4638093
29	0x3f59203d	0.84814817
30	0x3d8a4ebd	0.067532994
31	0x3eb7ac13	0.3587347
32	0x3ea74f2a	0.32677585
33	0xbef4c028	-0.47802854
34	0xbeb1d9ad	-0.34736386
35	0xbc6a04ba	-0.014283353
36	0xbe900639	-0.28129748
37	0x3f5fb2e8	0.87382364
38	0x3eb4d33a	0.35317403
39	0x3ac2c95a	0.0014861033
40	0xbecf71aa	-0.40516406
41	0xbf1406b6	-0.5782274
42	0xbf06bb34	-0.526294
43	0x3de76f8b	0.11300572
44	0x3dccad6e	0.099940166
45	0x3f588b54	0.845876
46	0x3eeef8f7	0.4667432
47	0x3ebc1db5	0.36741415
48	0x3dd292e0	0.102819204
49	0xbd9a065e	-0.07520746
50	0xbedf24c0	-0.43582726
51	0xbe82864a	-0.2549308
52	0x3de2e6c2	0.1107917
53	0xbe40937b	-0.1880626
54	0x3eb0e361	0.34548476
55	0xbd87cc4d	-0.06630764
56	0xbe2387f8	-0.15969837
57	0x3ecbd554	0.39811194
58	0x3e679861	0.22616722
59	0x3ef3fd27	0.47654077
60	0xbc90c2de	-0.017671045
61	0x3f85f589	1.0465556
62	0xbe5edfa2	-0.21764997
63	0x3e8fb8b7	0.28070614
64	0xbe067d9f	-0.13133858
65	0x3f6bfb67	0.92180485
66	0x3e04ad26	0.12956676
67	0x3d2805d0	0.04102117
68	0x3e813321	0.2523432
69	0x3e84b85f	0.25921914
70	0x3ee3a946	0.44465083
71	0xbe7c32ea	-0.24628797
72	0xbea8607b	-0.3288611
73	0xbf823fc2	-1.0175707
74	0xbe99a296	-0.30006856
75	0xbda79836	-0.08183329
76	0xbe14342e	-0.1447303
77	0xbee176e9	-0.44036034
78	0x3eca3b03	0.39498147
79	0xbe03ce39	-0.12871636
80	0xbed97217	-0.42469856
81	0xbf44a32a	-0.7681147
82	0xbf03ee08	-0.5153508
83	0x3da3c037	0.079956464
84	0x3edc8981	0.43073657
85	0xbe687332	-0.22700194
86	0xbe4282af	-0.18995164
87	0xbc7c07b6	-0.015382698
88	0x3ee361fa	0.44410688
89	0xbf55a4e8	-0.8345475
90	0x3e095c8a	0.13414207
91	0xbdde0c19	-0.10842151
92	0xbe2b43c6	-0.16725072
93	0x3f746187	0.95461315
94	0xbdf1ce50	-0.11806929
95	0xbdadd8af	-0.08488595
96	0x3ea4efec	0.32214296
97	0xbe4af0f0	-0.19818473
98	0x3f0b8ebd	0.54514676
99	0xbd210db3	-0.039319705
100	0x3f180715	0.59385806
101	0x3f0edbcd	0.5580414
102	0xbec8994a	-0.3917945
103	0x3ecb9ae2	0.39766604
104	0xbf01d117	-0.5070967
105	0x3e8c7424	0.27432358
106	0x3d5611d3	0.052263092
107	0xbe677de0	-0.22606611
108	0x3dc053f9	0.093910165
109	0x3f4e588d	0.8060387
110	0x3e8a0725	0.26958576
111	0xbe3aad86	-0.18230256
112	0x3f090316	0.53520334
113	0x3e864685	0.26225677
114	0x3da0dd91	0.078547604
115	0x3e666635	0.22499926
116	0x3e06f621	0.13179828
117	0xbf97996d	-1.1843697
118	0xbe1ce41a	-0.15321389
119	0xbd9f0c49	-0.07766015
120	0xbecb9f71	-0.39770082
121	0xbee7b0e6	-0.4525215
122	0xbe584237	-0.21119009
123	0x3ee9ae06	0.45640582
124	0xbe15873e	-0.14602372
125	0xbee86365	-0.45388332
126	0x3ec048a8	0.37555432
127	0xbe7e8f44	-0.24859339
128	0x3ede8bc3	0.43466005
129	0x3f6cbf94	0.92479825
130	0x3ec34768	0.38140416
131	0xbdb5553c	-0.08854148
132	0x3ed3ce33	0.41368255
133	0x3f04ab76	0.5182413
134	0xbe9459e4	-0.2897483
135	0xbeee915f	-0.46595284
136	0x3e2650ae	0.16241714
137	0x3f4256ba	0.75913584
138	0x3f059d26	0.52192914
139	0x3e831184	0.255993
140	0xbd3adff4	-0.045623735
141	0x3f21b4c1	0.63166434
142	0x3d941063	0.07229688
143	0x3b89a3fe	0.0042004576
144	0xbf18ca2e	-0.596835
145	0xbeb6107b	-0.3555945
146	0x3e31777f	0.1733074
147	0xbe8fd232	-0.28090054
148	0xbdc29ba7	-0.095023446
149	0xbf8ac8c8	-1.0842524
150	0xbe74d638	-0.23909843
151	0xbbcea5a4	-0.006306367
152	0x3ebaa2e9	0.36452416
153	0xbe70f7ff	-0.23532103
154	0xbebcd2dd	-0.36879626
155	0x3e55fcda	0.20897236
156	0xbed830c6	-0.4222471
157	0x3e3fd12a	0.18732134
158	0xbe8dc1ef	-0.27687022
159	0xbde804a8	-0.11329013
160	0xbba8715d	-0.005140467
161	0x3f37b471	0.71759707
162	0xbd862eb1	-0.065518744
163	0xbd4dec09	-0.05027393
164	0xbe23e3ca	-0.16004863
165	0xbee1cec3	-0.4410306
166	0xbe4f25c7	-0.20229255
167	0xbef5d7e3	-0.4801627
168	0x3e7b23af	0.24525331
169	0xbf63078f	-0.8868341
170	0x3cdee0bf	0.027206777
171	0xbe1a59f8	-0.15073383
172	0xbefeb7d7	-0.49749634
173	0xbf8dc923	-1.1077007
174	0x3e550de9	0.20806088
175	0xbe1cc214	-0.1530841
176	0x3e944805	0.28961197
177	0xbf861f53	-1.0478309
178	0xbeda3275	-0.4261662
179	0x3de892ef	0.1135615
180	0x3f59e0f3	0.8510887
181	0x3f67c6f0	0.9053793
182	0x3e7b14ae	0.24519607
183	0x3ebcbe3b	0.36863884
184	0xbe1ace02	-0.15117648
185	0x3f8964e8	1.0733919
186	0x3ee433b7	0.44570705
187	0x3de209f6	0.11037056
188	0x3e8aa98a	0.27082473
189	0xbf1723b3	-0.5903885
190	0xbcda71ba	-0.026665557
191	0xbeb83181	-0.35975268
192	0x3c78bc5c	0.015181627
193	0x3f15a202	0.5845033
194	0xbe75230a	-0.23939148
195	0xbe801a46	-0.25020045
196	0x3e6a537e	0.22883412
197	0x3f223b21	0.63371474
198	0x3e8985cc	0.2685989
199	0xbe83d845	-0.25750938
200	0xbf19450f	-0.59871
201	0x3e7cf702	0.24703601
202	0xbe09573e	-0.13412187
203	0x3e2b7a23	0.1674581
204	0xbed8972f	-0.42302844
205	0x3f11ae7f	0.56906885
206	0x3cd7a193	0.026322162
207	0x3ec3c0aa	0.3823293
208	0x3edd8bb4	0.43270648
209	0x3f72f85a	0.94910204
210	0x3ec62016	0.38696355
211	0x3ef2f323	0.47451124
212	0xbdacdd6c	-0.0844067
213	0x3ead88f7	0.33893558
214	0x3eb69828	0.3566296
215	0xbe8e2427	-0.27761957
216	0x3e94e450	0.2908044
217	0x3f6ea7de	0.93224895
218	0x3d12f353	0.035876583
219	0x3ed15dfd	0.4089202
220	0x3da23431	0.07920111
221	0xbe23c052	-0.15991333
222	0xbf133d37	-0.5751528
223	0xbdc73201	-0.09726334
224	0x3ed45ac8	0.4147551
225	0xbf906ffa	-1.1284173
226	0x3d7ddd3a	0.061978556
227	0xbed4986b	-0.41522536
228	0xbbb3967f	-0.005480587
229	0x3eac85c8	0.33695817
230	0x3c84a43a	0.01619159
231	0xbea46dc4	-0.32114995
232	0x3f3bfcdf	0.73432726
233	0xbe89180d	-0.26776162
234	0x3f040086	0.515633
235	0x3d548899	0.051888082
236	0xbd74ebfa	-0.059795357
237	0xbe6831a9	-0.22675194
238	0xbdc563c8	-0.096381724
239	0xbe711214	-0.23542053
240	0x3e1944e5	0.14967687
241	0xbf570a27	-0.83999866
242	0x3e832dce	0.25620884
243	0xbe30109f	-0.1719384
244	0x3f08ab06	0.5338596
245	0x3ea20d56	0.316508
246	0xbd52ab36	-0.05143281
247	0x3b70794a	0.0036693388
248	0xbe9288ad	-0.286199
249	0xbe96a667	-0.2942383
250	0x3d9f459c	0.07776949
251	0xbeb767d2	-0.35821396
252	0xbf07a70b	-0.5298926
253	0xbf7341ad	-0.9502209
254	0x3e7bde51	0.24596526
255	0xbeef1c80	-0.4670143

actor.0.bias f4 [64]
0	0x3e4efcb1	0.20213582
1	0xbec9ec5c	-0.3943814
2	0xbe4f3e21	-0.20238544
3	0xbe9e0737	-0.3086488
4	0xbe71bee2	-0.23607972
5	0x3f0503a9	0.5195871
6	0xbe801462	-0.2501555
7	0x3cd0eadb	0.025502613
8	0xbe6c6750	-0.23086286
9	0xbdb3111f	-0.087435
10	0x3ea50a06	0.3223421
11	0x3ea8a93d	0.3294162
12	0xbe8ac185	-0.2710077
13	0xbeab134c	-0.3341316
14	0xbe135a4a	-0.14389911
15	0x3ebfe276	0.37477463
16	0x3e44f5d3	0.192344
17	0xbe04f007	-0.12982188
18	0x3e767348	0.24067414
19	0xbeaf998e	-0.3429684
20	0x3de359fc	0.111011475
21	0xbec8481e	-0.3911752
22	0x3e8653bc	0.2623576
23	0x3d866eaa	0.06564076
24	0xbeae595b	-0.34052548
25	0xbeb8c672	-0.36088902
26	0xbecba4cb	-0.39774165
27	0x3cfea53f	0.031084655
28	0xbe5bb544	-0.21455866
29	0x3e2e6120	0.17029238
30	0xbe3a2ee1	-0.18181945
31	0xbec9a395	-0.39382616
32	0xbdba6910	-0.0910207
33	0xbee0db54	-0.43917334
34	0x3e6904a9	0.22755684
35	0x3ef906c6	0.4863798
36	0xbc5f638c	-0.013634574
37	0x3ee2fa72	0.443317
38	0xbed01cd4	-0.40646994
39	0xbe55dbea	-0.20884672
40	0x3d3ed8d1	0.04659349
41	0xbe93d908	-0.2887652
42	0x3ea68f3e	0.3253116
43	0x3e9c1ccb	0.30490717
44	0x3f081c37	0.5316805
45	0x3d1f6f9b	0.038924795
46	0x3e0abf39	0.13549508
47	0xbe544ea6	-0.20733127
48	0x3ecd2ec0	0.4007473
49	0x3e7ae18c	0.24500102
50	0xbee6588d	-0.44989434
51	0x3e774ad6	0.24149641
52	0x3e8315a4	0.25602448
53	0xbf029759	-0.5101219
54	0x3e5f39b9	0.21799363
55	0xbe9bb40a	-0.30410796
56	0x3ec56a85	0.3855783
57	0xbf0938be	-0.53602207
58	0x3e49f17a	0.19721022
59	0xbe514ca1	-0.20439388
60	0x3d3575c9	0.04430178
61	0xbe53da6c	-0.2068879
62	0xbe8d374f	-0.2758126
63	0x3e341706	0.17586908

actor.2.weight f4 [64, 64]
0	0x3c549d80	0.012977004
1	0x3d54e862	0.05197943
2	0xbd15eeaf	-0.03660458
3	0xbe3e64b6	-0.18593106
4	0xbd944982	-0.07240583
5	0xbde32ae3	-0.11092164
6	0x3dfed3d2	0.12442745
7	0x3d53544d	0.051594067
8	0xbd080072	-0.03320355
9	0x3eb74288	0.35792947
10	0x3cfa88df	0.030582843
11	0x3e248f0b	0.16070192
12	0x3d60dc54	0.05489762
13	0xbe063e1a	-0.13109627
14	0x3d69b050	0.05705291
15	0xbda03dfc	-0.078243226
16	0x3e60c3d6	0.21949705
17	0x3d2b8faf	0.041885074
18	0xbe29ab17	-0.16569172
19	0xbddf39cf	-0.10899698
20	0xbe45d6d8	-0.19320238
21	0x3cce4413	0.025178945
22	0xbdac89f7	-0.08424752
23	0x3e545d29	0.20738663
24	0x3c15dc6d	0.009146792
25	0x3b372441	0.0027945193
26	0xbce74d6a	-0.028235156
27	0x3d216487	0.03940251
28	0xbe435347	-0.19074737
29	0xbe4568ab	-0.19278209
30	0x3da5ee07	0.08102041
31	0x3cd4b1e9	0.02596374
32	0x3e443abe	0.19163033
33	0xbd25a543	-0.04044081
34	0x3e8992c4	0.26869786
35	0x3de0ac4a	0.109703615
36	0xbd108d14	-0.035290793
37	0xbdc02eb3	-0.09383907
38	0x3d182c4f	0.03715163
39	0x3e36ba95	0.17844613
40	0x3d807989	0.06273181
41	0xbe30a228	-0.17249358
42	0xbc2b19c2	-0.010443153
43	0x3c1b5879	0.009481543
44	0xbd3b8884	-0.04578449
45	0x3d837581	0.064188965
46	0x3e8f556b	0.27994856
47	0xbd9ea211	-0.077457555
48	0x3e0df834	0.13864213
49	0x3d36d059	0.04463229
50	0xbd43d706	-0.047812484
51	0xbc1fc90f	-0.009752526
52	0x3e80c95a	0.2515362
53	0x3dfcb837	0.12339824
54	0x3d2aa017	0.04165658
55	0x3e85bbf7	0.26119968
56	0xbd7febe2	-0.062480815
57	0x3dabfa58	0.08397359
58	0x3de1442a	0.109993294
59	0xbdf5888f	-0.11988937
60	0xbd8ec476	-0.06971066
61	0xbe343422	-0.17598012
62	0xbc1ddc4d	-0.009635043
63	0x3bc19d69	0.0059086573
64	0x3d6a032e	0.05713194
65	0x3d3636d9	0.0444859
66	0x3a889770	0.0010421108
67	0x3cb10e4c	0.021613263
68	0x3e1b85fe	0.15187833
69	0xbdce678c	-0.10078344
70	0x3c48dbb8	0.012259416
71	0x3e0b7f0c	0.13622683
72	0x3ca68bb7	0.020330293
73	0x3e1c79b7	0.15280806
74	0xbb9c2331	-0.0047649373
75	0x3e115de5	0.14195974
76	0x3dec314e	0.115328416
77	0xbe1fe730	-0.15615535
78	0xbcda36c5	-0.026637444
79	0x3d5b9dd8	0.05361733
80	0x3e2b9d21	0.16759159
81	0xbc6ffbe0	-0.014647454
82	0xbe0a9067	-0.13531648
83	0xbda6e2af	-0.08148705
84	0xbda18128	-0.07885963
85	0xbdf92ac1	-0.12166358
86	0x3d8b43f4	0.068000704
87	0x3d514333	0.051089477
88	0xbe407892	-0.18795994
89	0xbdbef944	-0.093248874
90	0xbd7aeecd	-0.061262894
91	0x3cfdf3c7	0.031000031
92	0xbd7fe146	-0.062470697
93	0xbe4cc978	-0.19998729
94	0xbc861e93	-0.016372
95	0x3d199657	0.03749689
96	0x3d9c5281	0.07632924
97	0xbd5220fa	-0.05130098
98	0x3e9a7934	0.30170596
99	0x3e1b8b59	0.15189876
100	0xbda0a308	-0.07843596
101	0x3c9d7a99	0.019223498
102	0x3d098cfe	0.033581726
103	0x3e218f56	0.15777335
104	0x3e0adfeb	0.1356198
105	0xbe1e5d73	-0.15465336
106	0x3da7cb41	0.081930645
107	0xbe4fb4c6	-0.20283803
108	0xbdc748e1	-0.097306974
109	0x3e0d22e1	0.13782836
110	0x3ec078dc	0.37592208
111	0xbd019bdf	-0.03164279
112	0xbcb0ff9b	-0.021606257
113	0x3dd5e8ca	0.104447916
114	0xbcb9c769	-0.022678094
115	0x3debaf39	0.115080304
116	0x3d676e2f	0.056501564
117	0x3c78784f	0.015165403
118	0x3e2258fc	0.15854257
119	0x3e084db3	0.1331089
120	0x3d627162	0.05528391
121	0x3e004818	0.12527502
122	0x3e234f59	0.15948237
123	0x3d6f3c85	0.058407325
124	0xbd78638a	-0.060641803
125	0xbe2a9270	-0.16657424
126	0xbd58522d	-0.052812744
127	0xbca71b3e	-0.020398732
128	0x3dd6b86a	0.10484393
129	0xbe44beb2	-0.1921337
130	0xbdac3e40	-0.08410311
131	0x3d303844	0.04302241
132	0xbc68dd71	-0.014212952
133	0x3e2947c2	0.1653128
134	0xbd95cbe9	-0.073142834
135	0xbe47fbe4	-0.19529682
136	0xbd6d37c3	-0.057914507
137	0xbd3c2695	-0.045935232
138	0xbd9330ce	-0.07187043
139	0xbde1ed23	-0.11031558
140	0xbe5bc043	-0.21460061
141	0x3e040059	0.12890758
142	0xbe027f13	-0.12743787
143	0xbd13a52c	-0.036046192
144	0xbd0ede66	-0.034880064
145	0x3d27c865	0.040962595
146	0x3e0309d1	0.12796713
147	0x3e4ccfcb	0.20001142
148	0x3e4e32d3	0.20136575
149	0xbd53dd66	-0.051724814
150	0xbb9fdec4	-0.0048788507
151	0xbd927e28	-0.07152969
152	0x3db2b754	0.08726373
153	0xbdbcb948	-0.09215027
154	0x3cb45155	0.022011438
155	0xbbcadcf0	-0.0061908886
156	0xbdd08e8f	-0.10183441
157	0x3e859ba3	0.26095304
158	0x3d9df5a5	0.077128686
159	0xbd929210	-0.071567655
160	0xbe4dd065	-0.20099027
161	0x3cf7493d	0.03018629
162	0xbe373d71	-0.17894532
163	0xbd462bf7	-0.048381772
164	0xbd3bb590	-0.04582745
165	0x3dcc3698	0.099713504
166	0xbe7b3ce6	-0.2453495
167	0xbdf07750	-0.11741507
168	0xbca483b5	-0.020082334
169	0xbd9dfdcf	-0.07714426
170	0x3c874caf	0.016516058
171	0x3cc8e5dc	0.024523668
172	0xbbb59784	-0.0055417437
173	0xbe2ed095	-0.17071755
174	0xbe0733ad	-0.13203306
175	0xbcde0201	-0.027100565
176	0x3daf229b	0.08551522
177	0xbd5042f7	-0.050845113
178	0xbe97b456	-0.29629773
179	0xbe0bf0a0	-0.1366601
180	0xbdc2d101	-0.095125206
181	0xbc83efba	-0.016105521
182	0xbda2c171	-0.07947052
183	0xbe3eb6e2	-0.18624452
184	0x3d5c497f	0.05378103
185	0x3d6124b5	0.054966647
186	0x3cf7d87e	0.030254599
187	0xbdacfff6	-0.08447258
188	0xbb810f74	-0.0039386097
189	0xbd1d8a8d	-0.03846221
190	0xbdb95981	-0.09050275
191	0x3e0d5a09	0.13803877
192	0xbd16d266	-0.036821745
193	0xbc813168	-0.015770629
194	0x3d8aac6f	0.0677117
195	0xbd699f48	-0.057036668
196	0x3be98499	0.0071264026
197	0x3c1afe6a	0.009460071
198	0x3df2c851	0.118546136
199	0x3d5450bc	0.051834807
200	0x3c569784	0.013097648
201	0x3de50adf	0.11183714
202	0x3bfb4db8	0.007669177
203	0xbd38bf86	-0.045104526
204	0x3c2c4237	0.010513834
205	0x3cf57475	0.029962758
206	0xbdec04a2	-0.11524321
207	0xbdf7cce4	-0.12099627
208	0xbe152183	-0.14563565
209	0xbb4bccd2	-0.0031097424
210	0xbe20dd13	-0.15709333
211	0x3be2fea4	0.006927328
212	0x3d4670f4	0.048447564
213	0x3d8cecd8	0.06881112
214	0x3c778a06	0.015108591
215	0xbe3cde97	-0.18444286
216	0x3dbc5b16	0.09197061
217	0x3dcd0c87	0.10012155
218	0x3d4abe33	0.049497794
219	0x3d6fdc59	0.05855975
220	0x3d8b8c30	0.06813848
221	0x3e1db8ba	0.15402499
222	0x3d67ad2b	0.05656163
223	0xbd9c2c07	-0.07625585
224	0xbd1cdb1e	-0.038294904
225	0xbd5e144e	-0.054218583
226	0xbd6835e6	-0.056692027
227	0xbe365467	-0.17805634
228	0x3dff28da	0.12458964
229	0x3d128b84	0.035777584
230	0x3ce83d5e	0.028349575
231	0xbe1baff4	-0.1520384
232	0x3d3c5e69	0.045988474
233	0x3d89c6f3	0.067274
234	0xbd732ae7	-0.059367087
235	0xbda7da44	-0.08195928
236	0xbbcbb476	-0.006216581
237	0xbe0173a6	-0.12641773
238	0xbdf69cfc	-0.12041661
239	0x3de2161d	0.11039374
240	0xbe1c1663	-0.15242915
241	0xbdbf426a	-0.09338839
242	0x3e0f5b4d	0.13999672
243	0x3d802366	0.06256752
244	0x3d466ce9	0.04844371
245	0x3d8da7d1	0.06916774
246	0xbdaf1c53	-0.08550324
247	0xbdd9b8be	-0.1063094
248	0xbd8dcf7b	-0.069243394
249	0x3d9ad0c3	0.075593494
250	0xbd9ee92c	-0.07759318
251	0xbd2e18d1	-0.042504136
252	0xbd8ee05d	-0.06976388
253	0x3c9f9f6b	0.019485196
254	0xbcbb99b4	-0.02290044
255	0x3dde6053	0.10858216

actor.2.bias f4 [64]
0	0x3d995656	0.074871704
1	0xbcfc683e	-0.030811425
2	0xbd343f1e	-0.044005506
3	0xbd175bed	-0.0369529
4	0xbcf5dd54	-0.030012764
5	0x3dc5fbc6	0.096671626
6	0x3c019318	0.007908605
7	0xbd12b022	-0.035812505
8	0x3c263c65	0.010146235
9	0xbdfcb3b9	-0.12338967
10	0xbd915d10	-0.070978284
11	0x3c32214b	0.0108721955
12	0x3e080ac3	0.13285355
13	0x3da62cc8	0.0811401
14	0x3d8f5dec	0.07000336
15	0xbc593a00	-0.013258457
16	0xbc8a7794	-0.016902722
17	0x3c2fa083	0.010719421
18	0x3d16ffb2	0.036864944
19	0x3d8b1276	0.067906305
20	0x3dc43411	0.095802434
21	0xbd1862eb	-0.03720371
22	0xbe149f51	-0.145139
23	0xbd5643bb	-0.052310687
24	0xbd0103d1	-0.03149778
25	0xbd34e265	-0.04416122
26	0x3dbf5362	0.09342076
27	0x3da6370c	0.08115968
28	0x3d8e0190	0.06933892
29	0x3d87e808	0.06636053
30	0x3dced08c	0.10098371
31	0xbdefc0cf	-0.11706697
32	0xbd1a52cf	-0.03767663
33	0x3db2b034	0.08725014
34	0x3e08760f	0.13326286
35	0x3ce1e7e4	0.027576394
36	0x3dc6c2b4	0.097051054
37	0xbd9908d7	-0.07472389
38	0xbde28afc	-0.110616654
39	0x3e13d8b9	0.14438142
40	0xbe06f3a8	-0.13178885
41	0xbcd2ead8	-0.025746748
42	0xbdb10753	-0.08643975
43	0x3dcd7c4c	0.10033473
44	0xbd111792	-0.03542287
45	0xbdc75e36	-0.09734766
46	0x3de0d71a	0.10978527
47	0xbc9d048c	-0.019167207
48	0x3d4203a7	0.047366764
49	0xbc883b93	-0.01662997
50	0xbdb061a8	-0.086123765
51	0xbd8b6b01	-0.06807519
52	0x3df64302	0.120244995
53	0x3cced689	0.025248783
54	0xbe1ec20e	-0.15503713
55	0x3dd266f9	0.10273547
56	0x3dabba9e	0.08385204
57	0x3d87b11f	0.0662558
58	0x3d6cdd9f	0.05782854
59	0xbd3b9fbc	-0.04580663
60	0xbcaf5076	-0.021400671
61	0xbca545cb	-0.020174881
62	0xbc8780a6	-0.016540837
63	0xbb035fd2	-0.0020046127

mean.weight f4 [1, 64]
0	0x3e951a85	0.29121795
1	0x3dc5846b	0.09644397
2	0xbe5b8327	-0.2143675
3	0xbdf1a5ff	-0.11799239
4	0xbe98c22e	-0.29835647
5	0x3e3ca213	0.18421201
6	0xbe7f3033	-0.2492073
7	0x3e34aaf8	0.17643344
8	0x3e25c5cb	0.16188733
9	0xbd4515f3	-0.048116636
10	0xbd39becb	-0.04534797
11	0xbe15cfe9	-0.14630093
12	0x3e6add30	0.22935939
13	0x3e90168d	0.28142205
14	0xbe5209f7	-0.20511614
15	0x3d0b0325	0.033938546
16	0x3e5f7950	0.21823621
17	0xbe43e92d	-0.19131918
18	0xbebe50a3	-0.37170896
19	0x3d91e8b9	0.071244664
20	0x3e6e8b6e	0.23295376
21	0x3e0661d0	0.1312325
22	0x3da8c3af	0.08240449
23	0x3da6f5da	0.08152361
24	0xbec8bd87	-0.39207098
25	0xbe01a35e	-0.12659976
26	0x3de19adc	0.11015865
27	0xbe9150ae	-0.28381866
28	0x3e56fc16	0.209946
29	0x3dc7e62f	0.09760701
30	0x3dd8fa98	0.10594672
31	0xbe3c706d	-0.18402262
32	0x3d29f2f0	0.04149145
33	0x3e586505	0.21132286
34	0xbe64ec77	-0.22355829
35	0xbe1fe28a	-0.15613762
36	0x3dedb20e	0.11606227
37	0xbd456add	-0.048197616
38	0xbde3904d	-0.111115076
39	0xbeb6e65d	-0.35722628
40	0xbe10c2cc	-0.14136809
41	0xbdf8e4ed	-0.12153039
42	0x3e00b3ed	0.12568636
43	0xbe741c32	-0.2383888
44	0x3e93cf71	0.28869203
45	0xbde1e6ac	-0.11030325
46	0xbe396a73	-0.18107013
47	0xbe60e54c	-0.2196247
48	0xbe86166e	-0.26188987
49	0xbea66d78	-0.32505393
50	0xbdbb600e	-0.0914918
51	0xbe7d1df1	-0.24718453
52	0xbe8f2660	-0.27958965
53	0xbe482f99	-0.19549407
54	0xbe28095b	-0.16409819
55	0x3dde58ea	0.10856803
56	0x3e57f7e9	0.21090664
57	0x3df537dd	0.11973546
58	0x3e99148a	0.29898483
59	0x3cb631d8	0.022240564
60	0xbe46032e	-0.1933715
61	0x3d9d1dd0	0.07671702
62	0x3d48466b	0.04889528
63	0xbe95cd03	-0.29257974
