simple_saved_models/final_actor_20241125_205643.pth (torch, 21408 bytes, 5 tensors)

actor.0.weight f4 [64, 4]
-0.15212576 0.5266769 -0.31288478 -0.08984353 -0.20346384 -0.46685404 -0.28315747 -0.30064133
-0.15778849 0.60489035 -0.0089957 0.3510328 -0.08403942 -0.7347654 -0.09478642 -0.40884477
-0.16582575 -0.0350289 -0.13590859 -0.22200066 -0.49470544 0.0828174 -0.3899771 -0.24929678
0.5347088 0.5381201 0.33558914 -0.04042963 0.4675908 0.85714805 0.06782762 0.35765883
0.32261777 -0.48432332 -0.3298538 -0.03242267 -0.26517528 0.8930137 0.35907698 -0.0025943536
-0.4106576 -0.5967058 -0.52545285 0.10859503 0.12700991 0.8648324 0.4742917 0.36280677
0.102819204 -0.07520746 -0.43582726 -0.2549308 0.11367959 -0.20475446 0.3426514 -0.06310098
-0.18295108 0.42398822 0.219396 0.48171142 -0.009139602 1.0554036 -0.21950795 0.28683707
-0.11008361 0.9418944 0.13378853 0.039236505 0.27155042 0.2662387 0.44632363 -0.24498054
-0.3484125 -1.0429422 -0.30319187 -0.08151376 -0.14598112 -0.49438104 0.40004405 -0.13194284
-0.42944857 -0.78515846 -0.5191791 0.08234028 0.43073657 -0.22700194 -0.18995164 -0.015382698
0.43568373 -0.8769609 0.13041036 -0.107019946 -0.12490868 0.9716525 -0.12135711 -0.07996842
0.3325689 -0.26110694 0.55096835 -0.04396555 0.5902005 0.60714954 -0.4093658 0.4085382
-0.51727295 0.2722705 0.05066523 -0.2244202 0.12513995 0.8361333 0.2738276 -0.18239705
0.5133832 0.28149074 0.070132606 0.23333204 0.110444136 -1.2070082 -0.15721354 -0.076294236
-0.39346582 -0.46380422 -0.21235551 0.456266 -0.18388218 -0.49033177 0.36141118 -0.23411919
0.46606743 0.94977206 0.383772 -0.08849007 0.40403208 0.47900146 -0.29986846 -0.4552156
0.18454161 0.78023666 0.52617484 0.25429708 -0.012425511 0.6169215 0.07850828 -0.0013668278
-0.6265205 -0.37987128 0.16598117 -0.27807957 -0.1142645 -1.109678 -0.24114417 -0.0068343407
0.3461074 -0.22888602 -0.37718606 0.21806319 -0.4222471 0.18732134 -0.27687022 -0.11329013
0.029455027 0.7363031 -0.06264999 -0.051969472 -0.17832403 -0.46295315 -0.20702848 -0.4751991
0.21872954 -0.91228825 0.03154298 -0.15725498 -0.5087228 -1.1305496 0.20157287 -0.15055819
0.26780397 -1.0678505 -0.4315608 0.1160682 0.86508685 0.91583234 0.24919225 0.36444068
-0.1262945 1.0929785 0.44606826 0.11168953 0.27360693 -0.63739914 -0.028168973 -0.3585734
0.041897517 0.5400931 -0.24629182 -0.24337746 0.25447297 0.6414525 0.28000847 -0.26250327
-0.65049434 0.3057789 -0.1375067 0.17288947 -0.38513753 0.57749414 0.03867326 0.37246153
0.4366169 0.970042 0.38893318 0.47673145 -0.08228569 0.36436105 0.3662269 -0.2882148
0.3095782 0.9389135 0.04161404 0.40599433 0.050789822 -0.14850621 -0.57508576 -0.09562135
0.4019184 -1.1539003 0.048449744 -0.40618783 -0.011742349 0.33296937 0.01770844 -0.32241836
0.767511 -0.24166174 0.49911138 0.07145451 -0.08862514 -0.23935722 -0.09772005 -0.23366795
0.12410689 -0.8670762 0.24659652 -0.16392922 0.5338596 0.316508 -0.05143281 0.0036693388
-0.29182634 -0.32661796 0.072181 -0.3528186 -0.5697759 -0.9739149 0.24266039 -0.4672906
00000000: dbc6 1bbe 4cd4 063f 6f32 a0be e2ff b7bd
00000010: d358 50be 7e07 efbe 04fa 90be a9ed 99be
00000020: 4e93 21be 18da 1a3f b362 13bc 92ba b33e
00000030: dc1c acbd 9619 3cbf 621f c2bd 1a54 d1be
00000040: 3ace 29be 777a 0fbd 9f2b 0bbe 2454 63be
00000050: 084a fdbe 2b9c a93d 14ab c7be a847 7fbe
00000060: ade2 083f 3dc2 093f 57d2 ab3e 8a99 25bd
00000070: 1068 ef3e 0e6e 5b3f 35e9 8a3d 0f1f b73e
00000080: 282e a53e 3af9 f7be 99e2 a8be a2cd 04bd
00000090: 0ec5 87be 8c9c 643f f0d8 b73e 0806 2abb
000000a0: b741 d2be b6c1 18bf 1484 06bf 1267 de3d
000000b0: e30e 023e a865 5d3f 5dd6 f23e cfc1 b93e
000000c0: e092 d23d 5e06 9abd c024 dfbe 4a86 82be
000000d0: d8d0 e83d 27ab 51be 0170 af3e 163b 81bd
000000e0: 8757 3bbe fc14 d93e 58a9 603e e1a2 f63e
000000f0: 45be 15bc 7717 873f b1c6 60be 4fdc 923e
00000100: 8473 e1bd fe1f 713f dcff 083e 75b6 203d
00000110: a808 8b3e 7050 883e 8884 e43e 2edc 7abe
00000120: 2063 b2be 217f 85bf f73b 9bbe b0f0 a6bd
00000130: 137c 15be 831f fdbe 93d2 cc3e 061c 07be
00000140: afe0 dbbe 2500 49bf ece8 04bf 05a2 a83d
00000150: 8189 dc3e 3273 68be af82 42be b607 7cbc
00000160: f011 df3e 8280 60bf 4b8a 053e 462d dbbd
00000170: 1fd0 ffbd 38be 783f 148a f8bd 7cc6 a3bd
00000180: 7946 aa3e cfaf 85be 430c 0d3f 3815 34bd
00000190: 6117 173f 276e 1b3f 6598 d1be eb2b d13e
000001a0: 006c 04bf 0a67 8b3e 5886 4f3d 69ce 65be
000001b0: b024 003e d50c 563f 2233 8c3e 4bc6 3abe
000001c0: 156d 033f 8e1f 903e afa1 8f3d 98ee 6e3e
000001d0: 8930 e23d 3f7f 9abf 96fc 20be 2740 9cbd
000001e0: 5a74 c9be bf77 edbe b973 59be b29b e93e
000001f0: 9c4b 3cbe c40c fbbe e30a b93e f1bc 6fbe
00000200: 64a0 ee3e 4324 733f c37d c43e 483a b5bd
00000210: 4bdd ce3e ae3f f53e 5c88 99be 0512 e9be
00000220: 7af8 3c3e 97bd 473f 65b3 063f 3a33 823e
00000230: 5f94 4bbc 91ee 1d3f f3c8 a03d 2127 b3ba
00000240: a663 20bf 7d7e c2be f8f6 293e 7260 8ebe
00000250: 8203 eabd ee09 8ebf 7fee 76be 9bf2 dfbb
00000260: fd34 b13e 1961 6abe 881e c1be f54b 5f3e
00000270: c630 d8be 2ad1 3f3e efc1 8dbe a804 e8bd
00000280: ab4b f13c 5c7e 3c3f a34e 80bd f1dd 54bd
00000290: 939a 36be 3208 edbe 46ff 53be 4c4d f3be
000002a0: a3fa 5f3e b98b 69bf 3633 013d 7307 21be
000002b0: a83b 02bf d9b5 90bf 1e69 4e3e ed2b 1abe
000002c0: 9a1d 893e 53af 88bf 8af5 dcbe 2ab5 ed3d
000002d0: 5576 5d3f fd73 6a3f 412c 7f3e f897 ba3e
000002e0: 5853 01be b8e6 8b3f 0f63 e43e 7bbd e43d
000002f0: 3516 8c3e 972c 23bf 9ec2 e6bc ef96 b7be
00000300: bb9c 2b3d 8b43 0a3f ec33 7cbe f137 79be
00000310: 484a 823e 3b36 243f 455d 8f3e d466 86be
00000320: cc86 26bf 0d8f 9c3e 8ece 0cbe f009 313e
00000330: bf30 c5be a8d6 133f da67 1e3d 47b3 be3e
00000340: 408c df3e ac54 783f 4022 c73e 2516 f43e
00000350: 6685 a8bd 888d ba3e 1882 bb3e e490 93be
00000360: 0981 9e3e a35c 703f 7c73 2a3d 7dde cf3e
00000370: fd08 503d 0312 18be d238 13bf 20d5 c3bd
00000380: 40c8 cd3e 01b3 93bf 3d73 463d daf7 cfbe
00000390: fb62 40bc f67a aa3e 4a11 913c 0514 a5be
000003a0: 9a7b 443f 2d76 77be 878b ff3e be56 923d
000003b0: 1981 b5bd 0f1a 75be 7321 c8bd a746 6fbe
000003c0: c12b fe3d b5f8 5dbf cc83 7c3e 10dd 27be
000003d0: 06ab 083f 560d a23e 36ab 52bd 4a79 703b
000003e0: 436a 95be 783a a7be a2d3 933d a4a4 b4be
000003f0: d5dc 11bf 7d52 79bf f77b 783e b740 efbe

actor.0.bias f4 [64]
0.19446155 -0.39834034 -0.19260664 -0.31260687 -0.24159558 0.51538265 -0.24416195 0.025353065
-0.24822047 -0.08367562 0.3254863 0.33222586 -0.2710077 -0.3396254 -0.15384956 0.3639962
0.19229868 -0.13958396 0.2396154 -0.33847535 0.10501309 -0.3911752 0.2518798 0.070305936
-0.33388743 -0.3513993 -0.39490607 0.045811042 -0.2039509 0.16969799 -0.17106806 -0.4103793
-0.08368352 -0.45333123 0.22745904 0.48147038 -0.023438893 0.44228315 -0.39452288 -0.20884672
0.04753273 -0.2937674 0.31534126 0.30538845 0.528226 0.051351823 0.13809033 -0.19914988
0.3908963 0.24117053 -0.44876504 0.24456817 0.25289047 -0.49868587 0.22491466 -0.30619147
0.39484495 -0.5311914 0.21115866 -0.20747639 0.026412683 -0.2068879 -0.27917585 0.15507364
00000000: ee20 473e 44f3 cbbe ad3a 45be 020e a0be
00000010: d564 77be 1ef0 033f 9705 7abe 3bb1 cf3c
00000020: 822d 7ebe 205e abbd 24a6 a63e 8219 aa3e
00000030: 85c1 8abe 61e3 adbe bd8a 1dbe b65d ba3e
00000040: f2e9 443e 19ef 0ebe bd5d 753e a44c adbe
00000050: 1a11 d73d 1e48 c8be 64f6 803e 8ffc 8f3d
00000060: 4bf3 aabe 9cea b3be 2131 cabe 5ca4 3b3d
00000070: 81d8 50be 4fc5 2d3e 772c 2fbe 3c1d d2be
00000080: 4462 abbd 081b e8be 06eb 683e 4983 f63e
00000090: ec02 c0bc f072 e23e e7fe c9be eadb 55be
000000a0: aeb1 423d ae68 96be 6974 a13e e05b 9c3e
000000b0: d239 073f 4a56 523d 8d67 0d3e f2ed 4bbe
000000c0: 8f23 c83e 68f5 763e 88c4 e5be 1470 7a3e
000000d0: dc7a 813e c153 ffbe 0750 663e 21c5 9cbe
000000e0: 1e29 ca3e 29fc 07bf fa39 583e b174 54be
000000f0: 695f d83c 6cda 53be 23f0 8ebe a0cb 1e3e

actor.2.weight f4 [64, 64]
0.010853518 0.03173792 -0.033437733 -0.18619773 -0.0761084 -0.11271609 0.12198015 0.047781773
-0.032510575 0.3648939 0.026028458 0.15985663 0.05489762 -0.13680087 0.05881959 -0.082022265
0.22054665 0.04274321 -0.17180003 -0.11628515 -0.19816989 0.025178945 -0.081481405 0.20715143
0.0032313631 0.0073999222 -0.033624038 0.044674907 -0.19116643 -0.19620407 0.08144498 0.021019006
0.19606988 -0.043906417 0.2711538 0.10945374 -0.03682504 -0.09723276 0.035773586 0.17844613
0.064927556 -0.17194088 -0.007915599 0.0085963495 -0.049377047 0.061352525 0.2842117 -0.077097625
0.13890055 0.049689252 -0.017261095 -0.013487448 0.25002664 0.1198802 0.03914092 0.26148483
-0.062318888 0.07747121 0.11477397 -0.12341434 -0.06628088 -0.17598012 -0.009338073 0.008713993
0.053851075 0.026761156 0.0038729946 0.022276437 0.14945269 -0.104599155 0.010871734 0.1320877
0.021036519 0.16047955 -0.010562597 0.1396491 0.115328416 -0.16049854 -0.025196986 0.04912328
0.16760862 -0.013346605 -0.14433292 -0.087449215 -0.08446962 -0.12166358 0.06801635 0.050732344
-0.19261342 -0.08896727 -0.06533045 0.036283106 -0.06306724 -0.20723906 -0.016270012 0.033755187
0.08130852 -0.053522885 0.30238464 0.14966646 -0.08012143 0.01316329 0.03201192 0.15777335
0.13769473 -0.15316984 0.081746474 -0.20611034 -0.10302875 0.13463491 0.37979206 -0.030847479
-0.023062203 0.10841697 0.0073963096 0.11082294 0.054246373 0.012872764 0.15556502 0.13327931
0.053323902 0.12017199 0.16162947 0.05603545 -0.058798905 -0.16657424 -0.051665243 -0.018748643
0.10097462 -0.17058624 -0.08410311 0.044506494 -0.009848226 0.164808 -0.07019854 -0.20605488
-0.057914507 -0.053381685 -0.07818333 -0.124893904 -0.21460061 0.1354895 -0.12743787 -0.043805245
-0.040445246 0.04128526 0.13046175 0.20849723 0.18914473 -0.051724814 -0.00655779 -0.07108528
0.09444364 -0.09215027 0.028049253 -0.0067424495 -0.10183441 0.26156563 0.077298015 -0.06563775
-0.2048519 0.034203228 -0.1914646 -0.05247476 -0.041819923 0.097222395 -0.2453495 -0.11741507
-0.0222221 -0.07673827 0.01557197 0.025815163 -0.010781781 -0.19714016 -0.13830902 -0.02581683
0.084207095 -0.05134457 -0.29629773 -0.15509585 -0.12122406 -0.011947084 -0.10572639 -0.18624452
0.054113626 0.062188365 0.02574871 -0.08023739 -0.002263683 -0.03846221 -0.089888975 0.14109148
-0.036821745 -0.015770629 0.0677117 -0.057036668 0.0071264026 0.009460071 0.118546136 0.051834807
0.013097648 0.11183714 0.007669177 -0.045104526 0.010513834 0.029962758 -0.11524321 -0.12099627
-0.14563565 -0.0031097424 -0.15709333 0.006927328 0.048447564 0.06881112 0.015108591 -0.18444286
0.09197061 0.10012155 0.049497794 0.05855975 0.06813848 0.15402499 0.05656163 -0.07625585
-0.038294904 -0.054218583 -0.056692027 -0.17805634 0.12458964 0.035777584 0.028349575 -0.1520384
0.045988474 0.067274 -0.059367087 -0.08195928 -0.006216581 -0.12641773 -0.12041661 0.11039374
-0.15242915 -0.09338839 0.13999672 0.06256752 0.04844371 0.06916774 -0.08550324 -0.1063094
-0.069243394 0.075593494 -0.07759318 -0.042504136 -0.06976388 0.019485196 -0.02290044 0.10858216
00000000: f4d2 313c 9fff 013d 01f6 08bd 9eaa 3ebe
00000010: b9de 9bbd b2d7 e6bd bbd0 f93d d2b6 433d
00000020: cf29 05bd 60d3 ba3e a239 d53c 75b1 233e
00000030: 54dc 603d 8715 0cbe cfec 703d 4afb a7bd
00000040: fbd6 613e 8113 2f3d 59ec 2fbe e926 eebd
00000050: 0ced 4abe 1344 ce3c b9df a6bd 811f 543e
00000060: 47c5 533b 0c7b f23b 5cb9 09bd 09fd 363d
00000070: 22c1 43be b8e9 48be a0cc a63d 0d30 ac3c
00000080: 8bc6 483e 37d7 33bd acd4 8a3e 4829 e03d
00000090: dad5 16bd f821 c7bd 5387 123d 95ba 363e
000000a0: bdf8 843d 4511 30be 6eb0 01bc b4d7 0c3c
000000b0: 963f 4abd c94c 7b3d 3284 913e 5ce5 9dbd
000000c0: f23b 0e3e f586 4b3d 2467 8dbc 75fa 5cbc
000000d0: 7e03 803e c083 f53d 3b52 203d 57e1 853e
000000e0: 1742 7fbd 3aa9 9e3d 9d0e eb3d a8c0 fcbd
000000f0: 45be 87bd 2234 34be b8fe 18bc 23c5 0e3c
00000100: f292 5c3d 363a db3c 11d2 7d3b 137d b63c
00000110: 200a 193e 1538 d6bd 5b1f 323c ff41 073e
00000120: c754 ac3c c054 243e be0e 2dbc 2c00 0f3e
00000130: 4e31 ec3d bb59 24be e969 cebc 7e35 493d
00000140: 98a1 2b3e b8ab 5abc 02cc 13be 9318 b3bd
00000150: 68fe acbd c12a f9bd 284c 8b3d b8cc 4f3d
00000160: 743c 45be 7934 b6bd f9cb 85bd 989d 143d
00000170: 6629 81bd 7a36 54be b048 85bc e142 0a3d
00000180: 1585 a63d d03a 5bbd 29d2 9a3e 2a42 193e
00000190: b416 a4bd d7aa 573c ee1e 033d 568f 213e
000001a0: d9ff 0c3e 8ed8 1cbe b26a a73d 970e 53be
000001b0: bd00 d3bd bcdd 093e 1b74 c23e dab3 fcbc
000001c0: f2ec bcbc b709 de3d be5c f23b 23f7 e23d
000001d0: 7231 5e3d 49e8 523c 704c 1f3e 5f7a 083e
000001e0: 2a6a 5a3d bb1c f63d 3282 253e 6e85 653d
000001f0: 1fd7 70bd 7092 2abe ef9e 53bd c196 99bc
00000200: c8cb ce3d 29ae 2ebe 403e acbd 714c 363d
00000210: 745a 21bc 6ec3 283e 41c4 8fbd 0d00 53be
00000220: c337 6dbd c1a6 5abd 951e a0bd 60c8 ffbd
00000230: 43c0 5bbe c2bd 0a3e 137f 02be 216d 33bd
00000240: eaa9 25bd bc1a 293d c497 053e 4c80 553e
00000250: 28af 413e 66dd 53bd bbe2 d6bb 2995 91bd
00000260: ab6b c13d 48b9 bcbd 8cc7 e53c c4ef dcbb
00000270: 8f8e d0bd eeeb 853e 6c4e 9e3d 166d 86bd
00000280: b2c4 51be af18 0c3d 4c0f 44be c6ef 56bd
00000290: 5e4b 2bbd 891c c73d e63c 7bbe 5077 f0bd
000002a0: 1f0b b6bc f428 9dbd 9321 7f3c 527a d33c
000002b0: 11a6 30bc 1cdf 49be e1a0 0dbe d17d d3bc
000002c0: c574 ac3d af4e 52bd 56b4 97be 72d1 1ebe
000002d0: 5244 f8bd b4bd 43bc 1487 d8bd e2b6 3ebe
000002e0: 40a6 5d3d 3ab9 7e3d f5ee d23c 8053 a4bd
000002f0: 4c5a 14bb 8d8a 1dbd b617 b8bd 497a 103e
00000300: 66d2 16bd 6831 81bc 6fac 8a3d 489f 69bd
00000310: 9984 e93b 6afe 1a3c 51c8 f23d bc50 543d
00000320: 8497 563c df0a e53d b84d fb3b 86bf 38bd
00000330: 3742 2c3c 7574 f53c a204 ecbd e4cc f7bd
00000340: 8321 15be d2cc 4bbb 13dd 20be a4fe e23b
00000350: f470 463d d8ec 8c3d 068a 773c 97de 3cbe
00000360: 165b bc3d 870c cd3d 33be 4a3d 59dc 6f3d
00000370: 308c 8b3d bab8 1d3e 2bad 673d 072c 9cbd
00000380: 1edb 1cbd 4e14 5ebd e635 68bd 6754 36be
00000390: da28 ff3d 848b 123d 5e3d e83c f4af 1bbe
000003a0: 695e 3c3d f3c6 893d e72a 73bd 44da a7bd
000003b0: 76b4 cbbb a673 01be fc9c f6bd 1d16 e23d
000003c0: 6316 1cbe 6a42 bfbd 4d5b 0f3e 6623 803d
000003d0: e96c 463d d1a7 8d3d 531c afbd beb8 d9bd
000003e0: 7bcf 8dbd c3d0 9a3d 2ce9 9ebd d118 2ebd
000003f0: 5de0 8ebd 6b9f 9f3c b499 bbbc 5360 de3d

actor.2.bias f4 [64]
0.07389581 -0.034079295 -0.04766836 -0.0369529 -0.030012764 0.09563492 0.011389762 -0.0470077
0.010357812 -0.12338967 -0.070978284 0.007696458 0.13322638 0.079471946 0.073422246 -0.013258457
-0.009099921 0.0061313873 0.030247342 0.06700891 0.09511105 -0.039934076 -0.15160772 -0.052310687
-0.03003286 -0.04416122 0.09734423 0.08168127 0.065925464 0.06636053 0.09940399 -0.11706697
-0.03767663 0.086809546 0.13383825 0.027576394 0.097051054 -0.07472389 -0.110616654 0.13415132
-0.13178885 -0.020995134 -0.08706675 0.09325298 -0.03341598 -0.09734766 0.1131802 -0.025957251
0.04682935 -0.022283178 -0.08435648 -0.06807519 0.1287911 0.028667204 -0.15503713 0.0992193
0.07720807 0.06639862 0.059356786 -0.04580663 -0.021372532 -0.020174881 -0.014944264 -0.0060957638
00000000: b056 973d bb96 0bbd e63f 43bd ed5b 17bd
00000010: 54dd f5bc 3edc c33d 209c 3a3c 258b 40bd
00000020: d0b3 293c b9b3 fcbd 105d 91bd 9232 fc3b
00000030: 7f6c 083e 30c2 a23d 675e 963d 003a 59bc
00000040: d617 15bc cee9 c83b 46c9 f73c f83b 893d
00000050: 95c9 c23d ea91 23bd 0e3f 1bbe bb43 56bd
00000060: 7907 f6bc 65e2 34bd 695c c73d 8248 a73d
00000070: ee03 873d 08e8 873d 5294 cb3d cfc0 efbd
00000080: cf52 1abd 34c9 b13d e50c 093e e4e7 e13c
00000090: b4c2 c63d d708 99bd fc8a e2bd f75e 093e
000000a0: a8f3 06be fdfd abbc 0d50 b2bd 6bfb be3d
000000b0: 32df 08bd 365e c7bd 05cb e73d 4da4 d4bc
000000c0: 22d0 3f3d 368b b6bc 17c3 acbd 016b 8bbd
000000d0: d0e1 033e 7cd7 ea3c 0ec2 1ebe 7d33 cb3d
000000e0: 441f 9e3d 00fc 873d 1a20 733d bc9f 3bbd
000000f0: 7315 afbc cb45 a5bc c9d8 74bc f9be c7bb

mean.weight f4 [1, 64]
0.2936529 0.096552506 -0.22660774 -0.11799239 -0.29835647 0.18369496 -0.25701094 0.18476391
0.16182078 -0.048116636 -0.04534797 -0.13443168 0.2322565 0.28168207 -0.21263863 0.033938546
0.23255418 -0.19962674 -0.39373833 0.07112082 0.23310894 0.13027424 0.07236592 0.08152361
-0.41104862 -0.12659976 0.10820051 -0.29342043 0.20942566 0.09760701 0.103332736 -0.18402262
0.04149145 0.21085261 -0.23678441 -0.15613762 0.11606227 -0.048197616 -0.111115076 -0.37488165
-0.14136809 -0.12731881 0.1277694 -0.24572156 0.29330453 -0.11030325 -0.18579382 -0.2310909
-0.27678576 -0.3500274 -0.12172977 -0.24718453 -0.29143348 -0.20132619 -0.16409819 0.10831309
0.2170596 0.12446684 0.30478337 0.022240564 -0.20707291 0.07671702 0.039179645 -0.306857
00000000: ac59 963e 52bd c53d dc0b 68be ffa5 f1bd
00000010: 2ec2 98be 881a 3c3e f096 83be c032 3d3e
00000020: 59b4 253e f315 45bd cbbe 39bd 75a8 09be
00000030: a6d4 6d3e a238 903e f1bd 59be 2503 0b3d
00000040: af22 6e3e f46a 4cbe 1298 c9be cba7 913d
00000050: 1cb4 6e3e 9c66 053e 9534 943d daf5 a63d
00000060: f774 d2be 5ea3 01be 3b98 dd3d 343b 96be
00000070: ae73 563e 2fe6 c73d 1da0 d33d 6d70 3cbe
00000080: f0f2 293d bfe9 573e 9d77 72be 8ae2 1fbe
00000090: 0eb2 ed3d dd6a 45bd 4d90 e3bd 7df0 bfbe
000000a0: ccc2 10be dd5f 02be fbd5 023e 6f9e 7bbe
000000b0: 032c 963e ace6 e1bd bc40 3ebe 18a3 6cbe
000000c0: ddb6 8dbe cb36 b3be 754d f9bd f11d 7dbe
000000d0: c536 95be 7428 4ebe 5b09 28be 41d3 dd3d
000000e0: df44 5e3e 78e8 fe3d 910c 9c3e d831 b63c
000000f0: ec0a 54be d01d 9d3d d67a 203d 5c1c 9dbe
