simple_saved_models/final_critic_20241125_205643.pth (torch, 21146 bytes, 5 tensors)

critic.0.weight f4 [64, 4]
0	0x3e83ade0	0.25718594
1	0x3e1826a4	0.1485849
2	0x3f0ad1b8	0.54226255
3	0xbee63500	-0.4496231
4	0x3ecc368e	0.39885372
5	0xbcbdab4d	-0.023152972
6	0x3f1cd58b	0.6126334
7	0x3e97feea	0.29686671
8	0x3dd71699	0.10502357
9	0x3e6bcd54	0.23027545
10	0x3c5e55c1	0.01357025
11	0xbe42f0e9	-0.19037212
12	0xbea08434	-0.31350863
13	0xbf0fe60f	-0.56210417
14	0xbf09f6e9	-0.5389238
15	0xbdd2d228	-0.102939904
16	0xbea4fb40	-0.3222294
17	0x3e8f4637	0.27983257
18	0xbecb1dd4	-0.39671195
19	0xbe9fdd54	-0.31223547
20	0x3f864bd2	1.0491889
21	0x3f822529	1.016759
22	0x3f0429dc	0.5162637
23	0x3e58bdd0	0.21166158
24	0x3eee2d29	0.4651883
25	0xbf20c3dd	-0.62798864
26	0xbf0e291e	-0.5553149
27	0xbe8d3624	-0.2758037
28	0xbf0801e5	-0.5312789
29	0xbd2c7c29	-0.042110596
30	0xbec6c15c	-0.38819396
31	0x3e5cff08	0.21581662
32	0xbe189dc3	-0.14903931
33	0x3e8b82ec	0.27248323
34	0xbdf4a738	-0.11945957
35	0x3ca03022	0.019554202
36	0x3ece0b69	0.4024308
37	0x3df7c381	0.12097836
38	0xbde0b356	-0.109717056
39	0x3e1ec9bb	0.15506642
40	0x3ea18f34	0.31554568
41	0xbe47d2c8	-0.19514
42	0xbecd1e97	-0.400624
43	0x3e5664e2	0.20936921
44	0x3f091ec9	0.535626
45	0x3decab5b	0.11556121
46	0x3eaa6aec	0.332847
47	0x3dadf1ae	0.08493362
48	0x3eb6ac8b	0.35678515
49	0x3f2a41ec	0.6650684
50	0x3df803e4	0.12110117
51	0xbdeb42c2	-0.114873424
52	0xbe97f58a	-0.2967952
53	0xbf30e189	-0.6909414
54	0xbef0a1f8	-0.46998572
55	0xbe5bb1f7	-0.21454607
56	0x3eb546da	0.35405618
57	0xbe130b64	-0.14359814
58	0xbe33a36d	-0.1754281
59	0x3e71a380	0.23597527
60	0xbf50be18	-0.8154006
61	0xbf48c7b1	-0.78429705
62	0xbd67767e	-0.056509487
63	0xbefad40d	-0.48989907
64	0xbee75cc8	-0.45187974
65	0x3e7749b6	0.24149212
66	0xbcd3eee8	-0.025870755
67	0x3e7bb057	0.24578987
68	0xbe73cd65	-0.2380882
69	0x3ee1326e	0.43983787
70	0x3e192a61	0.14957573
71	0x3e33857b	0.17531388
72	0x3dc0b35d	0.09409211
73	0x3efafaf3	0.49019584
74	0xbe4ff312	-0.20307568
75	0xbe859894	-0.2609297
76	0x3d0e966a	0.034811415
77	0xbf21d6bf	-0.632183
78	0xbe972142	-0.2951756
79	0xbd2aea97	-0.04172763
80	0x3f1e0c1c	0.6173723
81	0x3e6500c1	0.22363569
82	0xbe46ecf7	-0.19426332
83	0xbee131cd	-0.43983307
84	0x3e01a1b8	0.12659347
85	0xbe62a438	-0.22132957
86	0xbe92b947	-0.2865698
87	0x3da5d241	0.080967434
88	0xbf18f159	-0.5974327
89	0xbee74d0e	-0.45175976
90	0xbe7fa215	-0.24964173
91	0xbdfeb2bf	-0.12436437
92	0x3e9bbe96	0.30418843
93	0x3f156119	0.58351284
94	0xbe1326fc	-0.1437034
95	0xbb963938	-0.0045844577
96	0x3e059805	0.13046272
97	0x3e810e5c	0.25206268
98	0x3e28c988	0.16483128
99	0x3ee8c2cd	0.4546112
100	0xbe9a4eff	-0.30138394
101	0x3e1d2d72	0.15349367
102	0x3e1c483b	0.15261929
103	0xbeb4b5a0	-0.3529482
104	0x3e62a8de	0.2213473
105	0x3e97077b	0.29497895
106	0x3e116ad3	0.14200906
107	0x3ed927a7	0.42413065
108	0x3c9f03d1	0.019411
109	0x3dd5b81e	0.10435508
110	0xbd0909a8	-0.033456475
111	0x3d706dc6	0.058698438
112	0x3e017032	0.12640455
113	0xbe731c7f	-0.23741339
114	0x3dce2055	0.100647606
115	0xbe756e0e	-0.23967764
116	0x3e3dbf2b	0.18529956
117	0x3e499eca	0.1968948
118	0xbeb81acb	-0.3595794
119	0x3edd9d98	0.43284297
120	0x3e8d6aae	0.27620453
121	0xbe986a2a	-0.29768497
122	0xbe38e8f8	-0.1805762
123	0xbdb303b8	-0.08740944
124	0x3e9e10fa	0.30872327
125	0xbd58ea99	-0.052958105
126	0x3ebf2996	0.37336415
127	0xbea2a313	-0.3176504
128	0xbf6df96e	-0.92958724
129	0x3ec66757	0.38750717
130	0xbe0410a4	-0.12896973
131	0x3c534522	0.0128949005
132	0xbf1b338a	-0.6062552
133	0xbf788258	-0.9707389
134	0xbed05758	-0.40691638
135	0xbe392c23	-0.18083243
136	0xbe47fc9f	-0.19529961
137	0xbf958844	-1.168221
138	0xbed0de35	-0.4079453
139	0xbe8b374c	-0.27190626
140	0xbf24fd8e	-0.64449394
141	0x3e073a54	0.13205844
142	0x3c4ed37f	0.012623667
143	0xbe370fc1	-0.17877103
144	0x3d819968	0.06328088
145	0xbf52c2aa	-0.82328284
146	0xbecfea72	-0.40608555
147	0xbe131412	-0.14363125
148	0x3f169b47	0.58830684
149	0x3fa74c5f	1.3070182
150	0x3f145ebf	0.5795707
151	0x3ea1b363	0.31582174
152	0xbef56532	-0.47928768
153	0xbd5b8f8e	-0.0536037
154	0x3e065687	0.13118945
155	0x3ed9f24e	0.42567676
156	0xbe9605ad	-0.29301205
157	0xbf1f2815	-0.62170535
158	0x3ed15192	0.40882546
159	0x3e6b5014	0.22979766
160	0xbe9af8c0	-0.30267906
161	0xbdcc6d68	-0.09981805
162	0x3eecaf59	0.4622753
163	0x3e4f0bdb	0.20219366
164	0xbea30a46	-0.31843776
165	0xbe70f16f	-0.235296
166	0x3e3a712a	0.18207231
167	0xbea1e15b	-0.31617245
168	0x3ea9e1ce	0.33180088
169	0x3f106313	0.56401175
170	0x3c84e7e7	0.01622386
171	0x3eb14aff	0.3462753
172	0xbeef9a9c	-0.46797645
173	0x3f4906f1	0.78526217
174	0xbd422a06	-0.047403358
175	0x3eb45a72	0.35225254
176	0x3ee0e7db	0.43926892
177	0x3e8dbdcd	0.2768387
178	0x3eb4b6e0	0.35295773
179	0x3e87cd5a	0.26523858
180	0xbf1b09a1	-0.6056157
181	0xbef3b612	-0.47599846
182	0x3d87c0a8	0.06628543
183	0xbeb55b57	-0.3542125
184	0x3da476b9	0.08030457
185	0xbf668546	-0.9004711
186	0xbf03b09f	-0.5144138
187	0xbe31e7cd	-0.17373581
188	0xbd0f3ff8	-0.034973115
189	0xbd2bb562	-0.041921027
190	0xbe21ddca	-0.15807262
191	0x3d1b5ab0	0.037928283
192	0x3e18c815	0.14920075
193	0xbc9d9415	-0.01923565
194	0xbee161dc	-0.44019973
195	0xbe557301	-0.20844652
196	0x3e229026	0.15875301
197	0x3d6bd8f2	0.057579942
198	0xbe670e46	-0.22564039
199	0xbe3ead47	-0.18620788
200	0xbe7de57e	-0.24794576
201	0xbd92d6db	-0.07169887
202	0xbe1d6af5	-0.15372832
203	0x3cc739b3	0.024319505
204	0x3e0ef9da	0.13962498
205	0xbe56e957	-0.2098745
206	0xbece5a01	-0.40303043
207	0xbe8edb38	-0.27901626
208	0xbf85e166	-1.0459411
209	0xbf3028e6	-0.68812406
210	0xbeedc4c9	-0.46439198
211	0xbe50842e	-0.20362923
212	0x3e98a948	0.2981665
213	0xbe596c30	-0.21232677
214	0x3f18d940	0.597065
215	0x3ec4b218	0.38417125
216	0xbf673bd3	-0.9032566
217	0xbf5bc0ec	-0.8584125
218	0xbed6c3e0	-0.41946316
219	0xbe7245d2	-0.23659447
220	0xbea964e3	-0.33084783
221	0xbdf49b43	-0.11943676
222	0xbdbbfcc4	-0.091790706
223	0x3edb9830	0.42889547
224	0x3f3611b4	0.7112076
225	0x3f5ba542	0.8579904
226	0x3eeb85ec	0.46000612
227	0x3ec4b71f	0.3842096
228	0x3e3ff00c	0.18743914
229	0x3ec17c6c	0.3779024
230	0xbf037713	-0.5135357
231	0xbebcd4e3	-0.3688117
232	0x3dac5589	0.08414752
233	0x3f04d6b4	0.5189011
234	0x3ea9bc0a	0.33151275
235	0x3e76886d	0.2407548
236	0xbe8d2ba4	-0.27572358
237	0xbf73326a	-0.949988
238	0x3bd245a0	0.0064169914
239	0x3e1f41e7	0.15552483
240	0xbf22c294	-0.6357815
241	0x3e0dbe93	0.1384223
242	0xbebfa150	-0.3742776
243	0xbe1d9ff7	-0.15393053
244	0xbf903d8d	-1.1268784
245	0xbf9b1fff	-1.211914
246	0xbe2fb388	-0.1715833
247	0xbd85aefd	-0.06527517
248	0x3ee788c4	0.4522153
249	0xbee715ed	-0.45133916
250	0x3e4247d3	0.18972711
251	0x3dde5e4b	0.10857829
252	0xbf90b2a4	-1.1304517
253	0xbeae0dd8	-0.33994937
254	0xbf1c5816	-0.6107191
255	0xbe8dda28	-0.27705503

critic.0.bias f4 [64]
0	0x3f1d421c	0.61429
1	0x3f16659f	0.5874881
2	0x3f21d627	0.63217396
3	0xbd8832c7	-0.0665031
4	0x3f362790	0.7115412
5	0xbe591e5a	-0.21202984
6	0xbe7c639b	-0.24647371
7	0x3eec8766	0.4619705
8	0x3f38bbf2	0.7216178
9	0x3f3ca823	0.73694056
10	0x3ebc26a9	0.36748245
11	0x3f140032	0.578128
12	0x3f61698f	0.88051695
13	0x3f0ac1c2	0.542019
14	0xbea7e7dd	-0.32794085
15	0x3e5dcfc4	0.21661288
16	0xbe584550	-0.2112019
17	0x3f429cff	0.7602081
18	0x3f01d653	0.5071766
19	0x3f3b8f1b	0.73265237
20	0xbe3492e1	-0.17634155
21	0xbe505745	-0.2034579
22	0x3f39961a	0.7249466
23	0x3f1c2ca5	0.6100562
24	0x3e145249	0.14484514
25	0x3edb182a	0.42791873
26	0xbe6ac32f	-0.22926019
27	0x3f4423aa	0.7661692
28	0xbea85dc4	-0.32884037
29	0xbf0942f5	-0.53617793
30	0xbee06ad4	-0.43831503
31	0xbde96f00	-0.11398125
32	0xbea870c9	-0.32898548
33	0xbe216f93	-0.15765218
34	0xbed67d5d	-0.4189252
35	0x3f6f2e3b	0.9342992
36	0x3f032a14	0.5123608
37	0xbe9d98e8	-0.3078072
38	0x3e453fe2	0.1926265
39	0x3f0ee1f2	0.55813515
40	0x3efe1d46	0.4963171
41	0xbec81a94	-0.39082778
42	0x3eb28db3	0.34873733
43	0xbea247c3	-0.31695375
44	0x3f5138a0	0.8172703
45	0xbe04965d	-0.12947984
46	0x3e8e67bb	0.27813515
47	0x3f0330be	0.5124625
48	0x3f4df52d	0.80452234
49	0x3f4627e1	0.774046
50	0x3f2375fe	0.63851917
51	0x3f3d4099	0.73926693
52	0xbe8124c5	-0.25223365
53	0x3f528bca	0.8224455
54	0xbe55297a	-0.20816603
55	0xbeda06ac	-0.42583215
56	0xbdd7f8b9	-0.10545487
57	0x3f442a45	0.76627
58	0x3f5a136c	0.85185885
59	0x3f1a3206	0.6023258
60	0x3f3e6c33	0.7438385
61	0xbe56194f	-0.20908092
62	0x3eee2088	0.46509194
63	0xbe74200b	-0.23840348

critic.2.weight f4 [64, 64]
0	0xbd20a076	-0.039215527
1	0xbd90c96b	-0.070696674
2	0x3bccc005	0.0062484764
3	0x3f07e83a	0.53088725
4	0xbd94fc39	-0.0727467
5	0x3f351b93	0.707452
6	0x3dd97e3f	0.10619783
7	0x3caab403	0.02083779
8	0xbe029a1a	-0.12754098
9	0xbddde0c1	-0.10833884
10	0x3dea65b2	0.11445178
11	0x3cbcd946	0.023052823
12	0xbca5e41c	-0.020250373
13	0xbe399393	-0.18122701
14	0x3e30a863	0.17251734
15	0x3cd81989	0.026379364
16	0x3daab8e2	0.08336045
17	0xbd7c6e0a	-0.06162838
18	0x3d87a4d2	0.06623234
19	0xbdf9c5a1	-0.12195898
20	0x3d9606b6	0.07325499
21	0x3e3a7d79	0.18211927
22	0xbe1fd5a2	-0.15608838
23	0x3d77e1be	0.06051802
24	0xbe00809e	-0.12549064
25	0x3dbce9a1	0.09224249
26	0x3dc2021b	0.09473058
27	0xbdb3f3af	-0.08786713
28	0x3c78b84f	0.015180661
29	0x3e392f9a	0.18084565
30	0xbdc45882	-0.09587194
31	0xbd4038b6	-0.046929084
32	0x3e903192	0.2816282
33	0x3f0e7b74	0.55657125
34	0x3d667334	0.05626221
35	0xbc88c203	-0.016694074
36	0xbe78fa98	-0.24314344
37	0x3ebe07a7	0.37115213
38	0x3d22df62	0.039763816
39	0xbe5f3c50	-0.21800351
40	0xbd9aaf17	-0.07552927
41	0xbdee0a20	-0.11623025
42	0x3df49f49	0.11944444
43	0x3e3f9a90	0.18711305
44	0x3c898956	0.01678912
45	0x3d73e388	0.059543163
46	0xbe837003	-0.25671396
47	0x3b17d733	0.002316904
48	0xbdbc9185	-0.09207443
49	0xbbddc1be	-0.0067674806
50	0x3d1dad6b	0.038495462
51	0xbd8203b1	-0.0634836
52	0x3e808556	0.25101727
53	0xbdabc5db	-0.08387347
54	0x3ee43b69	0.44576576
55	0x3d35e22f	0.04440516
56	0x3f53186a	0.8245913
57	0xbda8133e	-0.08206795
58	0xbc8141af	-0.01577839
59	0xbde98e03	-0.1140404
60	0xbe003bbb	-0.12522785
61	0x3f222995	0.633447
62	0xbd38f30e	-0.04515367
63	0x3efb7dd6	0.49119443
64	0x3e265c76	0.16246209
65	0x3e70908e	0.23492643
66	0x3e912ac7	0.2835295
67	0x3d5a4187	0.053285148
68	0x3ebb46c4	0.36577427
69	0xbf040463	-0.51569194
70	0xbdb0d8ab	-0.08635076
71	0x3d753a2a	0.059869923
72	0x3eac1bcc	0.33614957
73	0x3e16f9eb	0.14743774
74	0x3d821f0a	0.063535765
75	0x3e8d0937	0.27546093
76	0x3e5ecf0e	0.21758673
77	0x3e979104	0.29602826
78	0xbdf4394b	-0.1192499
79	0x3ddafe0b	0.10692986
80	0x3d9551de	0.072910056
81	0x3e55d4d6	0.20881972
82	0x3e770437	0.24122702
83	0x3ec308af	0.38092563
84	0xbbab87a9	-0.005234678
85	0xbdbe92c6	-0.093053386
86	0x3ec479f4	0.38374293
87	0x3e41ab39	0.18912973
88	0x3da709a9	0.081561394
89	0x3e80fb20	0.25191593
90	0x3d4813df	0.048847076
91	0x3e9f4985	0.31110778
92	0xbe28bee6	-0.16479072
93	0xbe1e54fb	-0.15462105
94	0x3db276c8	0.08714062
95	0xbce32400	-0.027727127
96	0xbced8ddf	-0.028998313
97	0xbeea733c	-0.45791042
98	0xbebfc238	-0.37452865
99	0x3e3fcaa8	0.18729651
100	0x3ed3350f	0.41251418
101	0xbe303d44	-0.17210871
102	0x3e3ca8a4	0.18423706
103	0x3eca43f4	0.3950497
104	0x3ed37868	0.413028
105	0x3c364816	0.011125585
106	0x3e3ac0f3	0.18237667
107	0xbbf0e52b	-0.0073515377
108	0x3edb4b19	0.42830732
109	0xbe020e64	-0.12700802
110	0x3ddaf6e3	0.10691621
111	0x3e93c733	0.28862914
112	0x3ebeca1d	0.37263575
113	0x3ecedc15	0.40402284
114	0x3e9956bb	0.29948983
115	0x3e92bbcd	0.28658906
116	0xbed47da1	-0.41502097
117	0x3ec3b6d2	0.38225418
118	0xbeadd925	-0.3395473
119	0xbe29df62	-0.1658912
120	0xbe10bbb6	-0.14134106
121	0x3ecb04d9	0.39652136
122	0x3e95fcf1	0.2929454
123	0x3eb159f7	0.3463895
124	0x3e9c61ea	0.30543453
125	0xbef9d414	-0.48794615
126	0x3e7b4f77	0.24542032
127	0xbf014946	-0.5050243
128	0x3e3405da	0.17580357
129	0x3ef50da5	0.47861972
130	0x3e4b150b	0.19832246
131	0xbd96cc90	-0.07363236
132	0x3e78d6a8	0.24300635
133	0xbeb933cd	-0.36172333
134	0xbb987054	-0.0046520624
135	0x3d8e4155	0.06946055
136	0x3eb6e4c2	0.35721403
137	0x3eb3e2e2	0.35134035
138	0x3db92c44	0.09041646
139	0x3eb0f17b	0.34559235
140	0x3e9126bc	0.28349864
141	0x3e9d6fd2	0.30749375
142	0xbcf03a99	-0.029324817
143	0x3d17c6bd	0.037054766
144	0x3a75e8fe	0.0009380727
145	0x3e9a06ec	0.30083406
146	0x3e879d12	0.26487023
147	0x3edc9e15	0.43089357
148	0xbca64372	-0.020295832
149	0xbe24ca5a	-0.16092816
150	0x3eca2190	0.3947873
151	0x3eca2903	0.39484414
152	0x3dde78c3	0.10862877
153	0x3e260a93	0.16214971
154	0x3e0c160f	0.1368029
155	0x3eeedd06	0.46653003
156	0xbd0142a3	-0.03155769
157	0xbe2c4d1f	-0.16826294
158	0xbd9e255a	-0.07721968
159	0xbddfe3f4	-0.109321505
160	0xbe705a39	-0.23471917
161	0xbee6167e	-0.44939035
162	0xbea35286	-0.31898898
163	0x3e9e616a	0.30933696
164	0x3e85b564	0.26114953
165	0xbe2799bd	-0.1636724
166	0xbc306252	-0.010765629
167	0x3ee58e8d	0.4483532
168	0x3eed00b5	0.46289602
169	0xbd4e48e4	-0.050362483
170	0x3e5fe7f7	0.21865831
171	0xbd637206	-0.055528663
172	0x3e9b7e20	0.30369663
173	0x3d9b2d5d	0.07577012
174	0x3d035a9e	0.03206884
175	0x3ea662eb	0.32497343
176	0x3e7f93ce	0.24958727
177	0x3e5efdc5	0.21776493
178	0x3ea133c3	0.31484804
179	0x3e928c73	0.2862278
180	0xbea4a295	-0.3215529
181	0x3ede867b	0.43461975
182	0xbec914ab	-0.3927358
183	0xbe44f082	-0.19232371
184	0xbe84076c	-0.25786912
185	0x3e9b8d9e	0.30381483
186	0x3ef34413	0.47512874
187	0x3e8c3c4b	0.2738975
188	0x3ec6e981	0.38850024
189	0xbf19e28c	-0.6011131
190	0x3ea43f59	0.3207958
191	0xbeda842c	-0.42678964
192	0x3d95aac7	0.07307964
193	0xbd4fb527	-0.05070987
194	0x3d407467	0.04698601
195	0x3e3acd78	0.18242443
196	0xbe2826ca	-0.16421047
197	0x3f275ea1	0.6537877
198	0xbda926a6	-0.08259325
199	0xbe20bbca	-0.15696636
200	0x3d3fdd65	0.046841998
201	0xbd9f43c4	-0.07776597
202	0x3c2793c2	0.010228099
203	0x3e987898	0.29779506
204	0x3de7a20d	0.113102056
205	0xbf07ed26	-0.53096235
206	0x3dc443d4	0.0958325
207	0xbd4d2a69	-0.050089274
208	0x3d5046be	0.050848715
209	0x3bc91f6a	0.006137778
210	0x3dce3e25	0.10070447
211	0xbe45458e	-0.19264814
212	0x3b66e284	0.0035230229
213	0x3dbe29d2	0.0928532
214	0xbe9e67b5	-0.30938497
215	0x3e15bdb2	0.14623144
216	0x3d937044	0.07199147
217	0xbdb473ca	-0.088111475
218	0x3e0d712b	0.13812701
219	0xbc0af3ed	-0.008481008
220	0x3c8464ac	0.016161285
221	0x3e358bc7	0.17729102
222	0x3d8bb1b6	0.06821005
223	0x3dedc85a	0.1161048
224	0x3e5bb5ac	0.21456021
225	0xbc045c94	-0.008078713
226	0x3d004378	0.031314343
227	0xbe1fee9e	-0.15618369
228	0xbe52a9bc	-0.20572561
229	0x3e77ef2c	0.2421233
230	0x3d2cfbb9	0.04223225
231	0xbe398c94	-0.18120033
232	0x3c01fc69	0.007933714
233	0xbd8d6713	-0.069044255
234	0x3e1aa9cf	0.1510384
235	0x3cb5ff18	0.022216365
236	0xbc034fcc	-0.0080146305
237	0xbe833391	-0.2562528
238	0xbe53b877	-0.20675837
239	0x3d8e5e6b	0.069516025
240	0xbe4839a8	-0.19553244
241	0xbe226f60	-0.15862799
242	0xbe2ef358	-0.17085016
243	0xbe8dd30a	-0.27700073
244	0x3e21c7cf	0.15798877
245	0x3e12a4b5	0.14320643
246	0x3df049fc	0.117328614
247	0xbca9e0cc	-0.020737074
248	0x3f499e6a	0.78757346
249	0xbe350a27	-0.17679654
250	0xbd6b7ad1	-0.057490174
251	0xbea10f9d	-0.31457224
252	0xbe823475	-0.25430647
253	0x3df6f474	0.120583445
254	0xbd0da291	-0.034578864
255	0x3db1ca20	0.086811304

critic.2.bias f4 [64]
0	0xbe26adc2	-0.16277221
1	0x3ed53b22	0.41646677
2	0x3eb943ac	0.36184442
3	0xbdb6fbbd	-0.08934734
4	0xbd7234ea	-0.059132494
5	0x3dd2cef8	0.102933824
6	0xbe2f304d	-0.17108269
7	0xbd24ec90	-0.040264666
8	0x3ed27f57	0.41112778
9	0xbdc1b21d	-0.094578005
10	0x3c4c5862	0.012472244
11	0x3e8b7470	0.27237272
12	0xbe3bced4	-0.18340617
13	0xbcec07a7	-0.028812243
14	0xbd115c19	-0.03548822
15	0x3d2ff794	0.04296072
16	0xbe3ca580	-0.18422508
17	0x3eac2c8d	0.3362774
18	0x3ebdf991	0.37104467
19	0xbdda4184	-0.10657027
20	0xbe4000fc	-0.18750376
21	0x3e93cb31	0.2886596
22	0xbdd14f5f	-0.10220217
23	0x3d9a687c	0.0753946
24	0x3efc0231	0.49220422
25	0x3e8dc750	0.27691126
26	0xbd8c5055	-0.068512596
27	0x3db6b1ff	0.08920669
28	0xbcc77c7d	-0.024351353
29	0x3e8bf110	0.27332354
30	0xbcf944c6	-0.030428302
31	0x3da95088	0.08267313
32	0x3ec2d46d	0.38052693
33	0x3e5ffed8	0.21874559
34	0xbd9cbfa6	-0.076537415
35	0x3d965428	0.0734027
36	0x3ee3e95e	0.44513983
37	0xbd9cc3fc	-0.076545686
38	0xbe45c274	-0.19312459
39	0x3e73ab99	0.23795928
40	0x3c9fed9b	0.019522479
41	0xbd4d444a	-0.050113954
42	0x3e79d4f3	0.2439764
43	0x3e9dad48	0.30796266
44	0x3e82fdfc	0.255844
45	0x3eb4a259	0.3528011
46	0x3ed99be3	0.42501745
47	0xbe278a2e	-0.16361305
48	0xbd8daae7	-0.06917363
49	0xbdf90a7e	-0.12160204
50	0x3ef3dd55	0.476298
51	0x3d6401fc	0.055665955
52	0x3ea32fd3	0.31872424
53	0xbe6236ca	-0.22091213
54	0xbe5950da	-0.21222249
55	0x3ecc2609	0.3987277
56	0x3e0a7a59	0.13523234
57	0x3eb6d72a	0.35711032
58	0x3da26c1a	0.07930775
59	0x3eb31968	0.3498032
60	0x3e87b2f4	0.26503718
61	0xbe1ba7f0	-0.15200782
62	0xbd9abc70	-0.07555473
63	0xbdb8866c	-0.09010014

critic.4.weight f4 [1, 64]
0	0xbf059d08	-0.52192736
1	0x3f0a60ac	0.5405376
2	0x3efc25c5	0.49247566
3	0xbf133c72	-0.5751411
4	0xbf100927	-0.56263965
5	0xbec82528	-0.39090848
6	0xbeed5fca	-0.46362144
7	0xbf0e121e	-0.55496395
8	0x3f03404d	0.5126999
9	0xbf25a977	-0.6471171
10	0xbee20446	-0.44143885
11	0x3ef62828	0.48077512
12	0xbf05792a	-0.52138007
13	0xbf28bdca	-0.65914595
14	0x3d2b73be	0.041858427
15	0xbde17e3c	-0.110104054
16	0xbedf8d83	-0.43662652
17	0x3f0e874a	0.55675185
18	0x3f01ee84	0.5075457
19	0xbf12b03f	-0.5730018
20	0xbf07a31b	-0.52983254
21	0x3f16b3d4	0.58868146
22	0xbf209647	-0.62729305
23	0x3ebecf1c	0.37267387
24	0x3ee89ee1	0.45433715
25	0x3f141796	0.5784849
26	0xbef70257	-0.48243973
27	0xbefba81d	-0.49151698
28	0xbefbf9e1	-0.4921408
29	0x3f05030e	0.51957786
30	0xbf1776dc	-0.5916574
31	0xbd67266b	-0.056433123
32	0x3f05ca12	0.5226146
33	0x3f06313e	0.5241889
34	0x3dd638b8	0.10460037
35	0xbf29118a	-0.6604239
36	0x3f0fba6c	0.5614383
37	0xbd3aa03c	-0.045562968
38	0xbeffaf4d	-0.4993843
39	0x3f0b6b13	0.5446026
40	0xbf1abb8c	-0.60442424
41	0xbb9ca4ca	-0.0047803866
42	0x3f237fb4	0.63866735
43	0x3ec8d890	0.39227724
44	0x3f14cb5b	0.58122796
45	0x3ef2952c	0.47379434
46	0x3f03b152	0.51442444
47	0xbf56cb17	-0.8390364
48	0x3cd5e4ae	0.02611002
49	0xbc8c0a20	-0.017094672
50	0x3ef5de77	0.4802129
51	0xbdf5cc72	-0.120018855
52	0x3f1f7285	0.6228412
53	0xbeed2ec1	-0.46324733
54	0xbef883e8	-0.48538136
55	0x3f04fe21	0.5195027
56	0xbebd1805	-0.36932388
57	0x3f0bbb22	0.54582417
58	0xbd0d619d	-0.03451692
59	0x3f11f07f	0.5700759
60	0x3f10f390	0.56621647
61	0xbf4ef84a	-0.8084761
62	0xbd82366e	-0.06358038
63	0xb8d3c800	-0.00010098517
