simple_saved_models/initial_critic_20241125_205103.pth (torch, 21166 bytes, 5 tensors)

critic.0.weight f4 [64, 4]
00000000: 5055 b13e f0d0 7ebd ee74 e23e c860 ddbe
00000010: b46c 1a3e b42d 4abe 0a2c cd3e 5e87 ba3e
00000020: 7c9f 713e 20c1 f7bd 70f2 1b3d f6ec 99be
00000030: 9880 d53d b886 97bd a0b2 a6be 883a 04be
00000040: 0041 09bb ec36 b53e 3243 b8be f012 b1be
00000050: 5ee6 f23e 0cf0 86be 58ce 753e e0ff 0e3e
00000060: 7861 af3e 3827 48be 1886 adbe a4c8 c2be
00000070: 50f7 d1bd c079 143c bcf3 bebe 287f 2f3e
00000080: 6820 85bd d224 8b3e 0ada 8fbe a84d e53d
00000090: 745f 983e dec4 ad3e 8ef8 96be a0f2 963e
000000a0: e016 c43e d019 bcbe 4226 efbe d895 fd3d
000000b0: 3a38 ad3e 52cc c4be fa30 be3e f83b abbd
000000c0: 3897 db3e 36c2 f73e 6c91 163e 74d5 47be
000000d0: 90b7 7ebd 2865 7fbe b0a8 f4be 14d5 44be
000000e0: 90e2 cf3e e46d f8be 300d 1dbe e801 2b3e
000000f0: 4e64 bebe c048 c43d 386d 943d ec49 ffbe
00000100: 8acb 8bbe 8ac0 ed3e c0d6 c7bc 80c7 393e
00000110: e484 d2be 3a84 e03e 7056 f9bd c4df ae3e
00000120: a882 873e 6c71 573e 6cc5 40be ca05 b0be
00000130: 0cef 773e 9844 fcbe 9a2a 9dbe f080 5fbd
00000140: a67f b33e 302a 3bbd 2c9e 43be 1e79 cfbe
00000150: 1801 b13e 8c72 e0be 14ca 88be e069 d03c
00000160: d4ce a2be 749e 42be 6c8a 12be 545e 40be
00000170: c498 713e b448 e03e 56d4 a3be 9093 c13d
00000180: 6c78 ae3e 004c ffbe 8cd2 213e a868 a63e
00000190: e84a a0bd 00b2 a8ba 0000 8d3a e429 a6be
000001a0: 10fc 1ebd d86c e8bd e8fe c23d 7682 ea3e
000001b0: 0436 163e 5003 3f3d 78cb a6bd 60af 523d
000001c0: 3c3e 58be ecf8 97be 6879 933d f81e 50be
000001d0: fca1 6f3e 5400 373e 3659 b3be d294 c43e
000001e0: ae6a 8d3e 2a6a 98be f8e8 38be b803 b3bd
000001f0: 1478 4fbe 087c c43d 5cde ce3e 3ac6 c9be
00000200: fc37 cfbe 92ba a03e 1cbe 30be 08c3 833d
00000210: c63b 95be 5094 293e e08d 63be c069 66be
00000220: 70c1 3dbe 36f1 d9be f60b a1be f025 86be
00000230: 74aa 98be 90ee a03d dc04 183e 78a5 b3be
00000240: 5281 a43e befd f6be ecc2 bbbe d44c 3fbe
00000250: a6b8 923e bc04 d63e 8a40 a03e 10ed dd3e
00000260: 18f1 41be 64ad bdbe 98bd e23d 76a4 af3e
00000270: e0b4 7bbe 66dd f3be e430 9f3e dc04 8c3e
00000280: 68d6 4fbe 00d6 65be 1cc6 c33e 0057 5b3e
00000290: c056 c9be a0b6 28bd ec8d 3c3e 0cce 91be
000002a0: 6842 b53e 60f5 85bc 7877 b2bd da0d a33e
000002b0: 2caa 91be 18f8 d63e b895 fdbd f298 d23e
000002c0: 4c59 be3e d8ab d63d f07e 833e 06ae 853e
000002d0: a622 e5be 0465 babe b83d af3d e0b9 88be
000002e0: 74b0 5f3e 50ed 40be da6f f9be 9ccb 48be
000002f0: e0bc ee3c f093 993e bcb3 7abe 808f 3b3d
00000300: d6f7 ab3e 60fa d43c d495 e6be e4a5 6cbe
00000310: 7cb7 ac3e 30c6 d53d fc43 73be 9c19 51be
00000320: d8f7 40be 9c42 323e e01d 95be b8e8 e43d
00000330: a4ad e83e 301f e8bd 3a47 92be 4e9f d0be
00000340: fc1d 8abe 5cf5 57be c2f9 f6be 803e 77bd
00000350: 1812 223e a88b 98be b4c2 cd3e 5eb3 f03e
00000360: d8bf bbbd c0d6 1ebe 9248 c7be 5099 5cbd
00000370: f087 14be 00cc aebc 48e4 e5bd 3015 d73e
00000380: c8b8 3c3e 9c9d af3e ae89 ef3e 8ccc 273e
00000390: 08ea d93e f80c bd3e 8235 e2be 8086 eebe
000003a0: d0b1 d03d 5443 9c3e 147c 3e3e 6c55 983e
000003b0: 9214 c4be f8a7 f4be c4bb 0bbe 2c8b 443e
000003c0: c810 f5be 2008 9c3e 0444 ecbe 20a0 7dbd
000003d0: 5c42 f5be 301f 8abd 0040 6938 f8eb 88bd
000003e0: 9026 ff3e fcc8 f3be 7882 1b3e d84e c33d
000003f0: 0a0d 8dbe a480 a53e 6ab3 f3be 88da 26be
0.346354 -0.062210977 0.44229835 -0.432379 0.1508053 -0.19743997 0.40072662 0.36431402
0.23595995 -0.120973825 0.038073003 -0.300636 0.10424918 -0.073987424 -0.32558155 -0.12912953
-0.0020943284 0.35393465 -0.35988766 -0.3458476 0.4744138 -0.26355016 0.24004495 0.13964796
0.3425405 -0.19546211 -0.33891368 -0.38043702 -0.10252249 0.009062231 -0.3729533 0.1713835
-0.065003216 0.2717653 -0.28096038 0.111964524 0.29760325 0.3393926 -0.29486507 0.29481983
0.38298702 -0.36738443 -0.46708876 0.12382096 0.3383196 -0.38437134 0.3714674 -0.083610475
0.42888808 0.4839036 0.14703912 -0.1951502 -0.062186778 -0.24940932 -0.47784948 -0.19221908
0.4060254 -0.4852134 -0.15337062 0.16699946 -0.371859 0.095841885 0.07247394 -0.49861085
-0.27303725 0.46435958 -0.024394393 0.1814251 -0.41117013 0.4385088 -0.1217469 0.34155095
0.2646687 0.21039361 -0.1882531 -0.34379417 0.24212283 -0.49271083 -0.30696565 -0.054566324
0.35058326 -0.04569453 -0.19103307 -0.40522093 0.34571147 -0.43837392 -0.26716673 0.02544111
-0.31798422 -0.19005758 -0.14310616 -0.18785983 0.23593432 0.43805468 -0.31997937 0.094519734
0.3407625 -0.4986267 0.15802974 0.3250172 -0.07826787 -0.0012870431 0.0010757446 -0.32453835
-0.038814604 -0.11348885 0.09521276 0.4580266 0.14669043 0.04663402 -0.08144277 0.051436782
-0.2111749 -0.296821 0.07200891 -0.20324314 0.23401636 0.17871219 -0.35029 0.3839479
0.27620453 -0.29768497 -0.1805762 -0.08740944 -0.2026065 0.095939696 0.40404022 -0.39409047
-0.404724 0.31392342 -0.17260021 0.06433684 -0.29147166 0.16560483 -0.2222209 -0.22501278
-0.18530822 -0.42566842 -0.31454438 -0.2620082 -0.29817545 0.07858002 0.14845604 -0.3508718
0.32129914 -0.48240465 -0.3667215 -0.18681651 0.286565 0.41800487 0.3129924 0.43344927
-0.18939626 -0.3704635 0.110713184 0.3430516 -0.24580717 -0.4762985 0.31091988 0.27347457
-0.20296633 -0.22444916 0.38237083 0.21419907 -0.39323997 -0.04118979 0.18413514 -0.28477514
0.35402226 -0.016352355 -0.08714193 0.31846505 -0.28450143 0.41986156 -0.12382072 0.41132313
0.37177503 0.10481995 0.25682783 0.26109332 -0.44752997 -0.36405194 0.08556694 -0.2670431
0.21844655 -0.18840528 -0.48718148 -0.19608921 0.029142797 0.2999568 -0.24482626 0.04579115
0.3358752 0.025998294 -0.45036185 -0.23110157 0.33733737 0.10438192 -0.23756403 -0.20419925
-0.18844545 0.17408222 -0.29124355 0.111772 0.45444977 -0.113340735 -0.28569967 -0.4074654
-0.26976 -0.21089691 -0.48237425 -0.06036234 0.15827215 -0.2979405 0.4018761 0.47011846
-0.09167451 -0.15511608 -0.38922554 -0.053857148 -0.14504981 -0.02133751 -0.11225182 0.42008352
0.18429863 0.34299934 0.4678473 0.16386622 0.42561364 0.36923957 -0.44181448 -0.4658699
0.10190165 0.30520117 0.1860202 0.29752672 -0.38296944 -0.477844 -0.13645846 0.19193715
-0.47864366 0.3047495 -0.46145642 -0.061920285 -0.4790219 -0.0674423 5.5611134e-05 -0.066856325
0.49834108 -0.47614276 0.15186489 0.095365226 -0.2754901 0.32324708 -0.4759782 -0.162943

critic.0.bias f4 [64]
00000000: 5cb6 743e 8cc9 603e 3439 613e 0014 4d3d
00000010: ba08 a33e 266f b9be e000 04be 10a9 163d
00000020: 8ad9 953e 8ad1 a43e a004 0ebd a8fe 0c3e
00000030: eac7 ea3e 00a3 273b 5042 72be 9012 52bd
00000040: d07f abbd aaa9 a63e 34d2 0d3e 9616 a33e
00000050: 8816 c6bd c0d6 c1bd 0413 953e d004 4b3e
00000060: d8fb b1bd 40d1 b33d c0b0 55bd d6d9 b63e
00000070: 78b2 4cbe 90fd dcbe d46a e0be f012 0abd
00000080: f8e8 90be c464 37be 4eb9 e8be beb6 ff3e
00000090: 0098 773d 7e33 bcbe 8028 1dbd f856 db3d
000000a0: f086 653d 7495 63be 40b6 563c 9005 31be
000000b0: 8431 e13e 78d0 94bd 902b b0bd c04b af3c
000000c0: f865 c63e bec7 b13e e8d9 2f3e 0efe 8f3e
000000d0: c8df b6be ac06 cc3e a074 dfbd 34b7 5abe
000000e0: f473 07be 581e aa3e 4467 e13e e010 0b3e
000000f0: 4cbe a13e b262 c3be 7042 c83d 708c 66bd
0.2389769 0.21951884 0.21994478 0.0500679 0.31842595 -0.36217612 -0.12890959 0.036782324
0.29267532 0.32191116 -0.03467238 0.13769019 0.45855647 0.0025579333 -0.23658109 -0.051287234
-0.08373988 0.32551318 0.13849717 0.3185317 -0.09672266 -0.094647884 0.2911607 0.19826055
-0.086906135 0.08780146 -0.052170515 0.3571307 -0.19989955 -0.43162203 -0.43831503 -0.033709466
-0.2830274 -0.17909533 -0.45453876 0.4994411 0.060447693 -0.36758035 -0.038368702 0.10709947
0.05603689 -0.2222498 0.013104975 -0.17287278 0.4398309 -0.07266325 -0.08602059 0.021398425
0.3874967 0.34722704 0.17172968 0.28123516 -0.35717607 0.3984884 -0.10910916 -0.21358949
-0.13227826 0.33226275 0.44024098 0.13580656 0.31590497 -0.38161236 0.09778297 -0.056286275

critic.2.weight f4 [64, 64]
00000000: ae3b e7bd b0b8 a3bc e488 6fbd 3842 e93c
00000010: 2cd2 473d 0018 a8bb 0cbe 463d 801c c83a
00000020: 4292 bebd b652 f3bd f063 ec3d 7c77 d0bd
00000030: 80b0 ac3c e8b6 8a3d 88d3 883d b40a 5a3d
00000040: 2cc0 15bd c8a0 63bd 505c 1cbc f0f9 283c
00000050: 3072 5d3c 64fc cb3d 5a03 8d3d f00e 283d
00000060: 840c f3bd 727f 883d 484d 323d b033 a7bc
00000070: c0f5 583c 44dd 7d3d 8258 c4bd 3c65 74bd
00000080: bed2 bd3d d8d0 ed3d 3066 48bd 72df a53d
00000090: 708f 6bbc 9cd7 3e3d e021 083d 4459 f7bd
000000a0: 50ac 2dbc 128a b8bd d2f0 b93d f282 e43d
000000b0: 943b 663d a67a 8d3d c015 7ebd 70d2 2dbc
000000c0: d061 ca3c 42a4 e13d be80 8f3d c606 a03d
000000d0: 2869 d9bd 68f1 25bd 5a73 913d cc50 56bd
000000e0: d41d 053d 0066 d039 204b f03b bc4d 29bd
000000f0: 78f9 e2bc b053 c23d 5295 f13d 2432 683d
00000100: 58af e93c e6ca fbbd 1e1c 863d 3c0a 873d
00000110: c45b 773d b070 bebd 58dd b33c d0e9 43bd
00000120: f0b9 5e3c eeb7 8ebd 8063 5abb b4b0 2d3d
00000130: 64c5 b2bd 60d2 29bd e8f1 ccbc 6ad4 8c3d
00000140: 94c8 cc3d 6469 8cbd 644b 303d 323a a43d
00000150: 9061 4b3d 600b 00bd 54ff 2a3d bc0a cebd
00000160: 482f 993c 36dc b83d 3077 4c3c d0c6 38bc
00000170: e8f3 90bd aeb4 87bd c876 b23d d037 03bd
00000180: 6897 d13d 7812 d6bd 20fc f1bc f254 e8bd
00000190: f4cd fe3d 80d5 be3d 9077 f53d 68fc bd3c
000001a0: 70f2 cfbc 6473 a83d a61b b53d 805c df3a
000001b0: 5cc9 d93d ee85 f5bd 203d 1c3c ce92 9a3d
000001c0: 42d3 993d bcf1 c53d 2074 363c 00ba 063b
000001d0: 1029 4fbd bc89 773d d0bb b13c 2ae3 9dbd
000001e0: f6ed cb3d 4a0d fd3d 74ce 15bd 4a23 af3d
000001f0: 7832 03bd eaa2 8f3d 90fe 89bd 1c2f 40bd
00000200: 285f 0d3d 8aff c73d 701d 01bd dcf6 10bd
00000210: 045c a8bd a6a6 8d3d 5484 e33d c032 2ebd
00000220: 506f 4f3c 16ab f83d 7812 a23c fe70 cf3d
00000230: 542c 2fbd 78a8 24bd 6ae1 8a3d c095 75bb
00000240: 686c 003d c0dd a53b 047d 663d 9e2a e33d
00000250: c822 1d3d b682 bfbd a020 f83c 0891 b33d
00000260: e883 283d e04c 07bc f23f ca3d 00fb f83d
00000270: 2471 8a3d 7410 9cbd 5a25 9ebd 700e ecbd
00000280: a8bd c1bd 8ad7 97bd 78ea 223d 0021 50bc
00000290: 98f5 1ebd 56e1 f53d fac0 a4bd 0845 5f3d
000002a0: c03e 593b c868 ad3c 7ee2 f53d 884b 3cbd
000002b0: 7482 2cbd c2f2 ab3d 4437 86bd 2aad d53d
000002c0: 5860 8abd 48b0 e0bd 70ad 1e3c e085 7abc
000002d0: 5c91 783d 561a b83d 40d5 1dbc f87a cfbd
000002e0: 80d7 cbba 90ab 6b3c eabc f73d 008b 94ba
000002f0: 486c ea3c 98bb 0cbd 0020 f5bb fc06 5a3d
00000300: 5815 b4bd aa1a e9bd 9429 06bd 926d f33d
00000310: e871 cf3c f269 d1bd ea4c c6bd 941c aabd
00000320: fa4f be3d c403 f2bd a8c5 763d d4a7 293d
00000330: e097 173d 400b 05bb 841d 1e3d 5aea 9c3d
00000340: a8cb a1bd 0815 9d3c 58fa a53c 8856 d3bc
00000350: 487a 8fbd 68c2 c23d d8ae ef3d f874 3b3d
00000360: 2862 c13d c81b 83bd 7e24 df3d 48b4 ad3c
00000370: 94e9 c03d c033 c43d b6b1 8b3d 1cfd cf3d
00000380: f0f5 433d 8aad 88bd 923f 903d 90f0 213d
00000390: 90b9 da3d 542b b9bd 44d4 e03d 2040 48bc
000003a0: 30b3 913d b4e0 1f3d a663 ef3d 0cfb 21bd
000003b0: f02a a7bd 088f 6abd 4cd8 ce3d 64ae b03d
000003c0: a0e3 c8bd 50ba adbd d8ee 8ebd 72ab afbd
000003d0: 70fb 0e3d 60b3 fb3d 58ea 633d 2c01 a7bd
000003e0: 2cfc 30bd acea adbd 46f5 e2bd 8299 dfbd
000003f0: 00bc 8cbc 087e 923c 0016 61ba e441 72bd
-0.1129068 -0.019985527 -0.05848016 0.028473958 0.04878442 -0.005129814 0.048521087 0.0015267283
-0.0930524 -0.1188101 0.11542499 -0.1017904 0.021080256 0.06773168 0.066809714 0.053232864
-0.036560223 -0.055573255 -0.009543493 0.010313496 0.013515994 0.09960249 0.06885405 0.04102987
-0.118676215 0.06664933 0.043530732 -0.020410389 0.013242185 0.061978593 -0.09587194 -0.059666857
0.092687115 0.116120994 -0.04892558 0.080992594 -0.01437746 0.04659234 0.03323543 -0.12077573
-0.0106001645 -0.0901071 0.09079136 0.11157788 0.056209162 0.06908159 -0.06203246 -0.010609254
0.024704844 0.11017658 0.070069775 0.07813792 -0.1061576 -0.040513426 0.0710208 -0.052323148
0.03249915 0.00039748847 0.0073331743 -0.0413339 -0.027706847 0.094886184 0.11796059 0.056688443
0.028525993 -0.12294559 0.06548332 0.06593749 0.06039025 -0.09298837 0.02195613 -0.047830403
0.013594136 -0.069686756 -0.0033323467 0.042404845 -0.087290555 -0.041460395 -0.025017694 0.06876452
0.09999195 -0.06856039 0.043040648 0.080189124 0.04965359 -0.031260848 0.041747406 -0.10060641
0.018699303 0.09026377 0.012479588 -0.011277869 -0.070777714 -0.06626259 0.08714062 -0.03203565
0.102339566 -0.104527414 -0.029539168 -0.11344327 0.12441626 0.09318066 0.11985695 0.023191646
-0.025384158 0.08225134 0.08843164 0.0017041117 0.106341094 -0.11988436 0.009536058 0.07547532
0.07510997 0.09665248 0.011136085 0.0020557642 -0.05057627 0.060434088 0.021696001 -0.07709344
0.09957497 0.1235605 -0.036573842 0.08551653 -0.032030553 0.07013495 -0.06738007 -0.046919927
0.034514576 0.09765537 -0.031522214 -0.035391673 -0.082206756 0.06916551 0.11109224 -0.042528868
0.012660816 0.12142007 0.019784197 0.101289734 -0.042766884 -0.040199727 0.067812756 -0.003747329
0.031353384 0.005061835 0.056271568 0.11092113 0.038363248 -0.09351103 0.030288994 0.08767897
0.04114142 -0.0082580745 0.09875478 0.121572495 0.06759861 -0.07620326 -0.07721968 -0.11526191
-0.09460002 -0.07414158 0.039774388 -0.01270318 -0.038808435 0.1200587 -0.0804462 0.054509193
0.0033148974 0.021168128 0.120060906 -0.04597047 -0.042116597 0.08395912 -0.0655351 0.10433419
-0.06756657 -0.10971123 0.009684905 -0.015290707 0.0606855 0.08989398 -0.009633362 -0.10130876
-0.0015551895 0.014384165 0.120965794 -0.0011332929 0.028616086 -0.03435859 -0.0074806213 0.053229317
-0.087931335 -0.11382039 -0.032754496 0.11886133 0.02532287 -0.102252856 -0.09682639 -0.08306232
0.09292598 -0.118171245 0.060247093 0.04141982 0.037010074 -0.0020300895 0.038602367 0.076618865
-0.079001725 0.019175068 0.020260975 -0.025798097 -0.07005745 0.09509736 0.11703271 0.045765847
0.0944255 -0.06401783 0.10895632 0.021204129 0.094195515 0.09580183 0.06821005 0.10155699
0.047841966 -0.06673725 0.07043375 0.03953606 0.106799245 -0.09041467 0.109779865 -0.01222232
0.071142554 0.039032653 0.11688928 -0.039546058 -0.081624866 -0.05726531 0.10099849 0.08627012
-0.09809041 -0.08482802 -0.069791496 -0.085776225 0.03490776 0.122900724 0.05564341 -0.081545204
-0.04320924 -0.08492026 -0.110819384 -0.10917951 -0.01717949 0.017882362 -0.0008586347 -0.05914487

critic.2.bias f4 [64]
00000000: 0c51 69bd fadb f23d a4e7 1a3d f06d 2bbc
00000010: d429 6c3d aa7c f43d 3a00 b8bd d8c9 973c
00000020: 9071 b03c 0050 4a39 5691 f43d 6049 80bd
00000030: da29 a3bd 74ad a93d 6021 e1bc 94f7 2f3d
00000040: f0ef b8bd b838 893c 080e 463d c897 c5bc
00000050: 5828 abbd ec4e 10bd c09e afbb c65b f9bd
00000060: 7458 ff3d 90f6 87bc 5a94 afbd be13 cb3d
00000070: 7a43 a53d 4600 eebd d0bf 613d b840 c73d
00000080: 3431 0a3d 380d f0bd a6bf 9cbd 24d1 633d
00000090: 28ce f43d fcc3 9cbd e0aa bebd 3454 bfbd
000000a0: aa74 de3d ccfb 2abd 6caf adbd c8cb 253d
000000b0: 1226 86bd f896 05bd 14d5 c13d 1487 82bd
000000c0: 2839 79bd 7e0a f9bd 96f6 e23d fc01 643d
000000d0: 00b0 87b8 7622 e4bd 2211 febd aa8a c63d
000000e0: 26f7 e53d 48e5 c3bc 7c8e d93d 881a 803c
000000f0: eab9 a4bd e050 9dbd 747c 8dbd 6c86 b8bd
-0.056962058 0.118583634 0.037818566 -0.010463223 0.057657078 0.1193784 -0.08984418 0.018528864
0.021538526 0.00019294024 0.11941783 -0.06263995 -0.07966967 0.08285037 -0.027481735 0.04296072
-0.090301394 0.016750678 0.048353225 -0.024120227 -0.08357304 -0.035231516 -0.0053595006 -0.121757075
0.12468043 -0.016597062 -0.08573218 0.09915875 0.08069511 -0.11621146 0.055114567 0.09729141
0.03373833 -0.11721271 -0.076537415 0.055619374 0.11953384 -0.076545686 -0.093099356 -0.09342232
0.10862096 -0.04174404 -0.08480725 0.040477544 -0.0655023 -0.03261468 0.094644696 -0.0637342
-0.060845524 -0.12160204 0.11082189 0.055665955 -6.470084e-05 -0.111393854 -0.124056116 0.09694417
0.112287804 -0.02391304 0.1062288 0.015637651 -0.08043273 -0.07681441 -0.06908503 -0.09010014

critic.4.weight f4 [1, 64]
00000000: 2225 9dbd 8483 d23d 642f 5a3d 3aa5 bebd
00000010: f490 77bd bca1 4abd b6e8 99bd 380c 8dbd
00000020: 40a9 33bb a01f 86bc a654 a6bd f830 213d
00000030: 708b 1fbd dcfc b5bd 4c4c 4a3d 3c7e e1bd
00000040: 8080 af3b 7c5b 9b3d 4ce8 6a3d 8ac3 efbd
00000050: dc20 2fbd c8fa bc3d 9010 63bd 3a79 c73d
00000060: 206e 3d3c 4685 fa3d 58f9 9bbd 5ade e1bd
00000070: a4fe 4dbd 9022 893c a0c8 78bd f84b 8cbd
00000080: 30b1 053d 944d 2f3d b838 d63d 24dd 62bd
00000090: f001 823d 3ca0 3abd 0094 2ebd ac4c 533d
000000a0: c61d cebd 8036 693b 8660 f03d b0d1 763d
000000b0: b0e3 c13d e08a f1bb b840 4d3d d0e4 c2bd
000000c0: 9489 0d3d 200a 8cbc 50a5 643c 72cc f5bd
000000d0: 180e de3d 5e99 8bbd 00ee b5bb 8424 ba3d
000000e0: e074 30bc 8079 4b3c f85c 5cbd 82a0 873d
000000f0: ec9d 503d 26e1 dfbd c275 8cbd 00c8 d3b8
-0.07673098 0.10278991 0.05326785 -0.09308858 -0.060440972 -0.04947065 -0.07515089 -0.06887096
-0.0027414113 -0.016372502 -0.08121614 0.03935334 -0.038951337 -0.0888612 0.04938917 -0.110104054
0.0053558946 0.07585809 0.05735044 -0.11707218 -0.042755947 0.0922752 -0.055435717 0.09739919
0.0115619 0.12232451 -0.07615918 -0.11028738 -0.050291672 0.016740113 -0.060738206 -0.068504274
0.032639682 0.042798594 0.10460037 -0.055386677 0.06348026 -0.045562968 -0.042621613 0.051586792
-0.100642726 0.0035585463 0.117371604 0.060258567 0.09467256 -0.0073712915 0.05011055 -0.09516299
0.034555033 -0.017094672 0.013955429 -0.120018855 0.10842532 -0.06816362 -0.0055520535 0.09088996
-0.010770053 0.012419105 -0.0537996 0.06622411 0.050931856 -0.109316155 -0.06858398 -0.00010098517
