simple_saved_models/initial_actor_20241125_205103.pth (torch, 21430 bytes, 5 tensors)

actor.0.weight f4 [64, 4]
-0.045725107 0.34479147 -0.44737864 0.034913063 -0.2411511 -0.40052676 -0.23497891 -0.31102234
-0.2361176 0.15740412 -0.07285595 0.3492332 -0.10242653 -0.27835697 -0.053203285 -0.42133933
-0.15441746 0.37543672 0.102490485 -0.39226985 -0.35215616 0.49873853 -0.30476487 -0.23633313
0.4729802 0.17359829 0.26524585 0.024510741 0.3695537 0.29514116 0.01950711 0.32755637
0.3518386 -0.21770263 -0.38117993 0.054939985 -0.2993312 0.42048275 0.28513294 0.040732503
0.15207988 -0.49243677 -0.45780367 0.15324205 -0.018748164 0.14257085 0.28972322 0.3951109
0.16153651 0.056602776 -0.40394247 -0.25887054 -0.020017087 -0.12072581 0.3425148 -0.079399645
-0.33332896 0.03469026 0.12436926 0.48016417 -0.06056857 0.4846334 -0.38530767 0.31307667
-0.1877498 0.251364 0.02763331 0.018417299 -0.031944215 0.20367837 0.4954992 -0.34995192
-0.11468333 -0.36385196 -0.17686307 -0.06133753 -0.3291167 -0.3293724 0.3505683 -0.11458498
-0.3384102 -0.22129774 -0.42467827 0.1254332 0.38518995 -0.1817323 -0.23285758 0.012866318
0.45365041 -0.25128925 0.2480048 -0.12005222 -0.17475474 0.38911074 -0.12697703 -0.16874677
0.11454636 -0.0666216 0.42254448 0.046790063 0.4412315 0.34647536 -0.4595884 0.4172294
-0.41651505 0.063832104 0.15644515 -0.3383745 -0.26109433 0.46811134 0.20183355 -0.2512774
0.4117748 0.15170902 0.05622375 0.18844038 0.21364719 -0.48184425 0.005523205 -0.073631346
-0.32138473 -0.09659386 -0.18386364 0.4747163 -0.13947397 -0.11014658 0.40575844 -0.26069647
0.3047694 0.49290818 0.34545165 -0.08569425 0.33077955 0.4623114 -0.33108252 -0.41751778
-0.025371313 0.15366691 0.40912777 0.24298972 -0.15572691 0.44538575 0.04004121 0.015823126
-0.4790917 -0.03903812 0.24345863 -0.27763575 -0.025990188 -0.37409562 -0.16655666 0.050258696
0.2627039 -0.29721338 -0.25411785 0.08990997 -0.397936 0.15155232 -0.27794236 -0.13402128
-0.07656628 0.052315474 -0.18856609 -0.07215029 -0.21284789 -0.07789832 -0.18250895 -0.47634894
0.31477857 -0.23638523 0.16154099 -0.14993465 -0.3700341 -0.43774313 0.42920357 -0.21382481
0.33060098 -0.35125977 -0.3556565 0.20695275 0.4633748 0.4615947 0.103164315 0.4171992
-0.24522853 0.43388188 0.39779562 0.05093354 0.27902323 -0.18012416 0.11694986 -0.4570037
-0.038557053 0.48506105 -0.19307202 -0.3093325 -0.13162208 0.41537255 0.18750465 -0.2614869
-0.3857593 0.15710455 -0.12251186 0.20293349 -0.39467114 0.09062016 -0.1411941 0.42794585
0.3503254 0.25351632 0.27021343 0.43018913 -0.064415276 0.056021214 0.42687887 -0.363132
0.16605616 0.34654385 -0.12661368 0.40509552 0.19559789 -0.16277832 -0.4841631 -0.14614671
0.45456338 -0.49418944 0.20368558 -0.39710498 0.067926824 0.47468746 0.10207224 -0.3889845
0.34418863 -0.06255156 0.4800098 0.05882317 -0.12683564 0.16125935 -0.0336895 -0.26806366
0.20867932 -0.37988 0.4203652 -0.2443437 0.41739935 0.21445316 -0.056559503 -0.060575187
-0.33878303 -0.17218482 0.17567158 -0.45184785 -0.474639 -0.46136022 0.36705232 -0.4671443
00000000: 404a 3bbd 8288 b03e d00e e5be 0001 0f3d
00000010: 50f0 76be d811 cdbe 509e 70be 523e 9fbe
00000020: d0c8 71be 8c2e 213e 8035 95bd b2ce b23e
00000030: 00c5 d1bd ce84 8ebe b0eb 59bd cab9 d7be
00000040: 9c1f 1ebe 3e39 c03e 88e6 d13d 98d7 c8be
00000050: d04d b4be a85a ff3e 240a 9cbe 5001 72be
00000060: 762a f23e c0c3 313e 4ece 873e c0ca c83c
00000070: 2436 bd3e be1c 973e 60cd 9f3c 78b5 a73e
00000080: 3024 b43e 70ed 5ebe 042a c3be c008 613d
00000090: f041 99be 8449 d73e f2fc 913e 20d7 263d
000000a0: d4ba 1b3e ac20 fcbe 3e65 eabe 7ceb 1c3e
000000b0: c095 99bc 18fe 113e 9a56 943e fa4b ca3e
000000c0: d469 253e 50d8 673d 8cd1 cebe ae8a 84be
000000d0: e0fa a3bc 183f f7bd 1a5e af3e 489c a2bd
000000e0: 18aa aabe 6017 0e3d 50b5 fe3d 14d8 f53e
000000f0: c016 78bd de21 f83e 0c47 c5be 964b a03e
00000100: 7c41 40be c8b2 803e 405f e23c e0df 963c
00000110: f0d7 02bd 1091 503e 12b2 fd3e e62c b3be
00000120: 18df eabd ce4a babe 981b 35be 103d 7bbd
00000130: fc81 a8be 80a3 a8be b07d b33e 88ab eabd
00000140: 1a44 adbe e09b 62be 6e6f d9be 9071 003e
00000150: 9e37 c53e 0818 3abe 3872 6ebe 40cd 523c
00000160: de44 e83e fca8 80be f8f4 7d3e f0dd f5bd
00000170: e8f2 32be 8639 c73e 4406 02be f4cb 2cbe
00000180: 4897 ea3d e870 88bd c057 d83e f0a6 3f3d
00000190: 18e9 e13e 3865 b13e 2c4f ebbe 189f d53e
000001a0: 7641 d5be 68ba 823d 2833 203e 6c3f adbe
000001b0: 28ae 85be 4aac ef3e 74ad 4e3e 6ea7 80be
000001c0: 26d4 d23e 9c59 1b3e e04a 663d 84f6 403e
000001d0: 54c6 5a3e 4ab4 f6be 00fc b43b 08cc 96bd
000001e0: 8a8c a4be 00d3 c5bd c046 3cbe 040e f33e
000001f0: 44d2 0ebe 8894 e1bd 92bf cf3e 027a 85be
00000200: bc0a 9c3e 765e fc3e 0adf b03e 7880 afbd
00000210: f05b a93e 14b4 ec3e a683 a9be e4c4 d5be
00000220: 80d7 cfbc dc5a 1d3e 3279 d13e 4cd2 783e
00000230: e076 1fbe 9a09 e43e 4002 243d 809f 813c
00000240: 824b f5be 70e6 1fbd 384d 793e 4626 8ebe
00000250: 60e9 d4bc 7689 bfbe d48d 2abe 10dc 4d3d
00000260: 2081 863e 5a2c 98be bc1b 82be b822 b83d
00000270: 44be cbbe 8830 1b3e 764e 8ebe e03c 09be
00000280: c8ce 9cbd c048 563d 7817 41be 88c3 93bd
00000290: ccf4 59be 2889 9fbd a0e3 3abe 02e4 f3be
000002a0: a82a a13e f80e 72be 006b 253e 7888 19be
000002b0: 1c75 bdbe de1f e0be 92c0 db3e e4f4 5abe
000002c0: 8844 a93e 52d8 b3be 9c18 b6be 6ceb 533e
000002d0: 763f ed3e 2456 ec3e d047 d33d 229b d53e
000002e0: 301d 7bbe c425 de3e deab cb3e b09f 503d
000002f0: 22dc 8e3e 7872 38be 6883 ef3d 64fc e9be
00000300: 00ee 1dbd ec59 f83e acb4 45be d460 9ebe
00000310: f0c7 06be b6ab d43e 3801 403e 9ce1 85be
00000320: 3e82 c5be 04e0 203e 80e7 fabd cccd 4f3e
00000330: 5612 cabe 1097 b93d 3095 10be b81b db3e
00000340: da5d b33e e4cc 813e 6a59 8a3e c041 dc3e
00000350: 28ec 83bd 8076 653d de8f da3e 70ec b9be
00000360: a00a 2a3e 326e b13e 04a7 01be ae68 cf3e
00000370: d04a 483e 5caf 26be 3ae4 f7be 7ca7 15be
00000380: 88bc e83e 6606 fdbe f492 503e 5851 cbbe
00000390: 381d 8b3d 3c0a f33e 400b d13d fa28 c7be
000003a0: 7e39 b03e 081b 80bd d8c3 f53e 90f0 703d
000003b0: 34e1 01be 2c21 253e 00fe 09bd a43f 89be
000003c0: 08b0 553e a27f c2be 1c3a d73e 3c35 7abe
000003d0: 5eb5 d53e 9c99 5b3e f0aa 67bd b01d 78bd
000003e0: f874 adbe 3851 30be 40e3 333e 9a58 e7be
000003f0: e203 f3be 6837 ecbe 48ee bb3e 8a2d efbe

actor.0.bias f4 [64]
0.21826655 -0.36069232 -0.14435863 -0.28918606 -0.089338005 0.45833755 -0.33315295 -0.14240819
-0.1804266 -0.19012696 0.34188682 0.33452982 -0.22910643 -0.2960903 -0.11848414 0.3481235
0.18051225 -0.08085233 0.1675973 -0.33933675 -0.031496167 -0.36327273 0.33861208 0.01596868
-0.4853626 -0.2579376 -0.26577777 -0.08589345 -0.1929031 0.07014549 -0.21881723 -0.37844253
-0.16979164 -0.43737346 0.19518822 0.45256275 -0.1257407 0.40943277 -0.49547434 -0.18098134
-0.015375614 -0.33883643 0.32204777 0.22252262 0.49017286 -0.09938389 0.014256954 -0.0935958
0.45640737 0.27025622 -0.4015628 0.2953754 0.25282043 -0.3855483 0.20928079 -0.3573538
0.34954703 -0.41819257 0.22456187 -0.19894415 0.118812084 -0.27660716 -0.27776003 0.07315421
00000000: 4481 5f3e aaac b8be c0d2 13be 3210 94be
00000010: d8f6 b6bd 38ab ea3e 0693 aabe 74d3 11be
00000020: c0c1 38be a4b0 42be ca0b af3e 7e47 ab3e
00000030: e09a 6abe 2699 97be d0a7 f2bd 3e3d b23e
00000040: 34d8 383e e895 a5bd a09e 2b3e 8cbd adbe
00000050: 2002 01bd e2fe b9be 905e ad3e c0d0 823c
00000060: 7281 f8be 6610 84be 0614 88be e8e8 afbd
00000070: 6488 45be 70a8 8f3d a011 60be 38c3 c1be
00000080: dcdd 2dbe 6aef dfbe 6cdf 473e 4eb6 e73e
00000090: 2cc2 00be 2ca1 d13e d0ae fdbe 2c53 39be
000000a0: 00ea 7bbc f87b adbe 72e3 a43e f8dc 633e
000000b0: f0f7 fa3e c889 cbbd 0096 693c 28af bfbd
000000c0: 3aae e93e 065f 8a3e a499 cdbe 723b 973e
000000d0: ae71 813e 9666 c5be b44d 563e 14f7 b6be
000000e0: d4f7 b23e 561d d6be 8cf3 653e 04b8 4bbe
000000f0: c053 f33d 749f 8dbe 9036 8ebe e0d1 953d

actor.2.weight f4 [64, 64]
-0.014028147 -0.007733226 -0.0866712 -0.11665046 -0.11796065 -0.10342887 0.0005476475 -0.027421579
-0.026157409 0.10043821 0.07462601 0.042287424 -0.0057997108 -0.08432628 0.0106794685 -0.123683274
0.10132931 -0.010529831 0.015857339 -0.036228955 -0.11750965 0.091190964 -0.07248303 0.029511511
0.051959053 -0.05328621 -0.07305409 -0.07114892 -0.084318 0.046167642 0.0669862 0.008372918
0.001945436 -0.018612057 0.079945445 0.048921317 -0.019834772 -0.028428122 0.116718754 0.12221499
-0.028772563 -0.11231816 0.024128422 0.114436924 -0.025487155 -0.03294958 -0.028935373 -0.06223665
0.114399254 -0.025274083 -0.08708708 -0.029100686 0.10914229 0.08064559 -0.033582315 0.09167433
-0.013536796 0.008241221 0.047043905 -0.104512155 -0.04541552 -0.09909865 -0.020406112 0.07256749
0.049089924 -0.019491464 -0.018431574 0.08376452 0.1199332 -0.08358346 -0.09799753 0.087080404
0.04145187 -0.108323395 0.0617788 0.032793537 0.09100664 -0.054457426 -0.043697655 0.0276635
0.04656005 -0.06205201 0.07208963 0.07730587 0.031464085 -0.043874636 0.081050396 -0.107760906
-0.061340824 -0.12123777 -0.09108347 -0.06363642 0.076240584 0.044570446 8.2716346e-05 0.028612375
-0.084867924 -0.02626744 0.10524878 0.09583099 -0.061343953 0.10062812 0.11681868 0.0651104
0.07116486 -0.112356514 0.118665546 -0.10742454 -0.055588976 0.06761655 0.07176155 -0.019286782
-0.037268028 0.033049792 -0.047360167 0.11785619 -0.074747264 -0.016084686 0.102584586 -0.048812687
0.09931959 0.08441539 0.0943436 0.05916789 -0.04894471 -0.082814395 -0.05269985 0.034661144
0.11457507 -0.028304294 -0.0023593158 0.016537562 -0.018900678 0.12098913 -0.0037437081 -0.03296639
-0.026849791 0.10911322 -0.123678446 0.052615434 -0.082396835 0.039680183 -0.016133144 0.01557602
0.050496027 0.04160519 -0.0700943 0.08477758 0.10074608 0.04236442 -0.018169463 -0.038847223
-0.06418891 0.016584009 0.039938018 0.013355777 0.009700045 0.09069592 0.09579614 -0.07071549
-0.12327942 0.064582646 0.027621418 -0.01306437 -0.079236284 0.023028955 -0.11673765 -0.065237984
0.0077816695 -0.08099252 -0.02139543 -0.06460492 -0.024834812 0.04570192 0.06435546 -0.053705275
0.072127745 -0.031692445 -0.121668026 -0.1058632 0.1120127 -0.01122281 0.03884402 0.08572021
0.006535962 0.098287955 0.09220952 -0.08031011 -0.030082285 -0.048289075 -0.100203305 0.077459574
0.0030496567 -0.015620217 0.092530176 -0.056999475 0.0074162185 0.08511354 0.06362544 0.07728054
0.00889352 0.112683654 0.042632714 0.0018476248 0.0103799105 0.029072762 -0.08857061 -0.08237098
-0.07817745 -0.0031111687 -0.11409658 0.006691605 0.067021936 0.02054058 -0.0032613128 -0.09268518
0.08814645 0.11826646 0.05005905 0.059021726 0.0530933 0.06582968 0.07450946 -0.07642569
-0.08975232 -0.05425231 0.010564461 -0.104714856 0.124910265 0.081185594 -0.04613073 -0.07750401
0.051452264 0.06763533 -0.07585789 -0.083539724 0.03348039 -0.10075764 -0.05627355 0.11021103
-0.079979256 -0.08660823 0.109358594 0.099660695 0.09120555 0.06913276 -0.048624024 -0.031452343
-0.10529259 0.07571356 -0.10597339 -0.04216534 -0.11221327 -0.051386327 -0.022637531 0.108715564
00000000: 50d6 65bc 0067 fdbb ac80 b1bd 70e6 eebd
00000010: 5a95 f1bd 84d2 d3bd 0090 0f3a 38a3 e0bc
00000020: 1048 d6bc 8cb2 cd3d 86d5 983d 9435 2d3d
00000030: 800b bebb 42b3 acbd f0f8 2e3c a84d fdbd
00000040: be85 cf3d 5085 2cbc 40e7 813c d064 14bd
00000050: e6a8 f0bd 54c2 ba3d fc71 94bd 20c2 f13c
00000060: 04d3 543d a442 5abd 629d 95bd 86b6 91bd
00000070: eaae acbd 481a 3d3d 1030 893d 902e 093c
00000080: 00fe fe3a 5078 98bc 70ba a33d b861 483d
00000090: 887c a2bc 18e2 e8bc 3e0a ef3d da4b fa3d
000000a0: 70b4 ebbc 1007 e6bd f8a8 c53c e85d ea3d
000000b0: 70ca d0bc 24f6 06bd e009 edbc dceb 7ebd
000000c0: 284a ea3d 980b cfbc b65a b2bd 9064 eebc
000000d0: fe85 df3d 8429 a53d 9c8d 09bd c0bf bb3d
000000e0: 70c9 5dbc 3006 073c 1cb1 403d 780a d6bd
000000f0: a005 3abd 3cf4 cabd b82a a7bc 449e 943d
00000100: 8412 493d 90ac 9fbc d0fd 96bc bc8c ab3d
00000110: 8a9f f53d ce2d abbd eeb2 c8bd 3657 b23d
00000120: 70c9 293d a8d8 ddbd c40b 7d3d 8452 063d
00000130: b061 ba3d c00e 5fbd 50fc 32bd 909e e23c
00000140: c0b5 3e3d 402a 7ebd baa3 933d 8a52 9e3d
00000150: 7ce0 003d e4b5 33bd c0fd a53d c0b1 dcbd
00000160: 8440 7bbd 824b f8bd f889 babd d053 82bd
00000170: 0624 9c3d 808f 363d 0078 ad38 8064 ea3c
00000180: 3ccf adbd d02e d7bc ac8c d73d 0a43 c43d
00000190: cc43 7bbd 1e16 ce3d a23e ef3d 9a58 853d
000001a0: e2be 913d 2c1b e6bd ec06 f33d 6601 dcbd
000001b0: 44b1 63bd 8c7a 8a3d b8f7 923d 50ff 9dbc
000001c0: 5ca6 18bd 385f 073d bcfc 41bd 965e f13d
000001d0: 1815 99bd 08c4 83bc de17 d23d d0ef 47bd
000001e0: 1268 cb3d fae1 ac3d 3837 c13d 085a 723d
000001f0: 407a 48bd 989a a9bd ccdb 57bd d8f8 0d3d
00000200: 56a6 ea3d 68de e7bc c09e 1abb c879 873c
00000210: 98d5 9abc 26c9 f73d 0059 75bb c407 07bd
00000220: 18f4 dbbc c076 df3d 204b fdbd 4883 573d
00000230: acbf a8bd b087 223d a829 84bc 9032 7f3c
00000240: ecd4 4e3d 346a 2a3d 9a8d 8fbd de9f ad3d
00000250: f653 ce3d 5086 2d3d 20d8 94bc 441e 1fbd
00000260: 7a75 83bd 30db 873c 0c96 233d 30d2 5a3c
00000270: f0ec 1e3c c8be b93d c430 c43d 48d3 90bd
00000280: ec79 fcbd e843 843d 5046 e23c f00b 56bc
00000290: a246 a2bd 38a7 bc3c 2614 efbd 7e9b 85bd
000002a0: 60fd fe3b 68df a5bd 7845 afbc 964f 84bd
000002b0: 6072 cbbc f031 3b3d cccc 833d 10fa 5bbd
000002c0: b6b7 933d f0cf 01bd 162d f9bd cece d8bd
000002d0: ea66 e53d e0df 37bc e81a 1f3d 148e af3d
000002e0: a02b d63b 324b c93d 58d8 bc3d a079 a4bd
000002f0: 206f f6bc c4ca 45bd 6437 cdbd 20a3 9e3d
00000300: c0dc 473b f0eb 7fbc 7680 bd3d 4878 69bd
00000310: c003 f33b 0250 ae3d 0e4e 823d 4245 9e3d
00000320: 20b6 113c b0c6 e63d a49f 2e3d 002c f23a
00000330: 8010 2a3c 002a ee3c 8264 b5bd 1eb2 a8bd
00000340: 801b a0bd c0e4 4bbb 78ab e9bd 4045 db3b
00000350: cc42 893d b844 a83c c0bb 55bb bad1 bdbd
00000360: 2086 b43d b035 f23d b80a 4d3d c4c0 713d
00000370: 5c78 593d b6d1 863d 6a98 983d 1285 9cbd
00000380: 10d0 b7bd ac37 5ebd 9016 2d3c be74 d6bd
00000390: f4d0 ff3d a244 a63d 94f3 3cbd 6cba 9ebd
000003a0: 9cbf 523d 6484 8a3d 625b 9bbd e016 abbd
000003b0: bc22 093d 065a cebd 187f 66bd 52b6 e13d
000003c0: 2acc a3bd a85f b1bd 66f7 df3d e81a cc3d
000003d0: fac9 ba3d 7a95 8d3d fc29 47bd 2cd4 00bd
000003e0: a4a3 d7bd b60f 9b3d 9408 d9bd 90b5 2cbd
000003f0: 12d0 e5bd 787a 52bd 5872 b9bc 44a6 de3d

actor.2.bias f4 [64]
0.05978121 -0.036982372 -0.046953395 0.0279129 0.02353707 0.06256543 -0.024444908 -0.056092694
-0.045700908 -0.11531936 -0.04876712 0.052897334 0.112600446 0.050363213 0.00025330484 0.02753228
-0.02825433 -0.0089937 -0.016270474 0.037920997 0.063687846 -0.076183766 -0.120263785 -0.0445835
-0.06524938 -0.009092569 0.10202667 0.026768014 0.04973899 0.09229207 0.05096042 -0.09577493
0.011943385 0.08857687 0.07771769 0.038564086 0.097051054 -0.06674418 -0.098104715 0.10663037
-0.10401116 -0.046702072 -0.08567478 0.06531805 -0.067487374 -0.09734766 0.078719646 -0.04346715
-0.012678236 -0.037959844 -0.021561697 -0.048719496 0.08827914 -0.01867649 -0.10137148 0.10010113
0.032052338 0.049564183 0.03433445 -0.04580663 -0.0794615 -0.015381306 0.0065123886 -0.050607592
00000000: 24dd 743d d47a 17bd 3452 40bd 98a9 e43c
00000010: d0d0 c03c 4e22 803d b040 c8bc 74c1 65bd
00000020: e030 3bbd 8e2c ecbd 08c0 47bd e0aa 583d
00000030: 109b e63d a849 4e3d 00ce 8439 608b e13c
00000040: a075 e7bc 505a 13bc a849 85bc 0c53 1b3d
00000050: c66e 823d 3c06 9cbd dc4c f6bd 309d 36bd
00000060: 78a1 85bd 00f9 14bc 5cf3 d03d 9848 db3c
00000070: 1cbb 4b3d a003 bd3d e0bb 503d a625 c4bd
00000080: 30ae 433c ca67 b53d 742a 9f3d 60f5 1d3d
00000090: b4c2 c63d 2cb1 88bd 20eb c8bd 0661 da3d
000000a0: ce03 d5bd ac4a 3fbd 4276 afbd 78c5 853d
000000b0: d236 8abd 365e c7bd c437 a13d 9c0a 32bd
000000c0: 60b8 4fbc c87b 1bbd 28a2 b0bc 188e 47bd
000000d0: b2cb b43d 70ff 98bc da9b cfbd d201 cd3d
000000e0: 5049 033d d003 4b3d 48a2 0c3d bc9f 3bbd
000000f0: b6bc a2bd e001 7cbc e065 d53b e849 4fbd

mean.weight f4 [1, 64]
0.12265131 0.008775994 -0.10997622 -0.116617024 -0.102950335 0.10505925 -0.055582896 0.042606235
0.07898615 -0.062411293 -0.071749315 -0.105205804 0.11226651 0.08890791 -0.088315055 0.03386502
0.055263117 -0.07205941 -0.094462335 0.018666446 0.06286444 0.027047753 0.0640544 0.08913629
-0.09619984 -0.04456976 0.05814287 -0.08671981 0.11328474 0.12359147 0.030574948 -0.08151339
0.039581373 0.08620027 -0.020677373 -0.11909102 0.11606227 -0.056120977 -0.12409006 -0.122139096
-0.10020657 -0.061298385 0.053093836 -0.09432925 0.100861564 -0.11030325 -0.09113969 -0.0029722005
-0.07922655 -0.051828608 -0.0444033 -0.11526352 -0.028141022 -0.124672845 -0.11556172 0.057417378
0.048914835 0.008063123 0.024045095 0.022240564 -0.035994604 0.08234994 0.019495249 -0.088246465
00000000: 9c30 fb3d 30c9 0f3c 363b e1bd e8d4 eebd
00000010: a0d7 d2bd 4e29 d73d e4aa 63bd e083 2e3d
00000020: 7ec3 a13d fca2 7fbd 4ef1 92bd 2476 d7bd
00000030: fceb e53d 5a15 b63d 86de b4bd 0cb6 0a3d
00000040: 945b 623d e293 93bd 7875 c1bd 60ea 983c
00000050: 12bf 803d 4093 dd3c f42e 833d 168d b63d
00000060: 6c04 c5bd c88e 36bd 3827 6e3d 289a b1bd
00000070: d401 e83d 861d fd3d 5078 fa3c 7ef0 a6bd
00000080: 1420 223d c489 b03d 9863 a9bc fee5 f3bd
00000090: 0eb2 ed3d 1cdf 65bd ee22 febd 1024 fabd
000000a0: 1a39 cdbd 0414 7bbd ec78 593d b22f c1bd
000000b0: 8290 ce3d ace6 e1bd 72a7 babd 40c9 42bb
000000c0: 8841 a2bd 3c4a 54bd 3ce0 35bd 480f ecbd
000000d0: 0088 e6bc 7a54 ffbd a0ab ecbd 7c2e 6b3d
000000e0: ec5a 483d 301b 043c 38fa c43c d831 b63c
000000f0: 146f 13bd 16a7 a83d 80b4 9f3c 90ba b4bd
